temp/MVSE/dblp/Moco_K4096_<MPRW>3x2hopsmp_spec_WL_0_0_1_bsz128_GElayer2_ned32_sed64-E400.pt (torch, 363331 bytes, 56 tensors)

gnn.0.ginlayers.0.apply_func.mlp.linears.0.weight f4 [32, 334]
0	0xbeef4dbd	-0.46738997
1	0x3e929a0d	0.28633156
2	0xbce77437	-0.028253658
3	0xbeae8269	-0.3408387
4	0x3e32c2b9	0.17457093
5	0x3e9dc7b6	0.3081643
6	0xbdb9c9f4	-0.090717226
7	0xbe4f10a5	-0.20221193
8	0xbe2c2d0d	-0.1681406
9	0xbed87201	-0.42274478
10	0xbe7f92fa	-0.24958411
11	0xbeb203dc	-0.3476857
12	0xbd53e810	-0.051734984
13	0xbc979eda	-0.018508364
14	0xbeac2fe0	-0.33630276
15	0xbf00107e	-0.50025165
16	0x3c8b4338	0.016999826
17	0x3ddfd8e6	0.10930042
18	0x3e6edb6e	0.23325893
19	0xbeb02fa0	-0.34411335
20	0x3d6ee2e5	0.058321852
21	0xbecf72f0	-0.40517378
22	0xbf211ce8	-0.6293473
23	0x3df2ee31	0.11861838
24	0xbcb03a54	-0.021512188
25	0x3ee027e7	0.43780443
26	0xbda6bdce	-0.08141671
27	0xbee75f55	-0.4518992
28	0x3dddea3e	0.10835694
29	0x3d3bfab3	0.045893382
30	0x3dd523a1	0.10407186
31	0xbd686965	-0.056741137
32	0x3d04f35b	0.032458644
33	0x3ec2b5dd	0.38029376
34	0xbde3a536	-0.11115496
35	0xbe3c19c0	-0.18369198
36	0xbed45e71	-0.41478303
37	0xbf00cd76	-0.5031351
38	0x3b4d8f2e	0.003136586
39	0xbd74fdc5	-0.059812326
40	0x3cec2716	0.028827231
41	0xbc9f9837	-0.019481761
42	0xbef8b368	-0.48574376
43	0xbe54b597	-0.20772396
44	0x3e13c9a9	0.14432396
45	0x3d974180	0.0738554
46	0x3e7a96e4	0.24471623
47	0xbdee17d5	-0.11625639
48	0xbcdf390a	-0.027248878
49	0xbd01641f	-0.031589624
50	0xbef804f9	-0.48441294
51	0xbeba68b0	-0.36407995
52	0x3e21309e	0.15741202
53	0xbcf53ec5	-0.029937157
54	0xbda000c4	-0.07812646
55	0xbe8569f2	-0.26057392
56	0xbef34673	-0.47514686
57	0x3e22500c	0.15850848
58	0xbeb9b976	-0.36274308
59	0x3de31ddf	0.11089682
60	0xbed60c92	-0.41806465
61	0xbe4e26f6	-0.2013205
62	0x3e01b757	0.12667595
63	0xbe2c7c5a	-0.16844311
64	0xbeb67489	-0.35635784
65	0xbeb7525c	-0.35805023
66	0x3e249c26	0.16075191
67	0x3ddf02c0	0.108891964
68	0xbe59f41b	-0.21284525
69	0x3eab28c7	0.33429548
70	0xbe483bc3	-0.19554047
71	0xbdc6c4f8	-0.097055376
72	0x3e907955	0.2821757
73	0x3e9d0b03	0.30672464
74	0x3e7ea62b	0.24868076
75	0x3dc9a22d	0.09845386
76	0xbe5a882e	-0.21341011
77	0xbe38c773	-0.18044834
78	0x3d3a7238	0.045519084
79	0xbc8f031d	-0.01745754
80	0x3e4edad1	0.2020066
81	0xbe2300b1	-0.15918233
82	0x3cba523c	0.02274429
83	0x3d3b2a02	0.04569436
84	0x3e382812	0.17984036
85	0x3ec9740d	0.39346352
86	0x3e46497a	0.19363967
87	0xbd3869d2	-0.045022793
88	0x3c933558	0.017969772
89	0xbecaf51d	-0.39640132
90	0xbd5fd28a	-0.054644145
91	0xbe44afd7	-0.19207703
92	0xbde7c6d6	-0.11317222
93	0x3e3f4074	0.1867693
94	0x3e5c6cc9	0.21525873
95	0x3e544384	0.2072888
96	0xbddf7353	-0.10910668
97	0x3c4a67bc	0.012353834
98	0xbdf1c63d	-0.11805389
99	0xbd05b31f	-0.032641526
100	0x3da85f69	0.08221323
101	0x3d3cf544	0.04613234
102	0x3e989ae6	0.29805678
103	0xbd6927c3	-0.056922685
104	0x3e9e822a	0.30958682
105	0x3df998b0	0.12187326
106	0x3ee161a3	0.44019803
107	0xbea09bdc	-0.3136891
108	0x3c395714	0.011312265
109	0x3d8fd5a6	0.07023172
110	0x3dcf13bf	0.10111188
111	0xbeb2b495	-0.34903398
112	0xbdff7839	-0.124741025
113	0xbd358648	-0.044317514
114	0xbe054f87	-0.13018619
115	0xbe554bb1	-0.20829655
116	0xbeefdc6c	-0.46847856
117	0xbe11a734	-0.14223939
118	0xbda655de	-0.081218466
119	0x3d55c663	0.05219115
120	0xbe057e35	-0.13036425
121	0x3e4aa244	0.19788462
122	0x3e4fd080	0.2029438
123	0x3ea0d6c3	0.3141385
124	0xbc90c936	-0.01767407
125	0x3e77e980	0.24210167
126	0x3c93e83f	0.01805508
127	0x3f22ff1e	0.6367053
128	0xbe836f4b	-0.25670847
129	0x3e09d8ec	0.13461655
130	0x3df3c8bd	0.11903522
131	0xbeaabd9e	-0.3334779
132	0x3ddf6fa6	0.10909967
133	0xbe0529c3	-0.13004212
134	0xbec8b886	-0.3920328
135	0x3cab1af2	0.020886872
136	0xbdd8ac7d	-0.105797745
137	0x3ea5cee9	0.32384422
138	0xbe85a56e	-0.26102775
139	0xbeb7d2bf	-0.35902974
140	0x3e297b1c	0.16550869
141	0x3e8135a8	0.2523625
142	0xbdd5fdba	-0.10448785
143	0xbea9f17f	-0.3319206
144	0x3e0c0133	0.13672332
145	0xbd6ae1c2	-0.057344206
146	0x3e8aaa70	0.27083158
147	0x3e7f624f	0.24939846
148	0x3de85112	0.11343588
149	0xbe807bb4	-0.25094378
150	0xbced816f	-0.028992383
151	0x3d5f467d	0.054510582
152	0x3d625199	0.0552536
153	0xbec56698	-0.38554835
154	0x3e10d39f	0.14143227
155	0xbeb2b8fe	-0.34906763
156	0x3ef1b4b0	0.47208166
157	0xbf1314b7	-0.57453483
158	0xbd94e589	-0.07270343
159	0xbecff5c6	-0.40617198
160	0x3d1096b7	0.035299983
161	0x3e966f4b	0.29381785
162	0x3da4eb12	0.080526486
163	0xbd56fb24	-0.0524856
164	0x3d407375	0.04698511
165	0x3ec66b11	0.3875356
166	0x3e1a3c8d	0.15062161
167	0x3c481d94	0.012214083
168	0xbe8275f2	-0.2548061
169	0xbdeec2f6	-0.116582796
170	0xbf2ee454	-0.6831715
171	0x3ddd4e0f	0.10805904
172	0x3d200874	0.03907056
173	0x3e9809b5	0.29694906
174	0xbc8b4fdd	-0.017005855
175	0x3e53f305	0.20698173
176	0xbe732d3d	-0.23747726
177	0xbea8777d	-0.32903662
178	0xbe97bf80	-0.2963829
179	0x3dd5434e	0.10413228
180	0xbd313f3b	-0.043273192
181	0xbefc2321	-0.4924555
182	0x3eaff0d0	0.34363413
183	0x3da45734	0.08024445
184	0xbf2b08d9	-0.66810375
185	0x3eb2b9f1	0.34907487
186	0xbf016b11	-0.50553995
187	0xbdde8754	-0.108656555
188	0x3ebafa7c	0.3651923
189	0x3e0d4233	0.13794784
190	0x3ebaa27d	0.36452094
191	0xbdb41785	-0.087935485
192	0x3e051204	0.12995154
193	0xbdd8737a	-0.105689004
194	0xbe290202	-0.16504672
195	0xbed66c98	-0.41879725
196	0x3ec5646a	0.38553172
197	0xbd8ee53b	-0.06977316
198	0xbc97c5ef	-0.018527
199	0xbd45649f	-0.048191663
200	0x3d97e4c7	0.07416683
201	0x3da65c54	0.08123079
202	0xbe913dc9	-0.2836745
203	0x3e14a2c1	0.1451521
204	0xbe3b9b4f	-0.18320964
205	0x3e572180	0.21008873
206	0xbe81b443	-0.2533284
207	0xbde9097c	-0.11378762
208	0xbeb2994d	-0.34882584
209	0x3d2dccec	0.042431757
210	0xbe2d3b75	-0.16917212
211	0x3e01ff71	0.126951
212	0xbeaf47d8	-0.342345
213	0xbce5a34e	-0.028031971
214	0xbe0fab7c	-0.1403026
215	0xbd3b8f5f	-0.045791026
216	0xbeb37fb4	-0.35058367
217	0xbeff051e	-0.49808592
218	0xbe8e5847	-0.27801725
219	0xbe43fcf0	-0.19139457
220	0x3e632f50	0.22186017
221	0x3dc3e3ae	0.09564911
222	0xbee87a40	-0.4540577
223	0x3e958bf7	0.29208347
224	0x3db7b008	0.08969122
225	0xbdde29e1	-0.108478315
226	0xbc60feb9	-0.013732606
227	0xbc0cebc0	-0.008601129
228	0xbec39f5e	-0.38207525
229	0x3d4d1c40	0.05007577
230	0xbddf85e3	-0.10914209
231	0xbe488c2a	-0.19584718
232	0xbe8c8c20	-0.27450657
233	0xbcd8c8d9	-0.02646296
234	0xbe2c23b6	-0.16810498
235	0xbe94bbb8	-0.29049468
236	0x3e381c75	0.17979605
237	0x3c45bff7	0.012069694
238	0x3ecd3b5f	0.4008436
239	0x3e2b3e2e	0.16722938
240	0x3bd908d2	0.006623366
241	0xbe55963a	-0.20858088
242	0xbda3d9eb	-0.08000549
243	0xbe7bbbd6	-0.24583372
244	0x3d90d068	0.07071
245	0xbd73678e	-0.05942493
246	0xbf122360	-0.5708523
247	0xbf0eab6c	-0.5573032
248	0x3eb40060	0.35156536
249	0xbe261406	-0.16218576
250	0xbe93efab	-0.2889379
251	0x3eb6ae72	0.35679966
252	0x3ca15b92	0.019696984
253	0xbd980f8a	-0.07424839
254	0xbee91b7c	-0.4552878
255	0xbdd6ef75	-0.104948916

gnn.0.ginlayers.0.apply_func.mlp.linears.0.bias f4 [32]
0	0xb74874e0	-1.1948141e-05
1	0xb7aa72ce	-2.031904e-05
2	0x377af902	1.4959138e-05
3	0x38c835d0	9.5467665e-05
4	0xb89632b1	-7.1619994e-05
5	0xb7fbff66	-3.004046e-05
6	0x3891092b	6.9158465e-05
7	0x37fb5ea7	2.9965608e-05
8	0x360e4830	2.1201668e-06
9	0x391dae32	0.0001503758
10	0xb819c69a	-3.6663005e-05
11	0xb94bd221	-0.00019437868
12	0xb91f8b04	-0.00015215209
13	0xb694bd32	-4.432769e-06
14	0x38780f62	5.9142134e-05
15	0xb9310b5c	-0.00016884267
16	0xb900e19e	-0.0001229108
17	0x3885e23c	6.384074e-05
18	0xb893e940	-7.0529524e-05
19	0x38843078	6.3032785e-05
20	0xb82f9957	-4.186606e-05
21	0x3733ec6b	1.0724277e-05
22	0x37d4724c	2.5325593e-05
23	0x38f6fc8c	0.000117772346
24	0xb8077320	-3.2293727e-05
25	0x390d6cc4	0.00013487326
26	0x386370d4	5.4226097e-05
27	0xb8041a4a	-3.1495736e-05
28	0x388181e7	6.1753955e-05
29	0x388935e1	6.542705e-05
30	0x38d9796c	0.00010369983
31	0xb9009daa	-0.00012265766

gnn.0.ginlayers.0.apply_func.mlp.linears.1.weight f4 [32, 32]
0	0x3e4d7fbf	0.20068263
1	0xbd4a1579	-0.049336884
2	0x3ead44dd	0.338416
3	0x3e833739	0.2562807
4	0xbeddad6a	-0.43296367
5	0xbd0c9db1	-0.034330074
6	0xbde46422	-0.11151911
7	0x3cdf93aa	0.027292091
8	0x3d2bd967	0.041955378
9	0xbe365291	-0.17804934
10	0x3e7abcc3	0.2448607
11	0xbebd4aa7	-0.36971018
12	0xbf97d44d	-1.1861664
13	0xbe64f697	-0.22359692
14	0x3e7b96ff	0.24569319
15	0x3e1ab942	0.15109733
16	0x3eb350f4	0.350227
17	0xbe3ccd3d	-0.18437667
18	0x3f1cacb5	0.6120103
19	0xbe5bb86e	-0.21457073
20	0x3e1aecbe	0.15129372
21	0x3d94e083	0.07269385
22	0x3c943c08	0.018095031
23	0x3ecd0ae1	0.40047362
24	0xbf25a2bb	-0.6470143
25	0xbd29658c	-0.04135661
26	0xbf450394	-0.76958585
27	0x3e9354a1	0.28775504
28	0xbe692b04	-0.22770315
29	0x3d372acd	0.044718552
30	0x3d49f80e	0.04930883
31	0xbef4e4e5	-0.47830883
32	0xbecbb349	-0.3978522
33	0xbee09014	-0.43859923
34	0xbe456953	-0.19278459
35	0x3cb937b2	0.022609565
36	0xbf86577f	-1.0495452
37	0xbd172ad7	-0.03690609
38	0x3e1894b0	0.1490047
39	0xbebfcdc8	-0.37461686
40	0x3e3001cf	0.1718819
41	0x3916c53e	0.00014378593
42	0xbdc76b69	-0.09737284
43	0x3f04f574	0.5193703
44	0x3f1fd8f0	0.62440395
45	0xbeb20a9c	-0.3477372
46	0xbce80568	-0.02832289
47	0xbd73f648	-0.059561044
48	0x3dfe105e	0.124054655
49	0xbcd28840	-0.025699735
50	0x3f043432	0.51642144
51	0x3ded2504	0.11579326
52	0x3eb4f43d	0.3534259
53	0xbd6fd6de	-0.058554523
54	0xbf00f19c	-0.50368667
55	0xbf4371a1	-0.7634526
56	0xbeaacf2f	-0.33361194
57	0x3ea0d8ae	0.31415313
58	0xbdb5d0b8	-0.088777006
59	0xbefa59ab	-0.48896536
60	0xbe094cfc	-0.13408273
61	0xbf23fbb6	-0.64055955
62	0xbe0286a3	-0.12746672
63	0xbd61e5af	-0.055150684
64	0x3e112e14	0.14177734
65	0xbe4ee5cc	-0.20204848
66	0xbefae9ce	-0.49006504
67	0xbec44be7	-0.3833916
68	0xbe99ea27	-0.30061457
69	0xbdf47b91	-0.11937631
70	0x3d6ebea0	0.058287263
71	0xbed02184	-0.4065057
72	0x3de0ea5d	0.10982201
73	0xbf19050f	-0.59773344
74	0x3e35a8d5	0.17740186
75	0xbefda6fa	-0.49541456
76	0xbee3f796	-0.4452483
77	0xbdf33ba3	-0.11876609
78	0x3ea936da	0.3304966
79	0x3db98938	0.090593755
80	0x3d16fae1	0.03686035
81	0x3b64f78c	0.0034937588
82	0xbe2e77b6	-0.17037854
83	0x3e252038	0.16125572
84	0x3ea7238f	0.32644317
85	0xbdc36d9c	-0.09542391
86	0x3ef7cb66	0.48397368
87	0xbe89e0bf	-0.2692928
88	0xbeddb69f	-0.4330339
89	0x3f21fbe5	0.63274986
90	0x3d91eae9	0.07124884
91	0x3e8855ef	0.26628062
92	0x3e22f0c3	0.15912156
93	0xbe4f8b73	-0.2026804
94	0x3f1c7805	0.61120635
95	0x3e95a242	0.29225355
96	0x3c023480	0.007947087
97	0x3ec118e8	0.37714314
98	0x3e8d56e0	0.27605343
99	0xbeaed719	-0.3414848
100	0x3ef1da47	0.47236845
101	0xbf139239	-0.57644993
102	0xbf42c841	-0.76086813
103	0x3dbc5488	0.091958106
104	0x3e607f17	0.21923481
105	0x3e0b252e	0.13588402
106	0xbe0f33fc	-0.13984674
107	0x3e850442	0.2597981
108	0x3e2a67e3	0.16641192
109	0x3e8834bb	0.2660273
110	0x3ee04c08	0.43808007
111	0x3e2759e9	0.16342892
112	0x3e9bd7d6	0.30438107
113	0x3dae75c8	0.08518559
114	0x3e558cf0	0.20854545
115	0xbcbe420c	-0.023224853
116	0x3edc03c7	0.42971632
117	0x3e9889af	0.29792544
118	0xbf04ea25	-0.51919776
119	0x3e206fb8	0.15667617
120	0x3da01494	0.07816425
121	0xbf7b4b6a	-0.9816195
122	0xbcf854e9	-0.030313926
123	0xbf5735d7	-0.8406653
124	0x3e709a47	0.23496352
125	0xbef42402	-0.47683722
126	0x3eb972bd	0.3622035
127	0x3d33ade2	0.043867
128	0x3de54590	0.111949086
129	0xbdf10775	-0.117690004
130	0xbcfb867c	-0.030703776
131	0xbdc8325a	-0.09775229
132	0x3e0061b2	0.12537268
133	0x3d757e93	0.059935164
134	0xbec625d0	-0.38700724
135	0x3dbbcfbe	0.09170483
136	0x3da4cb95	0.08046643
137	0xbd109f79	-0.035308335
138	0xbe69cc92	-0.22831944
139	0xbe3aa1c5	-0.18225773
140	0xbf011093	-0.50415915
141	0xbebf8127	-0.37403223
142	0x3e774290	0.24146485
143	0x3eaef67d	0.3417243
144	0x3f696cf5	0.9118188
145	0xbe099bc8	-0.13438332
146	0xbdda261a	-0.106517985
147	0x3e9f442b	0.31106696
148	0x3da3af63	0.07992437
149	0xbd40e68e	-0.047094874
150	0xbeb705d3	-0.3574663
151	0xbf0e6060	-0.55615807
152	0xbe40826e	-0.18799755
153	0x3e845e72	0.25853306
154	0x3e247049	0.16058458
155	0x3f55d9d9	0.83535534
156	0x3eb2569c	0.34831703
157	0x3cda7d1c	0.026670985
158	0x3ed2d932	0.41181332
159	0xbf5e5e34	-0.8686249
160	0xbdd8752f	-0.10569226
161	0xbf571a4d	-0.84024507
162	0xbf072447	-0.5278973
163	0x3ece5f56	0.4030711
164	0xbdf013cb	-0.11722525
165	0xbee86438	-0.4538896
166	0xbf057a2e	-0.52139556
167	0xbf1da4e6	-0.6157974
168	0xbefad398	-0.48989558
169	0x3ccd0ba7	0.02502997
170	0xbf0fe23a	-0.5620457
171	0xbc89f9ee	-0.016842809
172	0xbf55bc20	-0.8349018
173	0xbea755ed	-0.32682744
174	0xbe2164c9	-0.15761103
175	0x3e92d626	0.28679007
176	0x3ecbdf26	0.39818686
177	0xbeda4d12	-0.42636925
178	0x3e86b1c7	0.26307508
179	0xbe786952	-0.24258927
180	0xbcb7913b	-0.022408118
181	0x3edc3e36	0.43016213
182	0xbd9ac910	-0.07557881
183	0xbced6fe9	-0.028984027
184	0xbe811e5e	-0.2521848
185	0xbe01a864	-0.12661892
186	0xbe292ac1	-0.16520216
187	0xbe6347ae	-0.22195312
188	0x3d94f513	0.07273307
189	0xbddacfe7	-0.106841855
190	0x3aec9572	0.0018049909
191	0xbd18bb9a	-0.037288286
192	0xbefd2280	-0.49440384
193	0x3eac21ec	0.3361963
194	0xbec0f866	-0.37689513
195	0x3f342b6f	0.70378774
196	0xbd8852f6	-0.066564485
197	0xbeca33be	-0.394926
198	0xbe9fe73b	-0.31231102
199	0x3db9b4a3	0.09067657
200	0x3e142702	0.14468005
201	0x3d973c41	0.073845394
202	0x3e8a6d95	0.2703673
203	0xbb212726	-0.0024589985
204	0xbea22dab	-0.31675467
205	0x3e3a2748	0.18179047
206	0x3cae5b94	0.021283902
207	0xbefb8f1c	-0.4913262
208	0xbe90d1af	-0.28284976
209	0x3da47ada	0.080312446
210	0xbcefcf3e	-0.029273625
211	0x3eac257b	0.33622345
212	0xbedd8b1c	-0.43270195
213	0x3db27a06	0.087146804
214	0xbe9a56eb	-0.30144438
215	0xbf3c7e51	-0.73630244
216	0xbebc9ebc	-0.36839855
217	0xbe495b25	-0.19663675
218	0xbea0f69a	-0.31438142
219	0x3ebdd15a	0.37073785
220	0xbed798b2	-0.42108685
221	0xbf15ce01	-0.5851746
222	0xbf07c508	-0.5303502
223	0x3d462b25	0.04838099
224	0x3e393586	0.18086824
225	0xbefa311f	-0.488656
226	0x3e943724	0.2894832
227	0xbf2d81ca	-0.6777617
228	0xbe781e1f	-0.2423024
229	0x3d4adee8	0.049528986
230	0x3dfa9337	0.1223511
231	0xbf16ff1f	-0.58983034
232	0x3ea7a098	0.3273971
233	0x3ebdcee0	0.37071896
234	0x3e8b9da5	0.2726871
235	0xbe27ca1c	-0.16385692
236	0xbe568509	-0.20949186
237	0xbf188740	-0.59581375
238	0x3ed05af5	0.40694395
239	0xbe71ec90	-0.23625398
240	0xbe271e61	-0.16320182
241	0x3f0fdc7f	0.56195825
242	0xbf15ef61	-0.5856839
243	0xbe91935d	-0.28432742
244	0xbe40fb7d	-0.18845935
245	0x3f0b958e	0.5452508
246	0x3e58e022	0.2117925
247	0xbee69f59	-0.45043448
248	0x3e0f0f01	0.13970567
249	0x3dd60f82	0.10452177
250	0xbf57dae6	-0.8431839
251	0x3d0266ea	0.031836428
252	0xbdc1f311	-0.09470189
253	0xbdfc58e2	-0.123216406
254	0xbd8a1f08	-0.067442
255	0xbec958b0	-0.39325476

gnn.0.ginlayers.0.apply_func.mlp.linears.1.bias f4 [32]
0	0x39ae4cec	0.00033245177
1	0xb7b7996e	-2.1886746e-05
2	0xb9062ffd	-0.00012797113
3	0x396f7e22	0.00022839804
4	0x3785b8fe	1.594098e-05
5	0x3924a54b	0.00015701835
6	0x39732f4a	0.00023191902
7	0xb938cdc3	-0.0001762426
8	0xb9339bcc	-0.00017128809
9	0x398093d0	0.0002452419
10	0x38ce9963	9.851416e-05
11	0x38800002	6.103517e-05
12	0xb91bb159	-0.00014848019
13	0xb9231111	-0.00015551249
14	0xb8a5b3c6	-7.9012985e-05
15	0x393db98b	0.00018093565
16	0xb8c4e1d5	-9.388073e-05
17	0x38816542	6.17006e-05
18	0x38d747ab	0.00010265348
19	0x380e3515	3.3904875e-05
20	0xb8ba9936	-8.897709e-05
21	0x388f0c7e	6.821098e-05
22	0x390ed3d9	0.00013621095
23	0xb8d5924c	-0.000101838814
24	0x3831de66	4.2407213e-05
25	0x38dba97c	0.00010474303
26	0xb8a668d8	-7.9350255e-05
27	0xb8495429	-4.8000515e-05
28	0x39506565	0.00019874198
29	0xb78fa03b	-1.7121542e-05
30	0xb98bfe81	-0.00026701766
31	0xb8e6458b	-0.00010980208

gnn.0.ginlayers.0.apply_func.mlp.batch_norms.0.weight f4 [32]
0	0x3f723750	0.9461565
1	0x3f854cf2	1.0414107
2	0x3f7d1079	0.9885326
3	0x3f739a6c	0.95157504
4	0x3f892b3d	1.071632
5	0x3f679013	0.90454215
6	0x3f8a595b	1.0808519
7	0x3f913d99	1.1346923
8	0x3f710839	0.9415317
9	0x3f8c3bf5	1.0955797
10	0x3f745d79	0.9545513
11	0x3f9b1a2c	1.2117362
12	0x3faa6f18	1.3315153
13	0x3fa12467	1.2589234
14	0x3faf7467	1.3707398
15	0x3f8de068	1.1084108
16	0x3f835418	1.0260038
17	0x3f58a973	0.8463356
18	0x3f996ecd	1.1986939
19	0x3f82e70e	1.0226762
20	0x3f96cf95	1.1782099
21	0x3f710631	0.9415007
22	0x3f803ca4	1.0018506
23	0x3f8f22ee	1.1182535
24	0x3f7380eb	0.9511859
25	0x3f96b101	1.1772767
26	0x3f98afa9	1.1928607
27	0x3f86ba58	1.0525618
28	0x3f6e187a	0.930061
29	0x3f732f45	0.94994
30	0x3fac1e4e	1.3446748
31	0x3f5a4f89	0.8527761

gnn.0.ginlayers.0.apply_func.mlp.batch_norms.0.bias f4 [32]
0	0xbd35eeb7	-0.04441711
1	0x3d46bd1e	0.0485202
2	0xbdb65658	-0.089031875
3	0xbcc3ccce	-0.02390137
4	0xbee8b1cf	-0.45448157
5	0xbc258a59	-0.010103785
6	0xbeae6354	-0.34060156
7	0x3e082b03	0.13297658
8	0xbd9c6ceb	-0.07637962
9	0x3d940ff0	0.07229602
10	0xbe6ecfaf	-0.23321413
11	0xbe8487b6	-0.2588479
12	0xbef2565c	-0.47331512
13	0xbdee0952	-0.116228715
14	0x3badf351	0.0053085466
15	0xbeb98123	-0.36231336
16	0xbec139ac	-0.37739313
17	0x3e3df50b	0.18550508
18	0x3b256d0a	0.0025241994
19	0xbe2556ef	-0.16146444
20	0xbcfb0ae1	-0.030644836
21	0x3f2607a9	0.6485544
22	0xbeac6606	-0.33671588
23	0xbda63e55	-0.08117358
24	0x3f102d9d	0.563196
25	0xbda76c77	-0.08174985
26	0xbdd304d5	-0.10303656
27	0xbdc1e4b4	-0.0946745
28	0x3df0016f	0.117190234
29	0x3eb45f7d	0.35229102
30	0xbe8a4d55	-0.27012125
31	0x3ef4fe1d	0.47850123

gnn.0.ginlayers.0.apply_func.mlp.batch_norms.0.running_mean f4 [32]
0	0xc0419b91	-3.02512
1	0xbfa1445f	-1.259899
2	0x3e68a30a	0.22718444
3	0xbfa0299f	-1.2512702
4	0xbf965346	-1.1744163
5	0x3e29266d	0.16518565
6	0xc04b8ab6	-3.1803412
7	0xc01361a1	-2.3028338
8	0x3e59b2f4	0.21259671
9	0xbe069de0	-0.13146162
10	0xbfdc3431	-1.7203428
11	0xc0226652	-2.5374951
12	0xc0906f6e	-4.5136023
13	0xc04290c5	-3.040086
14	0xc0d206c2	-6.563325
15	0xbfeef901	-1.866974
16	0xbfb5d3eb	-1.4205297
17	0xbf66d763	-0.90172404
18	0xc0630baa	-3.547587
19	0xc00ab13a	-2.167067
20	0xc089f28e	-4.3108587
21	0xbfb095ba	-1.3795693
22	0xbf9f1111	-1.2427083
23	0xc03a23a7	-2.908426
24	0x40853fa8	4.1640205
25	0xc0341a14	-2.8140917
26	0xc012c997	-2.293554
27	0xbf90a070	-1.1298962
28	0x3fb95ccd	1.4481446
29	0x4028dbbb	2.6384113
30	0xc04506b8	-3.078535
31	0x3fe1c270	1.7637463

gnn.0.ginlayers.0.apply_func.mlp.batch_norms.0.running_var f4 [32]
0	0x413b6b92	11.713762
1	0x40fc550c	7.8853817
2	0x40ed31a5	7.41231
3	0x410c4b15	8.768331
4	0x40dc1229	6.877217
5	0x40ae7f03	5.4530044
6	0x411bd80b	9.740245
7	0x4140ed34	12.057911
8	0x40f52145	7.660311
9	0x410559b5	8.334401
10	0x413ac097	11.672019
11	0x417c32b0	15.762375
12	0x41c4fa69	24.62227
13	0x4120f0b5	10.058766
14	0x41e7bf37	28.968367
15	0x40fcb234	7.8967533
16	0x4105ca64	8.361912
17	0x41181ac5	9.506536
18	0x41ac87fb	21.566397
19	0x413d15b1	11.817796
20	0x4159020c	13.563
21	0x41669d4d	14.4134035
22	0x41066e7e	8.401976
23	0x410ceff4	8.808582
24	0x417c2dd6	15.76119
25	0x41376c2f	11.463912
26	0x41775b2d	15.45976
27	0x41431f6b	12.19517
28	0x40d5d5dc	6.682356
29	0x4139a6d8	11.603233
30	0x4170380e	15.013685
31	0x411e5a8e	9.897108

gnn.0.ginlayers.0.apply_func.bn.weight f4 [32]
0	0x3f688c98	0.9083953
1	0x3f32cbfe	0.6984252
2	0x3db88d40	0.09011316
3	0x3f6bbd12	0.92085373
4	0x3cb34914	0.021885432
5	0x3e486e6b	0.19573371
6	0x3e6d4257	0.23169838
7	0x3db1b2ea	0.08676703
8	0x3d875ebc	0.06609866
9	0x3ed73404	0.42031872
10	0x3e21a237	0.15784536
11	0x3ee292d9	0.4425266
12	0x3ed71115	0.4200522
13	0x3ddc961f	0.10770821
14	0x3e5d38ac	0.2160365
15	0x3f4c02c7	0.7969174
16	0x3f589898	0.8460784
17	0x3e1f54c9	0.15559687
18	0x3e6aed27	0.22942029
19	0x3dd00a5f	0.10158228
20	0x3f0486f4	0.5176842
21	0x3f1f43b7	0.622127
22	0x3d973cd4	0.07384649
23	0x3f1ddfa5	0.6166938
24	0x3f144228	0.57913446
25	0x3ea62357	0.32448837
26	0x3e66b615	0.22530396
27	0x3f00b8a2	0.5028173
28	0x3f1f40e7	0.6220841
29	0x3eba8d18	0.3643577
30	0x3f8f42ec	1.1192298
31	0x3f513cb9	0.8173328

gnn.0.ginlayers.0.apply_func.bn.bias f4 [32]
0	0xbe4ec8ff	-0.20193861
1	0x3e8dcda4	0.27695954
2	0x3ed116df	0.40837762
3	0xbc9fbc5e	-0.019499
4	0x3ebbd87b	0.366886
5	0x3ef59713	0.47966823
6	0x3f262905	0.6490634
7	0x3ec43a52	0.38325745
8	0x3ee5561b	0.44792256
9	0x3ef8e4d8	0.48612094
10	0x3f081dee	0.5317067
11	0x3ecabf01	0.3959885
12	0x3f01110b	0.5041663
13	0x3efe83ac	0.49709833
14	0x3f02cceb	0.5109393
15	0xbdd85003	-0.10562136
16	0x3dbd2d40	0.092371464
17	0x3ef9e960	0.48810863
18	0x3f068abb	0.52555436
19	0x3ec3ce81	0.38243487
20	0x3ee98126	0.45606345
21	0x3eace95d	0.33771792
22	0x3e912baa	0.28353626
23	0x3ed4a4b7	0.41531917
24	0x3ec23c93	0.3793684
25	0x3ef7114a	0.48255378
26	0x3f101dd4	0.56295514
27	0x3ee39bdb	0.44454846
28	0x3eb028ed	0.34406224
29	0x3ec9e50b	0.39432558
30	0xbd202d2d	-0.039105583
31	0xbe1f6b3c	-0.1556825

gnn.0.ginlayers.0.apply_func.bn.running_mean f4 [32]
0	0xbf40c46e	-0.7529973
1	0xbfab9111	-1.3403646
2	0xbedcd9b9	-0.4313486
3	0x3eba17f6	0.36346406
4	0xbe71cd8d	-0.23613568
5	0xbff6813f	-1.9258193
6	0xbfb9a2c2	-1.4502795
7	0xbf6938b5	-0.91102153
8	0xbf359f0c	-0.7094581
9	0xbf6d9350	-0.92802906
10	0xbf406712	-0.7515727
11	0xbfca849f	-1.5821723
12	0xbff997c6	-1.9499443
13	0xbee4f90f	-0.44721267
14	0xbe120432	-0.14259413
15	0xbd8548fe	-0.06508063
16	0xbebc35bf	-0.36759755
17	0xbfcbf847	-1.5935143
18	0xbf10fe87	-0.5663838
19	0xbf9f3b17	-1.2439908
20	0xbfd41af2	-1.6570723
21	0xbfc65840	-1.5495682
22	0xc01b788c	-2.4292326
23	0xbfa9081d	-1.3205601
24	0x3ece7dea	0.4033044
25	0xbfa250f8	-1.268096
26	0xbf82fc2d	-1.0233208
27	0xbfeb7fb4	-1.8398347
28	0xbfb3a4e8	-1.40347
29	0xbf4e268b	-0.8052756
30	0x3f260f98	0.64867544
31	0xbfb024d9	-1.3761245

gnn.0.ginlayers.0.apply_func.bn.running_var f4 [32]
0	0x3fda5079	1.7055808
1	0x3fee3180	1.8608856
2	0x3faac577	1.3341511
3	0x3fc26f5a	1.5190232
4	0x3fcfd33a	1.6236336
5	0x3fa34cbb	1.2757791
6	0x3fcdb61e	1.6071203
7	0x3fffe9d9	1.999324
8	0x3fd634cf	1.6734866
9	0x3f9457d0	1.1589298
10	0x3fbda7cb	1.4816831
11	0x3f9a03cf	1.2032412
12	0x3fdedf41	1.7411882
13	0x3fe7cfb1	1.8110257
14	0x3f9f4954	1.2444253
15	0x40046394	2.0685778
16	0x3fc6df67	1.5536927
17	0x3fbdef50	1.4838657
18	0x3fae490f	1.3616046
19	0x3fa4643e	1.2843091
20	0x3fadde0b	1.3583387
21	0x3fc40b8c	1.5316024
22	0x400b5c31	2.177502
23	0x3fc5ae85	1.5443884
24	0x400acdea	2.168818
25	0x3fc24080	1.5175934
26	0x3f9b7106	1.2143867
27	0x3ff72608	1.9308481
28	0x3f9a42d8	1.2051649
29	0x3f9985ea	1.1993992
30	0x408b8aff	4.3607173
31	0x3fd7a1f6	1.6846302

gnn.0.batch_norms.0.weight f4 [32]
0	0x3f5eb9d1	0.87002283
1	0x3f404121	0.7509938
2	0x3f11ea11	0.5699778
3	0x3f4dd3f7	0.8040156
4	0x3f1aec60	0.6051693
5	0x3f35abcd	0.7096527
6	0x3f53b265	0.82694083
7	0x3f24d63c	0.64389396
8	0x3f394ef5	0.72386104
9	0x3f179207	0.59207195
10	0x3f4230a1	0.7585545
11	0x3f257c56	0.64642847
12	0x3f45ad28	0.7721734
13	0x3f253d0c	0.64546275
14	0x3f245a2f	0.6420011
15	0x3f28bd99	0.65914303
16	0x3f59a5d2	0.85018647
17	0x3f30a775	0.6900552
18	0x3f067b58	0.5253196
19	0x3f0c6c0d	0.5485237
20	0x3f372251	0.7153674
21	0x3f39ce39	0.72580296
22	0x3f0ed9cb	0.55801076
23	0x3f378612	0.7168895
24	0x3f3dce00	0.74142456
25	0x3f2dcc11	0.67889506
26	0x3f237bcf	0.6386079
27	0x3f31ca1d	0.69449025
28	0x3f2f7310	0.68534946
29	0x3f098590	0.53719425
30	0x3f6cf015	0.92553836
31	0x3f483618	0.7820754

gnn.0.batch_norms.0.bias f4 [32]
0	0xbe8b1565	-0.2716476
1	0xbdc5dad8	-0.09660882
2	0x3e0afbc0	0.13572598
3	0xbe8f967e	-0.28044504
4	0xbc6efd0f	-0.014586701
5	0x3c4c39f8	0.012464993
6	0x3e7d1215	0.24713929
7	0x3f0ca039	0.5493198
8	0x3e4e4e09	0.20146956
9	0x3d7412e3	0.059588324
10	0x3e3e7e0e	0.18602774
11	0xbd4c09e0	-0.049814105
12	0x3d34fedc	0.044188365
13	0x3d2bf70d	0.041983653
14	0xbc3c9c92	-0.011511939
15	0xbe86c90c	-0.26325262
16	0xbe712b43	-0.2355166
17	0x3e91189b	0.28339085
18	0xbcdcf344	-0.026971467
19	0x3ead067c	0.3379401
20	0x3d635803	0.055503856
21	0xbd895bd3	-0.06706967
22	0x3eb22f73	0.34801826
23	0x3ca54d14	0.020178355
24	0x3d54da89	0.051966224
25	0xbd50bf0c	-0.050963446
26	0x3e069da4	0.13146073
27	0xbceed086	-0.029152166
28	0xbd95b429	-0.073097534
29	0xbdd86448	-0.10566002
30	0xbc75db5e	-0.0150059145
31	0xbf01272f	-0.50450414

gnn.0.batch_norms.0.running_mean f4 [32]
0	0x3e7a5ab6	0.24448666
1	0x3ee37994	0.44428694
2	0x3ed19812	0.40936333
3	0x3eb6b195	0.3568236
4	0x3ebbf7b1	0.3671241
5	0x3ef2aea7	0.47398874
6	0x3f2654ed	0.64973336
7	0x3ec47102	0.38367468
8	0x3edb824a	0.4287284
9	0x3f03538d	0.51299363
10	0x3f055f58	0.5209861
11	0x3ede20ab	0.433843
12	0x3f0b4a9d	0.54410726
13	0x3efec85f	0.49762246
14	0x3f02a04b	0.5102584
15	0x3e8dab61	0.27669814
16	0x3ec1a551	0.3782144
17	0x3efa56df	0.48894402
18	0x3f068bab	0.52556866
19	0x3ec2ca7a	0.38045102
20	0x3f03965f	0.51401323
21	0x3eed8d1c	0.4639672
22	0x3e91789e	0.28412336
23	0x3f013d57	0.5048422
24	0x3ef63bb3	0.48092422
25	0x3eff7728	0.49895597
26	0x3f0fda09	0.5619207
27	0x3f005c28	0.5014062
28	0x3eec5431	0.46157983
29	0x3ed7dd0d	0.42160836
30	0x3ed9e83b	0.4255999
31	0x3e68b41d	0.22724958

gnn.0.batch_norms.0.running_var f4 [32]
0	0x3e3568ad	0.17715712
1	0x3e5bec96	0.21476969
2	0x3c040307	0.008057362
3	0x3e82cfc3	0.25549135
4	0x3a9c21d1	0.0011911934
5	0x3d26ed1b	0.040753465
6	0x3d57d8dc	0.052697048
7	0x3bf1bda5	0.0073773437
8	0x3b567053	0.003272076
9	0x3e0ed9c7	0.13950263
10	0x3ccac69f	0.024752913
11	0x3e19c277	0.15015589
12	0x3df2d246	0.11856513
13	0x3c3e6bae	0.0116223525
14	0x3d411ab6	0.047144614
15	0x3e1e85f5	0.15480788
16	0x3e6f2ce5	0.2335697
17	0x3cad1731	0.021129223
18	0x3d55d9fe	0.052209847
19	0x3c34662f	0.011010691
20	0x3e33bd1d	0.1755261
21	0x3e3d3e7e	0.1848087
22	0x3b5f44d6	0.003406813
23	0x3e6587f7	0.22415148
24	0x3e3860d5	0.18005688
25	0x3db58e87	0.088650756
26	0x3d55af6f	0.05216926
27	0x3e240f4c	0.1602146
28	0x3e4496bf	0.1919813
29	0x3dcd7070	0.100312114
30	0x3e896c61	0.268405
31	0x3dff022d	0.12451587

gnn.0.linears_prediction.0.weight f4 [64, 334]
0	0x3d9d5ab7	0.07683318
1	0xbefad702	-0.48992163
2	0x3d4032f4	0.046923593
3	0x3de9a57b	0.11408516
4	0xbda39dc7	-0.07989078
5	0xbe4a17f2	-0.19735697
6	0x3c90b09d	0.01766234
7	0xbe71be6c	-0.23607796
8	0x3e88b565	0.26700893
9	0xbd02f29f	-0.031969663
10	0xbf2f72f2	-0.6853477
11	0x3ec134d7	0.37735626
12	0xbe96d180	-0.2945671
13	0xbd385c53	-0.045009922
14	0xbf03f9b9	-0.5155292
15	0x3e20ed37	0.1571549
16	0x3daf524a	0.08560617
17	0x3c8584c0	0.016298652
18	0xbe574b08	-0.21024716
19	0x3c6f36c8	0.014600463
20	0xbeb0f530	-0.34562063
21	0xbea416ea	-0.32048732
22	0xbd467b9f	-0.048457738
23	0x3e71ba2e	0.23606178
24	0xbeb0c6ba	-0.34526616
25	0x3ede9a69	0.4347718
26	0x3e590d2e	0.21196434
27	0xbe1be839	-0.15225305
28	0xbe8cb56d	-0.27482167
29	0xbe8b287e	-0.2717933
30	0xbebb2e43	-0.36558732
31	0x3cad67ef	0.021167723
32	0xbd2ccd2f	-0.042187866
33	0x3da5f520	0.081033945
34	0x3e4ec5b1	0.20192601
35	0x3ca5823e	0.020203706
36	0x3ee32007	0.44360372
37	0xbed5d70e	-0.41765636
38	0x3e1e258d	0.15444012
39	0x3f32400f	0.69628996
40	0xbe20f93a	-0.15720072
41	0xbea42eda	-0.32066995
42	0x3e1f7832	0.15573195
43	0xbdad5c42	-0.084648624
44	0x3e72ef35	0.23724063
45	0x3ece2c7f	0.40268323
46	0x3c4adb9c	0.0123814605
47	0x3dedf112	0.11618246
48	0xbd9a00a9	-0.07519657
49	0x3c843e47	0.016142977
50	0x3da99ed9	0.08282251
51	0xbea7bc36	-0.3276078
52	0x3f01d108	0.5070958
53	0x3de00ceb	0.10939964
54	0xbc3ab1c4	-0.011394922
55	0x3e76609a	0.24060288
56	0x3edbf3b1	0.4295936
57	0x3e03a993	0.12857656
58	0xbde46d06	-0.11153607
59	0x3d9463a5	0.07245568
60	0x3e3be392	0.1834853
61	0xbe1d2a39	-0.15348138
62	0xbe740b25	-0.23832376
63	0xbeb92497	-0.36160728
64	0xbf061372	-0.5237342
65	0xbe063a75	-0.13108237
66	0xbec363e4	-0.38162148
67	0xbdf232bc	-0.11826083
68	0x3ecd722f	0.40126178
69	0x3ebf8111	0.37403157
70	0xbe90baba	-0.2826746
71	0x3dd3e824	0.10347012
72	0x3e799680	0.24373817
73	0xbd8e5413	-0.0694963
74	0xbe868e74	-0.26280558
75	0x3d45b7ba	0.04827092
76	0xbe7b5eed	-0.2454793
77	0xbe8ddb56	-0.27706403
78	0x3b874ab8	0.00412878
79	0xbe31b0f2	-0.17352656
80	0xbd52c834	-0.05146046
81	0xbc30fd6c	-0.010802608
82	0xbe45734a	-0.1928226
83	0x3e368195	0.17822869
84	0xbdf08b1e	-0.117452845
85	0x3eb7a1c5	0.35865608
86	0xbe231bde	-0.15928599
87	0xbd928499	-0.07154197
88	0xbe277e4d	-0.16356774
89	0xbede1be8	-0.43380666
90	0x3e3804ba	0.17970553
91	0xbec85a0a	-0.39131194
92	0x3d1d7ced	0.038449217
93	0x3e9dbd2c	0.3080839
94	0x3f015358	0.505178
95	0xbe9f58cf	-0.31122443
96	0x3eb38f58	0.350703
97	0x3ca7ad16	0.020468276
98	0x3eae6375	0.34060255
99	0xbedde8d1	-0.43341687
100	0xbd975a6c	-0.073902935
101	0x3dbc19c3	0.09184601
102	0xbeaf9634	-0.34294283
103	0x3ea4e74f	0.32207724
104	0xbdb7cde3	-0.08974817
105	0x3d53e839	0.051735137
106	0x3da7c80e	0.08192454
107	0x3ec53e52	0.3852411
108	0x3eec3799	0.46136168
109	0x3c4f8fdd	0.012668577
110	0x3d9413c4	0.072303325
111	0x3e7a1af0	0.24424338
112	0xbe33788e	-0.17526457
113	0x3edf7b16	0.43648595
114	0xbf217d3b	-0.6308171
115	0x3efecc04	0.49765027
116	0xbe491e2b	-0.19640414
117	0x3e22013f	0.15820788
118	0xbcfee327	-0.031114174
119	0xbccecc37	-0.025243862
120	0x3e2aaed6	0.16668257
121	0x3ebef087	0.37292883
122	0xbe511d4f	-0.20421337
123	0x3ccaf0ea	0.02477308
124	0x3e7fddd6	0.24986967
125	0x3e0bbc0f	0.13645957
126	0x3e839e13	0.2570654
127	0xbe0793c7	-0.13239966
128	0x3de3568f	0.11100494
129	0x3d9be7eb	0.07612594
130	0xbea7e7c8	-0.32794023
131	0xbd50adcf	-0.050947007
132	0xbdd84ee5	-0.10561923
133	0x3dfd8796	0.123793766
134	0x3d761d99	0.06008682
135	0xbeaa9274	-0.3331486
136	0x3db0e1e2	0.08636834
137	0xbecfdb1d	-0.40596858
138	0x3ea4ae03	0.3216401
139	0xbe52f766	-0.20602188
140	0xbda609d5	-0.08107344
141	0x3e92e94c	0.28693616
142	0x3cd36ece	0.025809672
143	0x3d8b73d0	0.06809199
144	0xbf062f76	-0.5241617
145	0xbde9b838	-0.1141209
146	0x3dae005a	0.08496161
147	0x3ed33930	0.41254568
148	0xbd7a6ab2	-0.06113691
149	0x3d0b0285	0.03393795
150	0xbd0f63da	-0.035007335
151	0x3e3c0f83	0.18365292
152	0x3be2e4ba	0.006924239
153	0x3dc4a22a	0.09601243
154	0xbe47235d	-0.19447084
155	0x3e52edee	0.20598575
156	0x3ebedb58	0.3727672
157	0xbd47836a	-0.04870931
158	0x3ded566d	0.1158875
159	0x3dfa1b4a	0.12212236
160	0xbe85dc17	-0.26144478
161	0xbe6d62cc	-0.2318222
162	0xbed2d8d2	-0.41181046
163	0xbf053432	-0.5203277
164	0xbe81beee	-0.2534098
165	0x3eb65bd1	0.35616925
166	0x3dea4589	0.11439044
167	0x3e953f62	0.2914992
168	0x3e6de922	0.23233464
169	0x3bb83d51	0.005622544
170	0x3e632742	0.22182944
171	0x3c0425ae	0.008065624
172	0x3d3095e0	0.043111682
173	0xbeb007f6	-0.34381074
174	0xbc25b012	-0.010112779
175	0x3e2d999b	0.16953127
176	0x3ec7f1ff	0.39051816
177	0x3ef36755	0.47539774
178	0x3cacfa97	0.021115584
179	0xbe8acfd1	-0.27111676
180	0xbe9dcc01	-0.30819705
181	0x3e19635a	0.14979306
182	0x3ef3b13f	0.47596166
183	0x3e934b43	0.28768358
184	0xbe7f517a	-0.24933425
185	0xbbb4174f	-0.0054959427
186	0xbd9aee76	-0.07565014
187	0xbc8fcd1b	-0.017553857
188	0x3e272afc	0.16324991
189	0x3d7ed335	0.06221314
190	0xbb724dbf	-0.003697261
191	0x3ed8bb73	0.42330512
192	0xbe1474a9	-0.14497627
193	0xbdbee113	-0.09320273
194	0xbe9e0da5	-0.30869785
195	0xbb942ed4	-0.004522184
196	0x3cabc5f5	0.020968417
197	0x3d923b11	0.07140172
198	0xbbfcf997	-0.007720183
199	0xbe8fcc62	-0.2808562
200	0x3ddd9ba3	0.10820701
201	0x3e41677e	0.18887135
202	0x3d534002	0.051574714
203	0x3e5b09cc	0.21390456
204	0x3e16c050	0.14721799
205	0x3d7c2d1a	0.06156645
206	0xbe3a2471	-0.18177964
207	0xbed59c1e	-0.4172067
208	0xbe6354d9	-0.22200336
209	0xbe902382	-0.2815209
210	0xbf1045e0	-0.5635662
211	0xbe89cfe0	-0.2691641
212	0x3d0873a2	0.0333134
213	0x3e46961f	0.19393204
214	0xbe775368	-0.2415291
215	0xbe61ec9b	-0.22062914
216	0xbdfadbed	-0.12248979
217	0x3f0d7be6	0.5526718
218	0x3da8351c	0.08213255
219	0x3ede7c6e	0.43454307
220	0xbd82dd39	-0.06389851
221	0x3e33a6e2	0.1754413
222	0xbf1d4894	-0.6143887
223	0xbd72f2b1	-0.05931348
224	0xbf5ac006	-0.85449255
225	0xbe12473d	-0.14284988
226	0x3de6847c	0.11255738
227	0x3e3b327e	0.1828098
228	0x3e9e46bf	0.3091335
229	0x3d882010	0.066467404
230	0xbe5acb9d	-0.21366735
231	0x3e88494e	0.26618427
232	0xbe716836	-0.2357491
233	0xbea74bae	-0.32674927
234	0xbc774f4d	-0.01509459
235	0x3d65fac1	0.05614734
236	0x3e775aed	0.24155779
237	0xbc6bb819	-0.014387154
238	0xbe82f44a	-0.25577003
239	0xbea09db8	-0.3137033
240	0x3ce7c703	0.028293138
241	0x3e2677e1	0.16256668
242	0xbe98930c	-0.29799688
243	0x3ed4976b	0.41521773
244	0xbe7e4b1d	-0.24833341
245	0x3d417290	0.047228396
246	0xbc2e2f8e	-0.010631455
247	0xbda3635a	-0.07977934
248	0xbf067a4e	-0.5253037
249	0xbe27fdd8	-0.16405427
250	0xbeaefe2a	-0.34178287
251	0x3d9607d6	0.07325713
252	0xbe92d72b	-0.28679785
253	0x3eed1e54	0.463122
254	0xbeb77f7b	-0.35839447
255	0x3c6adeb7	0.014335326

gnn.0.linears_prediction.0.bias f4 [64]
0	0x3d7ba5d9	0.06143746
1	0xbf760089	-0.96094567
2	0xbee0275b	-0.43780026
3	0x3df814be	0.12113331
4	0xbfc111b1	-1.5083524
5	0x3ec0e585	0.3767511
6	0xbe7b1e9b	-0.24523394
7	0xbebbf9f1	-0.36714128
8	0xbeff13e7	-0.49819872
9	0x3ea752af	0.3268027
10	0xbf147382	-0.5798875
11	0x3ee48d7c	0.44639194
12	0xbf312588	-0.69197893
13	0x3e21518a	0.15753761
14	0x3fdba438	1.715949
15	0xbee1beb1	-0.44090798
16	0x3e973527	0.2953274
17	0xbfda6473	-1.7061905
18	0x3e94d7fc	0.29071033
19	0x3eddd56b	0.43326887
20	0xbf1c2e57	-0.6100821
21	0x3e8d9537	0.27652904
22	0x3fb1b41e	1.3883092
23	0xbc934234	-0.017975904
24	0x3f229999	0.6351562
25	0x3e55d4e0	0.20881987
26	0xbf9877a4	-1.1911511
27	0x3ed55808	0.41668725
28	0x3ecab3c9	0.3959029
29	0x3d362135	0.044465262
30	0xbe9bce30	-0.30430746
31	0xbd91f91f	-0.07127594
32	0xbe35a7f1	-0.17739846
33	0xbe0a84ea	-0.13527265
34	0x3ec6589a	0.38739473
35	0x3d0305b4	0.03198786
36	0x3f963537	1.173499
37	0x3e2beb4f	0.16788982
38	0x3f8af890	1.0857105
39	0xbdb91cd7	-0.09038704
40	0xbe13d4f1	-0.144367
41	0xbf200315	-0.625047
42	0xbe3ce2b1	-0.18445851
43	0xbf1d0837	-0.6134066
44	0xbf36f6c5	-0.7147029
45	0x3f18054b	0.59383076
46	0x3f0c6f5e	0.5485743
47	0xbe481e4e	-0.1954281
48	0x3ddac990	0.10682976
49	0x3ea79421	0.327302
50	0xbfe5bab8	-1.7947607
51	0x3fc0d450	1.5064793
52	0xbf1596fa	-0.58433497
53	0x3fe0c0b3	1.7558807
54	0xbefd1361	-0.49428847
55	0xbf20d27c	-0.62821174
56	0x3e0a71f0	0.13520026
57	0x3f0cb981	0.54970556
58	0xbe688d97	-0.22710262
59	0xbfd2fc4a	-1.6483243
60	0xbea33486	-0.3187601
61	0x3f4606d9	0.773542
62	0x3ec4e219	0.3845375
63	0xbebb0d8c	-0.36533773

gnn.0.linears_prediction.1.weight f4 [64, 32]
0	0xbf0e8fa0	-0.55687904
1	0x3e83a7be	0.25713915
2	0xbdc71359	-0.09720487
3	0xbe7920c4	-0.24328905
4	0xbe969cde	-0.29416555
5	0xbf1e2fd3	-0.61791724
6	0x3d797e65	0.060911555
7	0xbdc9fde9	-0.09862883
8	0xbe89b909	-0.26898983
9	0xbe00e7ae	-0.12588379
10	0x3e14a24f	0.14515041
11	0x3e253a61	0.16135551
12	0xbe20272c	-0.15639943
13	0xbeaef734	-0.34172976
14	0x3e2302d4	0.15919048
15	0xbe6db1c6	-0.23212346
16	0xbd947a6d	-0.07249913
17	0xbefc323c	-0.49257076
18	0x3bb7c497	0.005608152
19	0x3e33718c	0.17523783
20	0xbe5f115f	-0.2178397
21	0xbed08caa	-0.40732318
22	0x3e1b05c4	0.15138918
23	0x3f157d0f	0.5839395
24	0xbebbcc52	-0.36679322
25	0x3c105d32	0.008811282
26	0x3ee1f2f8	0.44130683
27	0xbed3e3d9	-0.4138477
28	0xbe3eaf95	-0.18621667
29	0x3d0b0e16	0.03394898
30	0x3ee0dbce	0.43917698
31	0x3ea411c3	0.320448
32	0xbe435a32	-0.19077376
33	0x3e4aa834	0.19790727
34	0x3e254e39	0.16143121
35	0x3dabb0a5	0.08383302
36	0x3e09b79f	0.13448952
37	0xbeac5b16	-0.33663243
38	0x3f20abb9	0.6276203
39	0x3c4405c8	0.011964269
40	0x3e1e48bb	0.15457432
41	0x3ea098d2	0.31366593
42	0xbe6c99b2	-0.23105505
43	0x3d6fdd98	0.058560938
44	0x3cf0e891	0.029407771
45	0xbec4f6bc	-0.38469493
46	0x3dde9db9	0.10869927
47	0xbe96bcc6	-0.29440898
48	0x3e42f89d	0.19040151
49	0xbdb5e0cb	-0.088807665
50	0xbdebe89b	-0.11518975
51	0x3e6e40db	0.23266928
52	0x3ea20bee	0.31649727
53	0xbebb83b1	-0.3662391
54	0xbc9c1f32	-0.019057844
55	0x3e328736	0.17434391
56	0xbf158698	-0.584085
57	0xbdcebfe4	-0.10095194
58	0x3dec674c	0.1154314
59	0xbe104e94	-0.14092475
60	0xbeb5c1dc	-0.35499465
61	0x3db399ca	0.08769567
62	0xbef55e04	-0.4792329
63	0xbc993a0d	-0.018704439
64	0xbceb02bb	-0.028687825
65	0x3ea990f8	0.33118415
66	0xbddea72a	-0.10871728
67	0xbf0286b8	-0.50986814
68	0x3d3d9c91	0.04629189
69	0xbda8126a	-0.08206637
70	0x3eafe947	0.34357664
71	0xbf185c6f	-0.5951604
72	0x3eb434e5	0.35196605
73	0xbdce905e	-0.100861296
74	0x3ea06139	0.31324175
75	0x3ecd2c19	0.40072706
76	0x3ee83736	0.45354623
77	0xbefe0ff7	-0.49621555
78	0x3e1bcd3b	0.15215008
79	0xbead6acf	-0.3387055
80	0x3e9d7ba7	0.30758402
81	0x3def86f1	0.1169566
82	0xbe962926	-0.2932827
83	0x3d15ad88	0.036542445
84	0xbd88c72a	-0.066786125
85	0xbd77910d	-0.060441066
86	0xbe6fe3a9	-0.23426689
87	0x3e7014ff	0.2344551
88	0xbebb3311	-0.36562398
89	0x3ddb96e6	0.10722141
90	0x3ed11921	0.40839484
91	0xbe15c013	-0.14624052
92	0x3d8c6d4c	0.06856784
93	0xbe60678a	-0.21914497
94	0x3e920654	0.28520453
95	0xbea92841	-0.33038524
96	0x3f3354f8	0.7005153
97	0xbec65b40	-0.38741493
98	0xbe56e2a0	-0.20984888
99	0x3eb5732c	0.35439432
100	0x3e2de89f	0.16983269
101	0x3e8b3702	0.27190405
102	0xbe8ba6a5	-0.27275577
103	0xbe964902	-0.29352576
104	0x3d83e92c	0.064409584
105	0xbce70313	-0.028199708
106	0xbe0767a6	-0.13223132
107	0x3ef09019	0.46984938
108	0xbef3170c	-0.4747852
109	0x3e9cbc0e	0.30612224
110	0x3d41c57a	0.04730747
111	0x3f250e56	0.64475
112	0x3d1616f4	0.036642984
113	0x3e0a605f	0.13513325
114	0x3e9c4dae	0.30528015
115	0x3c6c677c	0.0144289695
116	0x3e8f2e08	0.27964807
117	0x3ebff911	0.3749471
118	0x3e3c78d7	0.18405472
119	0xbec81992	-0.3908201
120	0xbd85b8e8	-0.06529409
121	0x3dae2751	0.08503593
122	0xbe9f4c71	-0.31113008
123	0x3da5211c	0.08062956
124	0xbec46785	-0.3836023
125	0xbe23d0ff	-0.15997694
126	0xbf035b0b	-0.51310796
127	0xbe6a0aca	-0.22855678
128	0xbea3afcf	-0.3197007
129	0x3afac948	0.0019133473
130	0x3dd26adf	0.1027429
131	0xbd9ae342	-0.07562877
132	0x3e32a4d2	0.17445686
133	0x3eb9194c	0.36152112
134	0x3eee9149	0.4659522
135	0x3ead0c50	0.33798456
136	0xbd22b43d	-0.03972267
137	0xbdd22a8e	-0.10262023
138	0xbe6ea73d	-0.23305984
139	0xbdd849aa	-0.10560925
140	0x3ed85689	0.4225352
141	0x3d87b238	0.066257894
142	0xbeff6986	-0.49885195
143	0xbed1e97f	-0.40998456
144	0xbe2b4351	-0.16724898
145	0x3e196e25	0.14983423
146	0xbea198b1	-0.31561807
147	0x3e3fc032	0.1872566
148	0x3e8b4d6f	0.27207515
149	0xbd6a7f4c	-0.057250306
150	0xbe0cf1e1	-0.13764144
151	0xbeb7dc64	-0.35910332
152	0xbe963474	-0.29336894
153	0x3da21349	0.079138346
154	0xbf0bd4be	-0.54621494
155	0x3ebeb349	0.3724616
156	0x3f311c43	0.6918375
157	0x3eac332a	0.33632785
158	0xbd8ded7e	-0.06930064
159	0x3beadbc8	0.0071673132
160	0xbecbc201	-0.3979645
161	0xbe562700	-0.20913315
162	0x3ebca5dc	0.3684529
163	0x3e62ecf4	0.22160703
164	0x3f01bd3f	0.5067939
165	0xbe69e3ca	-0.22840801
166	0x3d886a0d	0.066608526
167	0xbed27041	-0.41101268
168	0xbd8cde24	-0.068783075
169	0x3e6b9d33	0.23009185
170	0x3e4ba956	0.19888815
171	0xbe663d76	-0.22484383
172	0x3e5f370e	0.21798345
173	0xbea01d9c	-0.3127259
174	0x3e80da43	0.2516652
175	0xbe156a43	-0.14591317
176	0xbe93395e	-0.28754705
177	0x3eeb36c1	0.4594021
178	0xbd848ea1	-0.06472517
179	0x3d72bb3b	0.05926059
180	0xbc3d92e0	-0.011570662
181	0x3e05caed	0.13065691
182	0x3c95dc8d	0.018293643
183	0x3ef9e3d7	0.4880664
184	0xbdd195ca	-0.10233648
185	0xbeea0ba9	-0.4571202
186	0xbecb4efd	-0.397087
187	0x3d1b1fc4	0.03787209
188	0xbec029f1	-0.37532
189	0x3de17add	0.110097624
190	0x3ec0993a	0.37616903
191	0xbf08c64f	-0.53427595
192	0x3f1269d4	0.5719273
193	0xbe9c6760	-0.3054762
194	0x3dad9614	0.08475891
195	0xbe9c3fa4	-0.30517304
196	0x3e0919fd	0.1338882
197	0xbe68ea47	-0.2274562
198	0x3ea2c12a	0.31787997
199	0x3db24a20	0.087055445
200	0xbe86d222	-0.26332194
201	0x3e65122c	0.22370213
202	0xbea8f781	-0.3300133
203	0x3e625695	0.22103341
204	0x3ec0fa81	0.3769112
205	0xbec2a9e6	-0.38020247
206	0x3e923b29	0.2856076
207	0x3ea59ace	0.3234467
208	0x3ef10cd2	0.47080094
209	0x3db0fdd3	0.08642163
210	0x3e24718d	0.16058941
211	0xbf1b1171	-0.6057349
212	0xbe5347b4	-0.20632821
213	0x3e51ac22	0.2047582
214	0xbe2f0c66	-0.17094573
215	0xbeac4059	-0.33642843
216	0xbe18a630	-0.14907146
217	0x3ed10700	0.40825653
218	0x3f12e9d8	0.5738807
219	0x3d6b64b2	0.057469077
220	0xbe4a66d3	-0.19765787
221	0xbe309202	-0.17243198
222	0xbeb6c3bf	-0.35696217
223	0x3e5378bb	0.20651524
224	0xbdc21646	-0.094769046
225	0xbdce80ec	-0.10083184
226	0xbf197956	-0.5995077
227	0x3e5cbf91	0.21557452
228	0xbf0a3db3	-0.54000396
229	0xbe08f184	-0.13373381
230	0xbc3f6141	-0.011680902
231	0xbe7700c3	-0.24121384
232	0x3cb7b7c6	0.022426497
233	0xbe897034	-0.26843417
234	0x3e754e22	0.23955587
235	0xbdc82e95	-0.0977451
236	0x3e8437d8	0.25823855
237	0x3e1c08e2	0.15237764
238	0xbf01092c	-0.5040462
239	0x3d41e620	0.047338605
240	0xbce8df93	-0.028426921
241	0x3f2e5dd8	0.68111944
242	0x3e9b8309	0.3037341
243	0xbeda51b2	-0.42640454
244	0xbeacf652	-0.33781677
245	0x3dd97cce	0.10619508
246	0x3e2a0eb6	0.16607174
247	0x3e50ce65	0.20391233
248	0x3ddf2a2a	0.10896714
249	0x3e373724	0.17892128
250	0x3e86d96f	0.26337764
251	0x3ebdd3d7	0.37075683
252	0xbe769d17	-0.24083363
253	0x3edb8119	0.4287193
254	0x3c602ed9	0.013683044
255	0x3e968242	0.29396254

gnn.0.linears_prediction.1.bias f4 [64]
0	0x3bca30fc	0.00617039
1	0xbf9200e3	-1.1406521
2	0xbf86e42a	-1.053838
3	0x3edacf7b	0.4273642
4	0xbfc31d25	-1.5243269
5	0x3d2fb6ef	0.04289907
6	0x3de117c7	0.10990863
7	0xbebf100c	-0.3731693
8	0xbdc61ceb	-0.096734844
9	0xbe2dc873	-0.16970997
10	0xbe3c0422	-0.18360952
11	0x3ed217a0	0.4103365
12	0xbed20851	-0.4102197
13	0xbe4f0ff2	-0.20220926
14	0x3fc1e912	1.5149252
15	0xbf29744d	-0.66193086
16	0x3ef709cd	0.48249665
17	0xbfe084cc	-1.7540526
18	0xbe4d8c0b	-0.20072953
19	0x3b33d1d8	0.002743831
20	0xbf2efbb5	-0.68352824
21	0x3eda552e	0.42643112
22	0x3fa9a6fd	1.3254086
23	0xbedacbb8	-0.4273355
24	0x3f89a4b9	1.0753394
25	0x3e3765b9	0.17909898
26	0xbfabb2f9	-1.3413993
27	0x3eab5517	0.33463356
28	0x3eef86a4	0.4678241
29	0xbe84299f	-0.25813004
30	0x3edad09f	0.4273729
31	0xbf2e32b8	-0.6804614
32	0xbe83ccd7	-0.25742218
33	0xbf563974	-0.83681417
34	0x3f8e952b	1.1139272
35	0xbdfb29d7	-0.1226384
36	0x3f9068d7	1.1281995
37	0x3be60871	0.0070200493
38	0x3f9021cd	1.1260315
39	0x3c5ee5dc	0.013604607
40	0xbd4e6017	-0.050384607
41	0xbeadd2f6	-0.33950013
42	0xbf14ade1	-0.5807782
43	0xbf6e3a25	-0.9305747
44	0xbe194667	-0.14968263
45	0x3f2b6159	0.66945416
46	0x3f8a35cc	1.0797668
47	0xbed6b1cc	-0.41932523
48	0x3b561a0d	0.0032669336
49	0xbca2490f	-0.019810228
50	0xbfff9572	-1.9967482
51	0x3fb80c4e	1.4378755
52	0xbf578020	-0.8417988
53	0x40027aa5	2.0387356
54	0xbe3ea6c9	-0.18618311
55	0xbee14b90	-0.44002962
56	0xbec2204b	-0.37915263
57	0x3f2462a0	0.6421299
58	0xbe9396e7	-0.28826067
59	0xbfacd06c	-1.3501105
60	0xbf296598	-0.66170645
61	0x3f869e6b	1.0517095
62	0x3e79ab23	0.2438169
63	0x3ea28fbe	0.31750292

gnn.1.ginlayers.0.apply_func.mlp.linears.0.weight f4 [32, 334]
0	0xbcb92702	-0.022601608
1	0xbda0f2d1	-0.078588136
2	0xbd984713	-0.07435431
3	0xbe155113	-0.14581709
4	0xbf097260	-0.5369015
5	0xbde32757	-0.11091488
6	0x3d88890c	0.066667646
7	0xbd14c8b0	-0.036324203
8	0xbdd1830e	-0.10230075
9	0xbeeef3bc	-0.4667033
10	0xbe206c2b	-0.15666263
11	0x3e1708dc	0.14749473
12	0xbeb774ac	-0.358312
13	0xbeea31fc	-0.4574126
14	0x3d028662	0.03186644
15	0x3daabee0	0.08337188
16	0xbebfe286	-0.3747751
17	0xbd0f6d68	-0.035016447
18	0xbdc297cf	-0.095016114
19	0x3eeb50a4	0.4595996
20	0xbe6ba50f	-0.23012184
21	0xbedef0bd	-0.43543044
22	0x3f164477	0.5869822
23	0x3e81f92b	0.25385413
24	0x3ec05ad0	0.37569284
25	0xbec5a8c2	-0.38605314
26	0x3f201a12	0.6253978
27	0xbd035e77	-0.03207251
28	0xbe820e33	-0.25401458
29	0x3eadd108	0.3394854
30	0x3e89ecf0	0.2693858
31	0x3e25785d	0.16159196
32	0xbe2455f7	-0.16048418
33	0x3da08600	0.078380585
34	0x3efe7684	0.49699795
35	0xbf01939c	-0.5061586
36	0xbe4e71a9	-0.20160545
37	0xbe8a0e8e	-0.2696423
38	0xbdc87a5d	-0.09788964
39	0xbefccce1	-0.4937506
40	0x3dce6b7f	0.10079097
41	0xbeac48ab	-0.3364919
42	0xbf55100d	-0.83227617
43	0x3e028c04	0.12748724
44	0x3e3d8b78	0.18510234
45	0x3e6f2fac	0.23358029
46	0xbdc0e629	-0.094188996
47	0x382bdeb0	4.097697e-05
48	0xbf07f477	-0.531074
49	0xbea4632f	-0.3210692
50	0xbdf4eed1	-0.11959613
51	0x3e0cffaa	0.13769403
52	0xbe14b2fb	-0.145214
53	0xbd8c86e8	-0.06861669
54	0xbdde398e	-0.108508214
55	0x3e61cf05	0.22051628
56	0xbd85678b	-0.0651389
57	0x3ea82528	0.32840848
58	0x3d521a94	0.051294878
59	0xbe013471	-0.12617661
60	0xbe562453	-0.20912294
61	0x3e0a71bf	0.13519953
62	0xbd42da6b	-0.04757158
63	0xbe367cbb	-0.17821018
64	0x3eedde61	0.46458724
65	0xbdeb2fa3	-0.11483695
66	0xbe0279fc	-0.12741846
67	0x3d5375f6	0.05162617
68	0xbede70e1	-0.43445495
69	0xbef0c58a	-0.4702571
70	0xbdeefa9d	-0.116688944
71	0x3e6fb912	0.23410442
72	0xbdb518dc	-0.08842632
73	0xbe4d8e9f	-0.20073937
74	0xbd8c5eb5	-0.068540014
75	0xbe7e8aa9	-0.24857582
76	0xbef9833f	-0.48732945
77	0x3e3aa26c	0.18226022
78	0xbddc1cae	-0.10747658
79	0xbee4f6f0	-0.44719648
80	0x3db90d20	0.090357065
81	0xbd1566cd	-0.03647499
82	0xbc6fcef2	-0.014636742
83	0xbe7d9318	-0.24763143
84	0x3e2e7a35	0.17038806
85	0xbe55a74f	-0.20864604
86	0x3e80325a	0.25038415
87	0x3d99ed0e	0.07515918
88	0xbedfaf55	-0.43688455
89	0x3eb8db07	0.36104605
90	0xbccc00e0	-0.024902761
91	0xbbf7235d	-0.0075420574
92	0xbf011d58	-0.504354
93	0xbe19b342	-0.15009788
94	0xbe80adb3	-0.25132522
95	0xbf1927e4	-0.59826493
96	0xbe049b38	-0.12949836
97	0xbd142546	-0.03616836
98	0xbdcb895e	-0.0993831
99	0xbe238b10	-0.15971017
100	0x3bdaa06d	0.0066719563
101	0x3d81b3e2	0.06333138
102	0xbf5dfe92	-0.8671657
103	0x3dcac6df	0.09901213
104	0xbce627c0	-0.028095126
105	0x3dd71a65	0.10503081
106	0xbcc43074	-0.023948886
107	0xbf724dd4	-0.94650006
108	0x3e154fa6	0.14581165
109	0xbe9fc925	-0.3120815
110	0x3c99f1a0	0.018791974
111	0x3dae3b2d	0.08507381
112	0xbeae2216	-0.3401038
113	0x3e9940ce	0.29932255
114	0xbe9cd3cc	-0.30630338
115	0xbdc64806	-0.09681706
116	0xbe669bbb	-0.22520344
117	0xbf2f0617	-0.6836867
118	0xbeac5026	-0.33654898
119	0x3d2b0106	0.041749023
120	0xba3ce348	-0.00072054984
121	0xbe628b76	-0.22123513
122	0x3e7ed149	0.24884523
123	0xbf03f5ce	-0.51546943
124	0xbf8336bf	-1.0251082
125	0xbe034326	-0.12818584
126	0x3e2108d9	0.15726031
127	0x3d1296c3	0.03578831
128	0x3e8b06f0	0.2715373
129	0xbeb82fcd	-0.3597397
130	0xbccf45de	-0.02530187
131	0x3d28a271	0.04117054
132	0xbf0cceba	-0.5500294
133	0xbdb6092c	-0.08888468
134	0xbd8621a5	-0.06549386
135	0x3eef484b	0.46734843
136	0xbe220d8f	-0.15825485
137	0x3e73846c	0.23780984
138	0x3d27cf1f	0.04096901
139	0x3ee07355	0.4383799
140	0xbb3544ba	-0.0027659372
141	0x3e0a5080	0.13507271
142	0x3e148beb	0.145065
143	0x3e6f795a	0.23386136
144	0xbd8593d3	-0.06522336
145	0x3d3fd1e2	0.04683102
146	0xbeaf0e9a	-0.34190828
147	0x3e15dbc2	0.14634612
148	0xbd2a6457	-0.041599598
149	0xbe0baa36	-0.13639149
150	0x3deb3881	0.11485387
151	0xbeb9cd18	-0.36289287
152	0xbef7a43a	-0.48367482
153	0x3c05432d	0.008133692
154	0xbec158ec	-0.37763155
155	0xbef5cfe9	-0.48010185
156	0x3dfa4b9f	0.12221455
157	0x3f2d185a	0.6761528
158	0xbe2e4c71	-0.17021348
159	0xbe06a8fe	-0.13150403
160	0xbdc99623	-0.098430894
161	0xbe9ebbf5	-0.31002775
162	0x3ef4dc9e	0.47824568
163	0x3e63e25b	0.22254317
164	0xbf1ab3ca	-0.60430586
165	0xbe9f7477	-0.31143543
166	0x3e5119e8	0.20420039
167	0xbda2bb64	-0.07945898
168	0x3e0045c0	0.12526608
169	0xbf0c5cce	-0.5482911
170	0xbe34cda0	-0.17656565
171	0xbecb0b6d	-0.39657155
172	0x3ea4c880	0.3218422
173	0x3d5a40e0	0.053284526
174	0xbe908942	-0.2822972
175	0xbf06b2d7	-0.5261664
176	0x3bfcc5f1	0.007714026
177	0xbe7414c0	-0.2383604
178	0x3c6af283	0.014340046
179	0xbedf9abc	-0.4367274
180	0xbe7d42f0	-0.24732566
181	0xbe9cce48	-0.3062613
182	0xbd93ca1c	-0.07216284
183	0xbe0880e1	-0.13330413
184	0xbd5a6dea	-0.05332748
185	0x3c20cb67	0.00981412
186	0xbea9fbce	-0.33199924
187	0x3ea1121c	0.3145913
188	0xbeae0b6f	-0.33993098
189	0x3e582705	0.21108635
190	0xbea62bfa	-0.32455426
191	0x3e7ab85d	0.24484392
192	0x3e5f090e	0.21780798
193	0xbed0fa1e	-0.40815824
194	0xbe7da978	-0.24771678
195	0xbf423e51	-0.7587634
196	0xbe69ec6e	-0.22844097
197	0x3f067135	0.5251649
198	0x3d856ea4	0.06515244
199	0x3ee05eec	0.4382242
200	0x3e41a7b6	0.18911633
201	0xbcf63e79	-0.030059086
202	0x3e4ee715	0.20205338
203	0xbdbe6e46	-0.09298377
204	0x3d0835f4	0.03325458
205	0xbe53e46c	-0.20692605
206	0xbe6bf071	-0.2304094
207	0xbba6cc0e	-0.005090243
208	0xbe5a5138	-0.21320045
209	0x3f11ade7	0.5690598
210	0xbe4bba44	-0.19895273
211	0xbe90be33	-0.2827011
212	0xbdba1e28	-0.09087783
213	0xbe5cc167	-0.21558152
214	0xbe4ede3d	-0.20201965
215	0xbe1c91fe	-0.15290067
216	0xbeeaeffe	-0.45886225
217	0xbedbfbbc	-0.42965496
218	0xbeb0e5d2	-0.3455034
219	0x3e5bd0b3	0.21466331
220	0xbf29f3e2	-0.6638776
221	0xbe245983	-0.16049771
222	0x3f1e6255	0.6186879
223	0x3d6c94fd	0.057759274
224	0xbf28f3e8	-0.6599717
225	0xbca50527	-0.020144058
226	0xbde434d3	-0.11142888
227	0x3dde0c53	0.108421944
228	0x3f050927	0.5196709
229	0xbc8e690f	-0.01738408
230	0xbe387854	-0.18014652
231	0xbeb058c4	-0.34442723
232	0xbe918307	-0.28420278
233	0xbea22ffa	-0.31677228
234	0x3e2bbf1e	0.16772124
235	0xbe27569c	-0.16341633
236	0x3db3b208	0.08774191
237	0xbe30c8db	-0.1726412
238	0xbf3344b6	-0.7002672
239	0x3dde28be	0.10847615
240	0xbb0d5214	-0.0021563815
241	0xbe802696	-0.2502944
242	0xbc5629c3	-0.01307148
243	0x3cba53c6	0.022745024
244	0xbd936c77	-0.071984224
245	0x3f0e05fb	0.55477875
246	0x3f0a45ae	0.5401257
247	0xbe1369e8	-0.14395869
248	0x3e1a842a	0.15089479
249	0xbe582810	-0.21109033
250	0xbdf6064c	-0.1201292
251	0xbe822744	-0.25420582
252	0xbe5eb60c	-0.21749133
253	0xbe679f1a	-0.22619286
254	0x3e8c5ed6	0.27416104
255	0x3e58d4ca	0.21174923

gnn.1.ginlayers.0.apply_func.mlp.linears.0.bias f4 [32]
0	0xb8958c25	-7.1309776e-05
1	0x37e4c770	2.7272588e-05
2	0xb6ab63a0	-5.107795e-06
3	0x390a190f	0.0001317004
4	0xb7a70bd0	-1.9913452e-05
5	0x39c2e7ec	0.0003717536
6	0x38cb8117	9.703839e-05
7	0x381b866a	3.7080063e-05
8	0x389a79f0	7.366005e-05
9	0x39620751	0.00021555765
10	0x390c052b	0.00013353366
11	0xb8941f10	-7.062976e-05
12	0x376b5cfa	1.4028739e-05
13	0x374561e2	1.1764905e-05
14	0x395dddc2	0.00021158814
15	0x3963fe4a	0.00021743137
16	0xb8b371bc	-8.55657e-05
17	0xb6b6d4b0	-5.4487828e-06
18	0xb8255420	-3.9417413e-05
19	0x36f27b98	7.22655e-06
20	0xb869a87f	-5.5708453e-05
21	0x382ce302	4.1219413e-05
22	0x379921bc	1.825473e-05
23	0x3962ead6	0.00021640523
24	0x38dc24a4	0.00010497242
25	0x39cd3f2a	0.00039147708
26	0x3a2371e9	0.00062349305
27	0xb8c05fd0	-9.17312e-05
28	0x3817b36a	3.6168298e-05
29	0x36882830	4.0577943e-06
30	0x37f8c934	2.9657596e-05
31	0x39277f2c	0.00015973736
