temp/MVSE/dblp/Moco_K4096_<MPRW>3x2hopsmp_spec_WL_0_0_1_bsz128_GElayer2_ned32_sed64-E300.pt (torch, 363331 bytes, 56 tensors)

gnn.0.ginlayers.0.apply_func.mlp.linears.0.weight f4 [32, 334]
00000000: 6576 22bf 2060 233e b22c 4cbc cb3f 5dbe
00000010: 4def 163e 0e56 8b3e 72c4 dabd 0050 02be
00000020: 78f5 48be 060d f3be 97a6 78bd 6904 93be
00000030: 8778 263d 155d 8dbd 04f2 f2bd 9e88 dfbe
00000040: 6fdd a73b f42b 273e 031a be3d a5a6 35be
00000050: dd8c d0bd f028 72be 1869 23bf 4c1f 0e3e
00000060: 621e 523d 33c2 9e3e 87e2 6dbb b260 abbe
00000070: 636a 5a3d 32b3 bb3c 2e8d 153d 7548 12bd
00000080: 1c7d 053d 9edb fd3e 872f 0dbe 1817 babd
00000090: 005b 56be ac69 84be 53a4 a43a 1c1b dabd
000000a0: 8f84 06be 27cc 84bd 7f49 f1be f2bb a2be
000000b0: 7ec8 2d3d c22e 58bd c2da 993e ce9f 76be
000000c0: 8b7d d9bc 41ef b2bd 5db2 eabd 4415 81be
000000d0: 7d4b fa3d dfc4 ffbc e106 e53c dbf0 8dbe
000000e0: 7ad7 f7be 6475 d63d 33ca b0be ee46 183e
000000f0: 4e5d 92be d0f8 21be 9514 4f3e 4591 98bd
00000100: 5e41 80be f621 89be add4 39be f246 333d
00000110: 3226 47bd 4135 733e 7647 21bd d16a b3bd
00000120: 8e8f 633e 6465 843e e093 a73e 1441 3c3d
00000130: f629 44be e8fa 17be f8f4 09bd a733 3abd
00000140: 5569 2a3e 1179 5fbe 15af 013e 048c 393d
00000150: cd08 f53c 212d 883e c454 e33d fa23 bcbd
00000160: 64f4 d03d d069 8dbe 0dd1 083d 8567 27be
00000170: 4a28 f8bd 775c 523e 617f 353e b0f5 3b3c
00000180: c8d0 ae3c 25e8 89bc 57f3 48be e509 383e
00000190: f157 583d 0eeb e33d 7533 8a3e d9b3 63be
000001a0: bdb3 0f3e 003f 3e3e 4728 693e d59d 04be
000001b0: 382d fc3c f47c 433d ab65 1c3e f3d5 88be
000001c0: 75d5 b9bd 753d 633d 6de4 b6bd 2a15 fb3d
000001d0: f607 d8be d3a6 99bc 29bc c7bd 3c1d f03d
000001e0: 346a 79be b870 dc3d b7d1 b23e d3c5 363e
000001f0: ecc8 11bd 1186 283e fa68 1eba 4766 153f
00000200: 1f87 5abe e1cd 8f3d 2cf1 363e b68c a8be
00000210: 5bad 133e 9d21 05bc 8dfa 38be db5d 32bc
00000220: fa9e e4bd ce40 8d3e 6a06 e5be c510 aebe
00000230: addd ab3d a50f 633e 2ab2 8f3d aca1 6fbe
00000240: 0a8c b23e 0c89 dbbc ca00 683e 3363 fd3d
00000250: ab8e 8d3d dc74 69be 651f a33c 1129 2d3e
00000260: af00 e73d dfa5 a9be 9525 873d 5b7b 9abe
00000270: 9664 d33e b78c bebe 8e87 eebc e396 a0be
00000280: 5a77 853d fa4b a33d 2e7a aa3d 52fb 33bd
00000290: 60de bb3c d20e 7e3e adec b23d 6156 333c
000002a0: 5fc6 10be 22bc 7bbd 7b5c ebbe 1bb7 823c
000002b0: e964 b0bd 0ec3 0c3e 7fbf cc3c ad7b 263e
000002c0: 9e0d 72be ca98 28be 5185 a7be 8b36 3b3e
000002d0: cb8c cebd 69cc 13bf d88c 963e 443e 533d
000002e0: 48a2 0ebf 5e4c b03e 8fbf c2be 5efc 7dbc
000002f0: 6b2a c33e 6182 763d 99b9 d53e 6676 06bd
00000300: 36f4 dcbb 5f03 65be 2b64 29be f8ae b6be
00000310: f082 9c3e e95b c2bd 76e9 a23b d1c4 05be
00000320: a02a ad3d 6cfc 903d e927 e7bd 8344 163e
00000330: 0a35 07be 76a2 853e eb7b 17be a562 3e3c
00000340: 04b1 d7be f304 003d 0558 67bc 6cfc 24bb
00000350: 8ebf 7bbe 9d4e fc3d 54ae 073d 593b cb3c
00000360: e50c 93be 4fe0 8cbe 2afd d8be 09f9 cdbd
00000370: c54f 93bb 4271 8b3d 0706 98be 31a3 253e
00000380: 7aa3 123e 1ddd 3bbd dd06 783d 86f0 7dbc
00000390: 376f a1be d797 593e 0069 c63d 24e0 edbd
000003a0: 2b6e 03be ee99 bcbc 3da3 86be ed0f 57be
000003b0: f3d6 173d 6ab3 9d3c 8aa5 933e 7f1c 8a3d
000003c0: cd9e 653d a377 28bd d278 0fbe 9eed 7abe
000003d0: 0455 ed3c 4e09 2a3d 86b1 efbe 6635 d9be
000003e0: d3cc 5f3e 3c3a a63b bc38 1dbe c87e ae3e
000003f0: ffc6 0dbd c9cd bfbc fe27 cebe fd2c 913c
-0.63461906 0.15954638 -0.012461828 -0.21606366 0.14739724 0.27214092 -0.10682 -0.1272583
-0.19624889 -0.47470874 -0.060705747 -0.28714302 0.040642288 -0.069025196 -0.11862567 -0.43658918
0.0051228325 0.1632536 0.09282305 -0.17739351 -0.101831175 -0.23648429 -0.63832235 0.13879126
0.051298507 0.31007537 -0.003629835 -0.3347221 0.053324115 0.022912595 0.036511593 -0.03571363
0.032590017 0.49581617 -0.13787661 -0.09086436 -0.20933151 -0.2586187 0.001256118 -0.10649702
-0.13136505 -0.064842515 -0.47126386 -0.31784016 0.042427532 -0.052778967 0.3004971 -0.24084398
-0.026549121 -0.0873704 -0.11459801 -0.25211537 0.122214295 -0.031221805 0.027957382 -0.2772282
-0.48406583 0.10471609 -0.34529266 0.14870808 -0.2858681 -0.1581757 0.20222695 -0.07449583
-0.2504987 -0.26783723 -0.18147536 0.04376883 -0.04862041 0.23750784 -0.03937479 -0.08760608
0.2222273 0.25858605 0.32730007 0.0459605 -0.19156632 -0.14841807 -0.033680886 -0.045459416
0.16641743 -0.21823527 0.12664445 0.045299545 0.029911423 0.2659693 0.11100152 -0.091865495
0.10202864 -0.2761979 0.03340249 -0.16348083 -0.121170595 0.20543085 0.17724372 0.011472151
0.021339789 -0.016834328 -0.19624077 0.17972524 0.052818242 0.111288175 0.26992384 -0.22236575
0.14033408 0.1857872 0.22769271 -0.12950833 0.03078328 0.047726586 0.15273158 -0.2672573
-0.09073917 0.055478532 -0.089302875 0.12259896 -0.42193574 -0.018756306 -0.097526856 0.11724326
-0.2435692 0.10763687 0.34925625 0.17848901 -0.035592005 0.16457392 -0.00060428644 0.5835919
-0.21340607 0.0702169 0.17865437 -0.32919854 0.14421599 -0.00812569 -0.18064328 -0.010886635
-0.11163135 0.27588505 -0.44731456 -0.3399717 0.08391891 0.22173937 0.07016404 -0.23401517
0.34872466 -0.026798747 0.22656551 0.123724364 0.069119774 -0.22798485 0.019912431 0.16910197
0.11279427 -0.33134362 0.06598965 -0.30172238 0.41287678 -0.37216732 -0.029117372 -0.31365117
0.06516905 0.07973476 0.08324085 -0.04394085 0.022933185 0.24810341 0.087365486 0.010945887
-0.14138173 -0.061458714 -0.45968994 0.015956452 -0.08612997 0.13746282 0.024993656 0.16258116
-0.23638007 -0.16464534 -0.327189 0.18282525 -0.10085448 -0.5773378 0.2940433 0.051573053
-0.5571637 0.34433264 -0.38036773 -0.015502064 0.381183 0.060182933 0.41743162 -0.032827757
-0.0067429794 -0.22364567 -0.16542117 -0.35680366 0.30568647 -0.09490187 0.0049716784 -0.13063361
0.08455396 0.07079396 -0.11286909 0.14674573 -0.13203827 0.2610051 -0.14793365 0.011620198
-0.4212724 0.03125472 -0.014120107 -0.002517487 -0.24584791 0.12319682 0.033125237 0.024808573
-0.28720775 -0.27514884 -0.4238065 -0.10057265 -0.0044955933 0.068087116 -0.29692098 0.16175534
0.14320174 -0.045865167 0.06055342 -0.01549924 -0.31530163 0.21249329 0.09687996 -0.11615017
-0.12834994 -0.023022618 -0.26296416 -0.21002169 0.037070226 0.01925059 0.28837234 0.067437164
0.056059647 -0.04112972 -0.14010933 -0.24504706 0.028971203 0.04151278 -0.46815127 -0.42423552
0.21855478 0.00507286 -0.15353674 0.340811 -0.034613606 -0.023413556 -0.40264887 0.017721647

gnn.0.ginlayers.0.apply_func.mlp.linears.0.bias f4 [32]
00000000: 3ee5 e138 a869 0c39 3d3f 97b8 08bd 1139
00000010: f21e 82b8 86be e8b8 2c4a 39b7 2ddf e4b8
00000020: 8f1a d337 7cb7 2a38 d4f0 2ab8 fa0c 2138
00000030: 8d3c 5438 c8f4 0738 ca9b a838 876d 8e38
00000040: 50ae 57b8 5457 c2b7 5ed4 58b8 8838 03b8
00000050: a34d b138 f84c a637 4807 72b7 d01b 85b6
00000060: c676 8a38 e239 6bb8 400a bfb7 baba be37
00000070: 0c32 5b38 aea4 d6b7 eff9 d7b7 577d bb38
0.00010771536 0.000133908 -7.21202e-05 0.00013898697 -6.204647e-05 -0.0001109811 -1.1044129e-05 -0.00010913457
2.5165527e-05 4.070204e-05 -4.0755447e-05 3.8397477e-05 5.060113e-05 3.241448e-05 8.039882e-05 6.791489e-05
-5.1422336e-05 -2.3167267e-05 -5.1696195e-05 -3.1285483e-05 8.454479e-05 1.9824583e-05 -1.4426019e-05 -3.9669467e-06
6.602476e-05 -5.6082274e-05 -2.2773747e-05 2.2736716e-05 5.226028e-05 -2.5587473e-05 -2.5746382e-05 8.940201e-05

gnn.0.ginlayers.0.apply_func.mlp.linears.1.weight f4 [32, 32]
00000000: 4fb3 083e daf1 45be 266f 8d3e ba1e 483e
00000010: dd68 c7be a827 31bd 1d5f 06be 3ba7 6a3d
00000020: 1898 abbc d164 79be 8490 863e f3cf a9be
00000030: 60cc 6dbf 92b7 7dbe 904a 553e ae11 363d
00000040: d0d5 813e 09f5 5bbe 47e7 fe3e 043e 60be
00000050: 0b29 ba3d bbf6 373d 7f3b 043e 1fae aa3e
00000060: 9454 12bf 503c 98bc c8c1 2ebf 2436 743e
00000070: c0f0 16be 734e e93c dc66 193c be37 ecbe
00000080: 4539 c5be 5e1a 9cbe 4607 3bbe d060 0fbd
00000090: 1e3f 67bf 7862 80bd 1358 0a3e 5cca 99be
000000a0: a36b 093e 6553 a53d fde1 eabd a01f 033f
000000b0: 6bb9 013f 3a87 bbbe 5618 b23d fc00 a2bd
000000c0: 18cd ec3c 201a 24b9 c2de f83e 1e94 603e
000000d0: 22a5 1e3e 7cea 523c 7421 cbbe 5cbc 32bf
000000e0: bda1 91be 13b0 933e 8887 96bc 33b4 a5be
000000f0: 2cd9 f3bd 6100 14bf a1a9 29be 38a4 a03c
00000100: 50f4 6e3e c0c4 01be e2dd 03bf b066 93be
00000110: ec58 24be b765 90be ccb6 a639 4441 5abe
00000120: bbe4 dc3b 5e17 e3be 6742 173e f5cc a4be
00000130: ab7b edbe 0c4a c7bd 9a8f 8a3e 94b0 053e
00000140: 4599 e23d d492 67bc b664 80be fcd4 3e3e
00000150: 059a 633e 6bc4 72bd 4868 033f 0761 15be
00000160: cc9c 8dbe e61d 023f 4013 bebd f292 7d3e
00000170: 94bb 343e 2ab5 94bd b7b1 143f 0192 233e
00000180: a4a6 e43c c170 c33e 2b4d 4a3e b08f 5ebe
00000190: 45cc c13e f64e f8be be9f 24bf 98fc d33c
000001a0: 2043 223e 91ae 0f3e b88b 0fbe e19a 533e
000001b0: 71ab 593e 729c 4c3e a532 d73e 6b73 4f3e
000001c0: 0b30 a13e 652b 1f3d 6b09 4c3e fbb8 3bbd
000001d0: 7ccb cb3e af9c 593e 23c4 00bf 1491 ad3d
000001e0: a60d 043e 53c5 42bf d498 55bd faf9 49bf
000001f0: 98c3 623e d6bf 9ebe dc9c 893e 1545 a73c
00000200: 1cca 193e 3d4d a2be 43b7 273d 5894 a8bd
00000210: 7553 5e3d 5ac5 1b3e 58cc 36be a987 40bc
00000220: 42cc 573d 754e 1fbe e9de 0abe f1f3 43be
00000230: a1b1 1cbf 1760 d8be 1433 333e ddad c23e
00000240: 7785 253f 8fa9 10be 9705 cebd 6d99 153e
00000250: 8918 07be 9e9f 9e3c 8a2a 70be 600d 0ebf
00000260: 38ce 2cbe 6c8f 843e 0a55 283e 6cc9 263f
00000270: 022d 863e 603f 31bd 21e5 d43e 1cb7 45bf
00000280: 2adb ad3d 3b92 2ebf 11e9 d0be 41a9 bd3e
00000290: d016 d33c 80b7 cbbe 744c 5bbe 0e72 0fbf
000002a0: 86b2 9abe c25f 3a3d 8995 03bf 0e41 69bd
000002b0: 8bee 4cbf acf4 24be f188 15be 553f 623e
000002c0: 3d92 463e 9232 81be 2bfd aa3e 6179 c6bc
000002d0: a4f1 803d 985a bf3e 0bdf 283d 2350 c5bd
000002e0: 69a3 31be 16c1 8bbd bc0a babe 35e4 86be
000002f0: cb3c 0e3e 9e71 2bbd b014 54bd d80d aa3d
00000300: a1ea cdbe 8134 6a3e 817c abbe 460f 083f
00000310: ddfc 2dbd 3e76 96be 89cc 39be f5f0 343e
00000320: 50f5 fe3d 84dd b93d 5312 8d3e a885 00bd
00000330: 348a 0fbe 30e3 2d3e cdb5 803b 9d69 eebe
00000340: c441 59be a8dc c33d 9811 9ebc 7ef3 613e
00000350: 8c4b c6be 75a9 183e 9566 89be 99af 21bf
00000360: 944d b4be 50d6 e2bd 1b42 9abe 78c9 b43e
00000370: 11a4 cbbe f46c 0cbf 012e ebbe 7bd8 203e
00000380: f751 413e 3d9b c8be 6747 9f3e 2bb5 30bf
00000390: 6abf 0fbe 3ca6 82bc 9612 6e3d 057e 04bf
000003a0: bc59 953e d3d9 913e ceba 8f3e 682f 5ebd
000003b0: 6e92 d4bb bb58 09bf f0d6 683e 1a5d 58be
000003c0: 709d a8bd 78b1 133f 527d 0abf 9863 0dbe
000003d0: 4648 8abe 89b4 e63e e803 853e da13 cebe
000003e0: 0ee6 ef3d ef7d e83d 2975 10bf 9d18 af3d
000003f0: 505a 5cbe 52b1 aabd f591 27be b37a aebe
0.13349651 -0.1933054 0.27623862 0.19542971 -0.38947192 -0.04325071 -0.1312222 0.05728839
-0.020946547 -0.24354865 0.26282132 -0.33166465 -0.92889977 -0.24777058 0.20829225 0.044450454
0.25358438 -0.21480192 0.49785826 -0.21898657 0.090898596 0.044913035 0.12913321 0.3333597
-0.57160306 -0.018583447 -0.68264437 0.23848778 -0.14740276 0.02847979 0.0093629025 -0.46136278
-0.38520256 -0.30488867 -0.18264493 -0.035004437 -0.90330684 -0.062687814 0.1351016 -0.300372
0.13419966 0.08072547 -0.11468885 0.5122013 0.5067355 -0.36626607 0.08696048 -0.07910344
0.02890639 -0.00015649991 0.4860745 0.21931502 0.1549268 0.012873288 -0.3967396 -0.69818664
-0.2844371 0.2884527 -0.018375173 -0.32364044 -0.119066566 -0.5781308 -0.16568615 0.019609556
0.23335385 -0.1267271 -0.5151044 -0.28789282 -0.16049546 -0.28202602 0.00031798182 -0.2131396
0.006741134 -0.44353765 0.14771424 -0.3218762 -0.46383414 -0.0973092 0.27062684 0.1305564
0.1106439 -0.014134128 -0.25076836 0.18635935 0.22226723 -0.05926935 0.51330996 -0.14587794
-0.2765869 0.5082687 -0.092810154 0.24763086 0.1764968 -0.07261117 0.5808367 0.15973665
0.027911492 0.38171962 0.19756 -0.217345 0.37851158 -0.48497742 -0.6430625 0.025877282
0.15845919 0.14031436 -0.14018142 0.2066455 0.21256806 0.19981554 0.42030826 0.20258872
0.31481966 0.038859744 0.19925468 -0.045830708 0.39803684 0.21251176 -0.5029928 0.08474937
0.12895831 -0.7608234 -0.0521477 -0.7889706 0.22144926 -0.31005734 0.26877487 0.020418683
0.15018505 -0.31699553 0.040946256 -0.08231419 0.05427881 0.15212002 -0.17851388 -0.011751094
0.05268503 -0.15557273 -0.13561596 -0.19136025 -0.6120854 -0.4226081 0.17499954 0.38023272
0.64656776 -0.14127181 -0.1005966 0.14609309 -0.13192953 0.01936322 -0.23453727 -0.5548916
-0.16875541 0.25890672 0.1643869 0.65151095 0.26206213 -0.04327333 0.4158106 -0.7723253
0.08489068 -0.6819188 -0.40802816 0.37043193 0.025767714 -0.39788437 -0.21415883 -0.5603341
-0.30214328 0.045501478 -0.5140005 -0.056946807 -0.8005149 -0.1610896 -0.1460302 0.22094472
0.19391723 -0.25233895 0.33396277 -0.0242278 0.06296089 0.37373805 0.041228335 -0.096344255
-0.17347492 -0.068239376 -0.36336315 -0.26345983 0.13890378 -0.0418564 -0.05177754 0.08303422
-0.4021807 0.22871591 -0.33493426 0.53148305 -0.042477477 -0.29387087 -0.1814443 0.17670043
0.124491334 0.09075454 0.27553043 -0.031377465 -0.14017564 0.16981196 0.0039279223 -0.46564952
-0.21216494 0.09563571 -0.019295499 0.22065541 -0.38729513 0.14908393 -0.26836076 -0.63158566
-0.35215437 -0.11076033 -0.3012856 0.35309958 -0.3977361 -0.5485375 -0.45933536 0.15707581
0.18878923 -0.39180937 0.31109163 -0.6902644 -0.14037862 -0.015948407 0.058123194 -0.5175479
0.29170024 0.284865 0.28072208 -0.05424443 -0.0064871823 -0.53651017 0.22738242 -0.21129265
-0.08233154 0.5769267 -0.54097474 -0.13807523 -0.27008265 0.45059612 0.25979543 -0.4024952
0.11713801 0.11352145 -0.5642877 0.085496165 -0.21518826 -0.083346024 -0.16364272 -0.34077987

gnn.0.ginlayers.0.apply_func.mlp.linears.1.bias f4 [32]
00000000: 92eb 3d38 0002 1935 1193 cf38 615c 2539
00000010: 763b 86b8 ad12 ae37 5ccc 6e39 2172 ceb8
00000020: cc6a 7439 3391 9038 0416 2ab8 c028 54b8
00000030: 2c48 37b9 b5eb aab8 1ab3 b9b7 584d 2c38
00000040: c41a 8239 78cb 05b8 6c9b e6b7 2e0c b2b8
00000050: b8c6 8538 274b 0339 6f82 7db8 8c19 ddb7
00000060: 860c 4c38 7e5d 9438 c154 35b8 098b 5939
00000070: 00a8 2f34 9c7d 0bb7 6a21 52b9 1245 5b39
4.5280503e-05 5.699985e-07 9.8979224e-05 0.0001577004 -6.4006934e-05 2.0751113e-05 0.00022773579 -9.8441036e-05
0.00023309438 6.8935005e-05 -4.0551662e-05 -5.058269e-05 -0.00017479126 -8.1501355e-05 -2.213712e-05 4.1080028e-05
0.00024815474 -3.1899166e-05 -2.749051e-05 -8.48997e-05 6.3789485e-05 0.0001252113 -6.0441376e-05 -2.635715e-05
4.8649053e-05 7.074604e-05 -4.3232696e-05 0.00020746527 1.6359263e-07 -8.314291e-06 -0.00020039608 0.00020911198

gnn.0.ginlayers.0.apply_func.mlp.batch_norms.0.weight f4 [32]
00000000: daa7 703f bd25 863f c2c4 7c3f 6b0c 6a3f
00000010: fa16 873f c64d 6b3f 6b29 7d3f 5d03 943f
00000020: e2e4 6b3f 47b4 873f 3ebb 713f 697a 9d3f
00000030: 9c34 a23f a50b 9d3f fdde a63f 8913 903f
00000040: 23b6 7f3f ca2c 663f f9af 983f 08d6 833f
00000050: f689 903f f35d 6e3f 2824 713f c33e 903f
00000060: 4fa1 6c3f b1bd 8e3f ae8f 963f 32e6 8c3f
00000070: 88e8 5c3f 28aa 6a3f f4c3 9e3f f073 473f
0.9400612 1.0480267 0.9873773 0.914252 1.0553887 0.9191555 0.98891324 1.1563526
0.9214612 1.0601891 0.94426334 1.2302982 1.2672305 1.2269179 1.3036801 1.1255962
0.99887294 0.8991209 1.1928703 1.0299692 1.1292102 0.93112105 0.94195795 1.1269153
0.9243364 1.1151639 1.1762598 1.100775 0.86292315 0.9166589 1.240355 0.7791128

gnn.0.ginlayers.0.apply_func.mlp.batch_norms.0.bias f4 [32]
00000000: 6a44 b6bd 5a1d 30be ac28 79bd 2453 d1bd
00000010: d2b4 c3be 44ff 603c b7d0 92be 59db 6a3d
00000020: 678d 13be fd86 4c3d c4c6 33be 232e 87be
00000030: b6c9 dabe 53d2 27be c5bc 773d caf9 a5be
00000040: e77c b4be ffe1 823e 8220 603d ab0d 81be
00000050: ed70 6ebc 0958 ef3e 037d 93be b5a9 b7bd
00000060: 29a8 f33e 1efe 0fbe aa13 f0bd ed42 cabd
00000070: 07ad 983d 1194 9c3e d1eb 7dbe 0499 e13e
-0.08899768 -0.17198697 -0.060829803 -0.10220936 -0.38223892 0.013732735 -0.28674862 0.057338092
-0.1440941 0.049933422 -0.17556292 -0.26402387 -0.42732018 -0.16388826 0.06048276 -0.32417136
-0.35251543 0.25563046 0.054718502 -0.2520574 -0.014553291 0.46746853 -0.28806314 -0.08967916
0.47589234 -0.14061782 -0.117225006 -0.09876046 0.07454877 0.30581716 -0.24796988 0.44062054

gnn.0.ginlayers.0.apply_func.mlp.batch_norms.0.running_mean f4 [32]
00000000: 31d5 f3bf adac b7bf 6042 c4be 1fb1 60bf
00000010: a3e9 19bf cd51 cd3d f3a7 37c0 0a96 f2bf
00000020: b404 653e 9889 19bf 6280 71bf 2b7b d8bf
00000030: 0109 56c0 501d 52c0 411e a4c0 4082 f7bf
00000040: 1807 b0bf 6d50 78bf 9379 3fc0 7e97 0ec0
00000050: 6159 76c0 e7d9 aabf a87c 05bf 2b35 1ec0
00000060: 51b7 7840 a572 05c0 cd1e 0ac0 229f 28bf
00000070: f172 423f 9627 1040 3979 40c0 0d56 aa3f
-1.9049436 -1.4349571 -0.3833189 -0.87770265 -0.60122126 0.10025368 -2.8696258 -1.8952038
0.22365075 -0.59975576 -0.9433652 -1.6912588 -3.3442996 -3.283039 -5.128693 -1.9336624
-1.3752165 -0.9699772 -2.9917953 -2.2279963 -3.8492053 -1.3347749 -0.52143335 -2.471995
3.8861887 -2.0851223 -2.15813 -0.6586782 0.75956637 2.2524161 -3.0073988 1.3307511

gnn.0.ginlayers.0.apply_func.mlp.batch_norms.0.running_var f4 [32]
00000000: 945a cf40 2471 d340 e0a8 9b40 6161 b840
00000010: 658f 8b40 bb7d 8840 7ead fb40 84de 0341
00000020: 1d65 c240 b10f d840 583d df40 14a9 1a41
00000030: a746 7e41 8fc1 2941 ac37 8b41 728f c340
00000040: cdd0 ba40 a259 d740 c631 7441 6445 0c41
00000050: e2c9 3341 4f90 3841 9ee5 d340 e438 d140
00000060: 984f 5441 5c73 ee40 7797 4a41 b328 fc40
00000070: dd6e 8e40 182c 0541 0bde 4641 44a2 cf40
6.479807 6.607561 4.8643646 5.761887 4.361254 4.265348 7.8649282 8.241825
6.074843 6.7519155 6.9762383 9.666279 15.892249 10.6097555 17.402184 6.1112604
5.8379884 6.7296915 15.262152 8.766941 11.236788 11.535232 6.6217794 6.5381947
13.269432 7.451582 12.661979 7.879968 4.451033 8.323265 12.42921 6.488558

gnn.0.ginlayers.0.apply_func.bn.weight f4 [32]
00000000: 7bb7 643f d250 4b3f a903 a73d c39c 623f
00000010: 661f f53d 0e9f 903e 5ca1 d23e 854c 123e
00000020: 7b69 903d 241e 053f b6e0 983d 8424 e83e
00000030: cc73 e43e 6454 273e fc5e ae3e abff 3d3f
00000040: 86ae 423f 9b34 9c3d 1d23 a03e aa37 6f3d
00000050: 4599 193f 2680 123f 72a3 b53d 7ee2 2e3f
00000060: 7eab 013f e2f8 ab3e 504c 063f ab6b 223f
00000070: 8e6b 0d3f 63c0 f73e ef9e 783f e228 553f
0.8934247 0.79420197 0.08154995 0.8852045 0.119688794 0.2824635 0.41138732 0.14287002
0.07051369 0.51999116 0.07464735 0.4534036 0.44619596 0.16340786 0.34056842 0.74218243
0.7604755 0.07627221 0.3127679 0.058402695 0.59999496 0.5722679 0.08869065 0.6831435
0.506523 0.3358832 0.52460194 0.6344554 0.5524224 0.48388967 0.97117513 0.8326551

gnn.0.ginlayers.0.apply_func.bn.bias f4 [32]
00000000: 37e5 3dbe e07b 373e 2d10 e93e 32f3 7a3d
00000010: fd65 d03e 811d c03e eafa 053f bf8f cf3e
00000020: 1a6b be3e 2ec3 b83e 51b8 023f 41d8 a43e
00000030: 1909 e43e f1c9 0b3f ef4b ca3e 42e8 c03d
00000040: 0ec1 113e 9780 003f d1ef d83e ab5d aa3e
00000050: 1f5c ae3e 8318 b13e 5070 a63e c891 a53e
00000060: 9d97 c83e 873a de3e 3223 b93e 46ea 8a3e
00000070: a574 b93e e3b7 6f3e a621 ffbd f45f 01be
-0.1854447 0.17918348 0.45520154 0.061267085 0.4070281 0.3752251 0.5233599 0.40539357
0.37191087 0.3608641 0.51062495 0.3219624 0.4453819 0.54605013 0.39511058 0.094193
0.14233801 0.5019621 0.42370465 0.33274588 0.34054658 0.34589013 0.32507563 0.32337785
0.39178172 0.43404028 0.36159664 0.2713186 0.36221805 0.23409991 -0.1245759 -0.1263426

gnn.0.ginlayers.0.apply_func.bn.running_mean f4 [32]
00000000: d68f 4bbf 8a35 6abf a44e 78be cc24 d73e
00000010: c85c f2be 8244 97bf c699 8cbf 408f 35bf
00000020: b31c e9be c6d8 1bbf e474 27bf 9186 97bf
00000030: 21b2 dcbf 14e5 5ebe 85fc 3a3d a6dc 42be
00000040: 77a8 bbbe 5d47 9fbf 9d2d 6cbe 4f7e 89bf
00000050: 4c38 bebf 2c23 89bf 6053 03c0 cfcb 2abf
00000060: a570 ac3e c398 87bf 46b3 56bf c182 b3bf
00000070: 31f2 b3bf ee41 49bf e27f 1f3f ee39 63bf
-0.7951635 -0.91487944 -0.24248749 0.4202026 -0.4733641 -1.1817782 -1.0984428 -0.7092171
-0.45529708 -0.60877645 -0.65412736 -1.1837941 -1.7241861 -0.21767074 0.045650978 -0.19029483
-0.36651966 -1.2443653 -0.23064275 -1.0741671 -1.486093 -1.0713859 -2.0519638 -0.6671724
0.3367969 -1.0593494 -0.838673 -1.4024278 -1.4058286 -0.78616226 0.6230451 -0.8876027

gnn.0.ginlayers.0.apply_func.bn.running_var f4 [32]
00000000: 717b a73f cf02 c83f bd54 323f a581 843f
00000010: 48dd 9a3f 40a5 5c3f 8003 8a3f 2e06 c23f
00000020: 16b0 9b3f cf2f 593f 3712 823f 9b11 933f
00000030: fb40 913f 2485 863f 324e 683f a4a8 af3f
00000040: fad5 813f 55eb 6d3f 18c5 643f 2eef 8d3f
00000050: b83f 683f 8787 903f db10 fa3f 82ef 873f
00000060: e5ea b03f a325 8f3f e792 6e3f df43 a43f
00000070: 71c5 673f ba5f 523f fa04 5a40 ab72 843f
1.3084546 1.5625857 0.6966055 1.0352064 1.209878 0.8618965 1.0782318 1.5158136
1.2163112 0.84838575 1.0161809 1.1489748 1.1347955 1.0509381 0.90744317 1.372334
1.0143425 0.92937213 0.8936324 1.1088617 0.9072223 1.129136 1.9536394 1.0619967
1.3821684 1.1183361 0.93192905 1.2833213 0.90535647 0.8217732 3.4065537 1.0347494

gnn.0.batch_norms.0.weight f4 [32]
00000000: a9cf 683f 1dc8 423f d37e 153f 1dd6 5a3f
00000010: 0605 2f3f 02cf 1b3f efff 5c3f bae0 2e3f
00000020: 849d 343f 8715 1b3f 01f6 503f d4b6 2d3f
00000030: fc98 4e3f 22e6 323f 42d5 1c3f b85c 213f
00000040: 9519 513f f534 343f fd34 0e3f d227 183f
00000050: 6764 2e3f e847 363f b941 313f c6f7 3f3f
00000060: b9ff 383f 80cd 203f 0dee 1c3f 8805 3f3f
00000070: 8cd4 333f 758d 023f 9af5 673f ef80 4c3f
0.90941864 0.760866 0.58396643 0.8548296 0.6836704 0.60862744 0.86328024 0.68311656
0.7055285 0.60579723 0.8162537 0.678571 0.80702186 0.69882405 0.61262906 0.630321
0.8167966 0.70393306 0.55549604 0.5943576 0.6812195 0.7120347 0.6924091 0.7498745
0.722652 0.6281357 0.61300737 0.74617815 0.70246196 0.50997096 0.90609133 0.7988424

gnn.0.batch_norms.0.bias f4 [32]
00000000: e891 54be fcf1 08be 5132 f83d 684e 28be
00000010: 0c05 bf3c 973a 1dbd bbe6 5e3e 8f17 c03e
00000020: ad04 d23d 140e c2bc dda2 563e 73fc 10bd
00000030: e3e9 8e3d 50e2 a03d 4a97 ccbd 339b 48be
00000040: 34ab 5ebe ad1f 113e d58e d0bd e650 713e
00000050: 7e5f 88bd a762 b2bd 0edf 6c3e 13db 04bb
00000060: 7c4b 453d 9734 9ebd b3fb cabd c493 b2bd
00000070: 808b a3bc 8a52 8fbe 4326 a2bd 3a25 ddbe
-0.20758784 -0.1337356 0.12118972 -0.1643616 0.023317836 -0.038385954 0.21767704 0.37517974
0.10254798 -0.023688354 0.20960565 -0.035397004 0.06978204 0.07855666 -0.099897936 -0.19590454
-0.21744996 0.1417224 -0.10183493 0.23566017 -0.06658839 -0.08710223 0.23131964 -0.002027218
0.04816769 -0.077248745 -0.09911289 -0.0871959 -0.01996398 -0.2799266 -0.07917454 -0.43192464

gnn.0.batch_norms.0.running_mean f4 [32]
00000000: 3262 823e 5be4 d43e af53 e93e 2206 c43e
00000010: 2d3f ce3e db75 c73e 26b0 0b3f 91b9 cf3e
00000020: aaca be3e 57e4 d73e a2c5 023f 9fe5 bf3e
00000030: 9f14 fa3e bb9b 0b3f 018f d53e 2c91 b33e
00000040: 492a c03e e192 003f 688d df3e 4397 aa3e
00000050: faee e03e ede4 e53e 0198 a63e 7a77 eb3e
00000060: 7081 ee3e 62e7 e53e 6506 d83e a648 d73e
00000070: 7cdd eb3e 9735 a63e 0598 a53e 1b90 843e
0.25465542 0.4158047 0.45571658 0.3828593 0.40282574 0.38957104 0.54565656 0.40571263
0.37263995 0.42166397 0.51082814 0.37479874 0.48843858 0.545345 0.41710666 0.35071695
0.3753226 0.5022412 0.43662572 0.3331853 0.43932325 0.4490122 0.32537845 0.4598959
0.46583128 0.44903094 0.4219238 0.42047614 0.46067417 0.3246276 0.32342544 0.25891194

gnn.0.batch_norms.0.running_var f4 [32]
00000000: 6a77 323e f74f 5b3e d02a e13b b364 813e
00000010: 312f 8c3c d6a0 813d 9ae2 093e 9fc4 a63c
00000020: a539 9b3b d03a 343e ac64 b23b e487 1a3e
00000030: a1c2 063e 53f5 e23c d1d1 b83d 1381 353e
00000040: e5cb 5f3e 5772 be3b e093 a83d 1da7 6e3b
00000050: 8bc6 493e 3495 2c3e 7c6e 073c 9459 763e
00000060: 55aa 1f3e 2bff c03d dd9f 483e 6e5d 2e3e
00000070: 260b 1a3e 77f3 003e 50b8 283e 3b49 2f3e
0.17428365 0.21417223 0.0068715587 0.2527214 0.017112346 0.06329505 0.13465348 0.020357428
0.0047370964 0.1760056 0.00544413 0.150909 0.13160183 0.02770487 0.09024394 0.17725019
0.21855123 0.00581197 0.0823133 0.0036415525 0.19704644 0.16853791 0.008266088 0.24057609
0.1559232 0.094236694 0.19592233 0.17027828 0.15043315 0.12592874 0.1647656 0.17117779

gnn.0.linears_prediction.0.weight f4 [64, 334]
00000000: 5610 24bd 02a2 01bf 6bc1 c6bc ab09 893e
00000010: 055a 31be fcdc 10bd c926 8c3d abda cebb
00000020: 8861 3f3e d5f1 ab3d 3658 0abf 3c1a b13e
00000030: 4cbe cabd 3f8e a9bd 6427 09bf 4122 903e
00000040: efff fc3d aa90 c7ba 3b03 e9be 3a00 e6bd
00000050: 62e7 0abe 069e dcbe 169a 72be b18e 8b3e
00000060: 9161 dcbe f9a2 623e 6422 e13d 42fd 563e
00000070: b4ad 2cbe 2383 fabd 7c40 0ebf 6717 d7bd
00000080: 0d9f 353c 2280 043d 319c af3e fa7c 39bd
00000090: 82a3 d53e 7e4a 9dbe 1fca 673e ab8a 143f
000000a0: 8c1e 4cbe 74e4 b0be 531d 653d e440 dbbd
000000b0: 1ea1 e63e 05fa e13e 385c 3e3e 62dd 653e
000000c0: 2684 b9bd 9803 463d 813d 433e a80a adbe
000000d0: 5d16 2d3f 7fe2 5c3e 48ac c53d 486d e33e
000000e0: c67e ed3e 2f72 2bbd dce4 dabd 29be 3e3c
000000f0: 64c5 2c3e ddf6 91be 0bb8 93bd 90c5 a1be
00000100: 63a7 03bf 1d56 f4bd e0d8 dcbe a0a5 2abe
00000110: 9989 a33e 4284 953e abc4 b4be 7a35 e03c
00000120: 1e67 f93b 7735 42be 1e5d 70be dcfb c23d
00000130: c4de 233c f0d6 ce3c 4d01 653c a763 c8bd
00000140: 676e 50bd 6ba9 0dbe 3077 a5bd 1973 063e
00000150: 5f81 0abe 737f 8f3e 815a 9abe 4599 c8bd
00000160: 1c27 c1bd 216c d5be 05c5 213e 0309 8cbe
00000170: fd5e 1fbe 9792 cd3e 17bf 1a3e 4965 283d
00000180: 8a3b be3e 4421 bcbd 67e7 cf3e e87c 89be
00000190: f00a 4bbe 1519 153c 5f2c 54be 7124 f93e
000001a0: 8f7e 57bd c95e 853d 67d6 c23d b2a3 e93e
000001b0: 2b2b cc3e dd81 ee3d 5fd9 133e f65d c93e
000001c0: 4ac1 14be c4bd b93e e83e c0be f3ce 503e
000001d0: 7fbb aa3c c8e2 883b 99d2 2a3e 7bb0 cc3c
000001e0: f70d 6a3e e6c2 d03e 6736 bfbe 2d9a 0abe
000001f0: 0f0e af3e 7d25 543e 1556 b63d a4f6 64be
00000200: f05b da3d 4d03 60be 243e 4fbe 1ec1 5abc
00000210: 7765 38be 91ff 5f3e 9714 003e ecc5 68be
00000220: d175 983d a49d 0abf 976e 783d b5ea c6be
00000230: 8a51 89bd bd46 4b3e 0127 e6bd cdae 863d
00000240: 7741 edbe 724a a4bd 1435 833e cb2a d33e
00000250: e4b0 663c 2b20 ecbc 7471 76bd 2aa8 213e
00000260: 9554 febc d1b4 eb3d a186 a13c 7774 203e
00000270: b850 de3e 181a b9bd 69a5 8e3d fe86 9abd
00000280: 8aec 52be 1dbd 37be bcb3 e8be f99d b5be
00000290: bdb8 5dbe 6b49 ac3e 8e9d 6e3d 9bb8 de3d
000002a0: d480 6b3e 0a54 49be 8d95 4a3e e917 4ebd
000002b0: e6d0 a93c 91e4 d1be 3c18 263b f05b 5c3e
000002c0: de73 d63e fe1d b53e cc4c e7bc bd4f 81be
000002d0: 9444 d3bd eda1 8b3d 615d 643e 58a9 f03d
000002e0: 6a8d 7abe 6d1c 14bd 51cd e9bc dc4a 06be
000002f0: 6e33 fa3c b1ae d9bd 6a79 d93d e6d3 e73e
00000300: 6dd3 34be a934 28be 3a3f 91be b32a 94bb
00000310: b370 b9bd 80d3 b7bd e99d 07bb 76bc 83be
00000320: 6c78 febd 75e7 733e 8c81 833c b4c2 923e
00000330: b2cd 963e 07d5 093e d19d 28be 5de6 7bbd
00000340: 7cbe 05bd 416f f5bd 563f b0be 3586 69be
00000350: 1043 163e d9fb ac3e f4bb 0cbe 7c39 3cbe
00000360: edaa 6abc 406e a33e f407 f43c 0d9b ad3e
00000370: 57e9 35bd 3356 293e 97e6 10bf 4790 d7bd
00000380: d10c 11bf 59f4 15be aece 2c3d b808 0d3e
00000390: 29df c33e 7471 b9bc 9b31 00be 796a 803e
000003a0: 5a83 61be d8ba abbc 528a c33d 9e60 c4bd
000003b0: ac7f 033e b3b5 0c3e 0acc a8be 9f36 97be
000003c0: 75c5 bb3d 4b99 49bd 547a c2be 8aa9 d73e
000003d0: df01 a8be 9a97 0a3e da59 29be 5778 fabd
000003e0: ed5d c5be defd 65bd b396 34be 080c eebd
000003f0: 034b 12bf e4e1 d63e d053 37be 0e82 b63c
-0.04005464 -0.5063783 -0.02426215 0.2676519 -0.17319496 -0.035366997 0.06843335 -0.0063126883
0.18689549 0.08395735 -0.5404085 0.34590328 -0.098995775 -0.082790844 -0.5357573 0.28151134
0.12353503 -0.0015225608 -0.45510277 -0.11230512 -0.13564828 -0.43089312 -0.23691592 0.27257302
-0.43043187 0.22132482 0.109928876 0.20995048 -0.16863137 -0.122320436 -0.55567145 -0.105025105
0.011085284 0.03234876 0.34298852 -0.045285203 0.4172631 -0.30720896 0.22635697 0.5802409
-0.19933528 -0.34549296 0.05593617 -0.10705736 0.45044798 0.44136062 0.18589866 0.22447732
-0.090584084 0.04834327 0.1906643 -0.33797193 0.6761225 0.21570776 0.09652001 0.44419312
0.46385783 -0.04185694 -0.10688183 0.011642017 0.16872174 -0.28508654 -0.07212838 -0.3159604
-0.51427287 -0.11930487 -0.43134212 -0.16664743 0.31940916 0.29202467 -0.35306296 0.02736925
0.0076111695 -0.18965708 -0.23473021 0.095206946 0.010001842 0.025248975 0.013977361 -0.09784632
-0.050886538 -0.13834159 -0.08079374 0.13129844 -0.13525914 0.28026924 -0.30147174 -0.09794859
-0.09431288 -0.41684058 0.15797813 -0.27350625 -0.15563579 0.40150902 0.15111957 0.041112218
0.371548 -0.091860324 0.40606233 -0.26853108 -0.19828391 0.009100218 -0.20720051 0.48660615
-0.05261093 0.065122195 0.0951355 0.45632702 0.39876685 0.11645863 0.14438389 0.393295
-0.14526859 0.36277592 -0.37547994 0.20391445 0.020841358 0.004177425 0.16681899 0.024986496
0.2285689 0.40773696 -0.37346193 -0.13535376 0.34190413 0.20717426 0.089031376 -0.22359711
0.10662067 -0.21876259 -0.20238549 -0.013351707 -0.18007456 0.21874835 0.12507854 -0.22731751
0.07444347 -0.5414679 0.06065234 -0.38850942 -0.067050055 0.19851203 -0.11237908 0.06576309
-0.46339008 -0.08022012 0.25626433 0.41243586 0.01408026 -0.028823933 -0.06016679 0.15786806
-0.031046191 0.11509097 0.019717516 0.15669428 0.4342096 -0.0903818 0.06965143 -0.07545279
-0.20598045 -0.17943235 -0.45449626 -0.35472086 -0.21652503 0.33649763 0.058255725 0.108750544
0.22998363 -0.19660965 0.19783612 -0.05031577 0.020729493 -0.40994695 0.0025344035 0.21519446
0.41885275 0.35374445 -0.028234862 -0.25256148 -0.103158146 0.06817994 0.22301246 0.1175105
-0.24468008 -0.03615992 -0.028540285 -0.13114494 0.030542102 -0.10629023 0.10618861 0.45278853
-0.17658778 -0.16426338 -0.2836855 -0.0045216917 -0.09054699 -0.08975887 -0.0020693487 -0.25729722
-0.124253124 0.23818763 0.016052984 0.28664172 0.29453808 0.1346017 -0.16466452 -0.06149899
-0.032652363 -0.119841106 -0.3442332 -0.22805102 0.1467402 0.33785895 -0.13743573 -0.18381304
-0.014322978 0.31920052 0.029788949 0.33907357 -0.044411983 0.16536789 -0.5660185 -0.105255656
-0.5666018 -0.14643992 0.042189293 0.13772857 0.38256195 -0.022637106 -0.12518923 0.25081232
-0.22022763 -0.020963117 0.09547867 -0.09588741 0.12841672 0.13741188 -0.3296817 -0.2953386
0.09168521 -0.049218457 -0.37983954 0.42121536 -0.32813928 0.13534394 -0.16538182 -0.12229984
-0.38548222 -0.05615031 -0.17635612 -0.116233885 -0.5714571 0.41969216 -0.17903066 0.022278812

gnn.0.linears_prediction.0.bias f4 [64]
00000000: 909a fe3d 6df2 5dbf d28f b3be 1f22 0d3e
00000010: 1983 98bf 5dd4 053f 7604 1fbe f72d 01bf
00000020: 7796 b8be 40d8 803e e830 1abf 81b7 f23e
00000030: ebbf 39bf eacb 033d 5d9a aa3f c9d4 f7be
00000040: 1f6b 983e a71c abbf f431 343e d3e7 0b3f
00000050: 554f 21bf 007f 763e 4a52 983f a4be 273e
00000060: cdd8 063f 1487 4d3e b36d 87bf e6c1 9d3e
00000070: f978 cf3e ff46 32be 2f2d 59be fd3f 94bd
00000080: c3a8 8dbe 4156 6ebe 3861 ae3e 00cd 22bd
00000090: a5d0 873f 17ea 543e 5b34 773f b6bd 16bd
000000a0: 5afd 46bd b7e6 0fbf 5aa8 9fbd 7ff9 05bf
000000b0: 9b80 1bbf bd6b dd3e 3818 053f dd39 c93d
000000c0: 76a8 743e fc10 8d3e c632 cebf 0675 a73f
000000d0: 2641 efbe c36b c73f 0c71 0dbf 2f94 24bf
000000e0: 7c16 243e 3217 f83e 16b2 7ebe 2740 91bf
000000f0: a7af 8bbe 9422 f93e 5374 553e b2f2 c7be
0.12431824 -0.8669804 -0.35070664 0.13782547 -1.1915008 0.52277166 -0.15529045 -0.5046076
-0.36052296 0.25164986 -0.60230875 0.47405627 -0.7255847 0.03217689 1.3328358 -0.4840453
0.29769227 -1.3368119 0.1759718 0.5465061 -0.63011676 0.24071884 1.1900113 0.16381317
0.5267456 0.2007106 -1.0580353 0.30811995 0.40521982 -0.17409895 -0.21208642 -0.07238767
-0.27667817 -0.23275091 0.34058547 -0.039746284 1.0610548 0.20792423 0.96564263 -0.036802016
-0.04858146 -0.5621142 -0.077957824 -0.52333826 -0.6074311 0.4324626 0.5199008 0.0982549
0.23892388 0.2755202 -1.6109245 1.3082588 -0.46729392 1.5579761 -0.5525062 -0.6428861
0.16024202 0.48455197 -0.24872622 -1.1347703 -0.2728245 0.48659194 0.20845155 -0.3905235

gnn.0.linears_prediction.1.weight f4 [64, 32]
00000000: 0a86 0cbf a91f 3e3e 5157 39be 3586 43be
00000010: a353 82be 3591 a1be d603 333e a05a 7e38
00000020: 594e 6bbe 77a8 59be 617e d63d d775 4e3e
00000030: 37a8 1b3c 991a 8dbe 1a00 0e3e b038 8dbe
00000040: e7e3 04be 30dd b4be 52ad b03c 0f91 603e
00000050: 4d69 fcbd 0786 cabe e317 893e 0112 f33e
00000060: e895 ffbe 64f6 a13d 0a03 cf3e f112 ebbe
00000070: d6a8 2cbe 82fd 8b3d c562 c03e d583 703e
00000080: ede3 45bd 8e67 0e3d 1e5f 533e f68c 0bbd
00000090: 63eb 023e 95f9 a9be 9780 db3e e2fd ca3d
000000a0: 7fe1 583c 4dd0 b53e 0e88 66be 4e18 df3c
000000b0: 973b 833d b86c b8be 7e03 423e 4394 44be
000000c0: 3921 883e 7dd8 c6bd a9d4 e6bc 4d77 7e3e
000000d0: 11f3 ac3e 5ad2 40be b217 2c3d c427 0f3e
000000e0: 23ad febe 6e38 15bd ea92 343e 62ee 85bd
000000f0: ac74 84be fc24 e3bc 1f2f d2be c3cf 4e3d
00000100: 107f 013e adbc 543e 9d24 043c 4ef6 01bf
00000110: 7b73 c23c 2d26 ba3d 862a 923e 0625 fabe
00000120: 8804 793e 2e73 f5bc bd02 293e 83e0 7a3e
00000130: be0c f83e f3dc f0be f9bf 55bd c8f5 babe
00000140: 56bd 9c3e 33d2 273e 7f18 b9be 2961 76bd
00000150: 925c ba3c cd36 84be a68c 7bbe b102 9f3e
00000160: 1da7 6fbe 4e41 b73d 5cc9 c93e 9300 4dbd
00000170: adfe 0d3e a93b 11be 8167 533e ea82 93be
00000180: 8c04 153f 3a4c a8be 5c30 01be bc53 d03e
00000190: 483a 0e3e bfff 283e 80b0 26be 5269 c6be
000001a0: 844b fc3c 4a16 0fbc 8423 fbbd d4dd bc3e
000001b0: 1442 dbbe 8b80 453e acdf 683d 4a01 da3e
000001c0: 6e08 863d ff00 053e 5a0b 243e 69c3 223e
000001d0: 036f 453e 1614 fe3d 2456 a93e 5453 48be
000001e0: c63a 02be 0959 103e 5f7f 84be dcdf 1b3e
000001f0: 2473 a2be 827a e5bd 4347 99be 171f 9ebe
00000200: 0cb5 49be 1f46 113e 236f d93c bdf1 e1bb
00000210: bd30 c83d a1f4 8a3e a743 fd3e 540c 063e
00000220: b041 8bbc 8630 353d 52e4 1bbe f65b 933b
00000230: 7287 a53e d4f4 b43c 3062 a6be 3636 7cbe
00000240: 6498 0abe e102 583e 3544 c1be a94c 3f3e
00000250: e60f 273e a1ef c5bd e61d 47bd 15ab 92be
00000260: 832a 92be 234f 383d 66dd b5be 3acb a13e
00000270: 6869 0a3f b564 a73e de5d fdbd 3392 033e
00000280: b290 99be 6455 4bbe 9e9e 8f3e 3521 c33d
00000290: 8988 ae3e 42e1 69be ca09 92bc 2998 84be
000002a0: 0051 22bd c985 993e eb50 4d3e d79a b0be
000002b0: ec81 8e3e c240 b9be 04fa 8b3e 77b4 28be
000002c0: f315 8cbe cf6d e53e e18e 8f3c 4530 583d
000002d0: 520d d6bd 4825 823d 8aaa 2c3e bcba ba3e
000002e0: d3c8 6cbd ba36 c3be f64c a9be 56e5 dabd
000002f0: 783a afbe eda6 28bd 7a42 a93e 44c6 febe
00000300: 114f 063f 52d0 84be 2746 c6bb 1edc 97be
00000310: d23d 353e 50d6 b9be b32b 803e 54e4 f03d
00000320: e19a 90be c1a7 413e 27f1 b8be 692c 903d
00000330: 822d 8f3e c0ed bcbe 4e25 dd3d e1e2 333e
00000340: 427e c73e 876c 773d 93ce 1b3e 78d0 efbe
00000350: 9010 e7bd 9d44 463e 95ae dbbd c62a 46be
00000360: 279c 00be db22 653e bc9f ff3e 2b0c 5b3d
00000370: 9d08 28be 169d b7bd 81b4 adbe de47 073e
00000380: b1da e3bd 409d 02be 0456 0cbf eb32 8f3e
00000390: e3d0 93be 3f35 48be aa7d d5bc 6168 26be
000003a0: 5851 bc3d 8db5 91be 5db4 b13e b29f bfbd
000003b0: ffc4 9a3e 5f10 3e3e e150 05bf f525 1abe
000003c0: ff51 82bc 10f8 113f f16d 2a3e cd08 a3be
000003d0: 9613 c7be 4f58 eb3c c01e 4f3e 6638 9f3e
000003e0: 7a89 613e c61b 593d 9da7 5c3e 876f 1e3e
000003f0: aec8 b6bd 5ae6 f93e 25a1 e33c 502f b53d
-0.5489203 0.18566765 -0.18099715 -0.19094165 -0.25454435 -0.31556097 0.17481932 6.064272e-05
-0.22979106 -0.2125567 0.104733236 0.2016214 0.009500555 -0.27559355 0.13867226 -0.27582312
-0.12977563 -0.35325003 0.02156702 0.21930335 -0.12324772 -0.3955538 0.26776037 0.47474673
-0.49919057 0.079083234 0.40432006 -0.4591289 -0.16861281 0.06835462 0.37575355 0.2348779
-0.04831307 0.034766726 0.20641753 -0.034069978 0.12785105 -0.33198228 0.42871544 0.099117056
0.013237356 0.35510483 -0.22512838 0.027233269 0.0640785 -0.36020446 0.18946645 -0.19197182
0.26587847 -0.097092606 -0.028177576 0.24850197 0.33779195 -0.18830243 0.042014785 0.13980013
-0.49741468 -0.03643077 0.17634168 -0.065396085 -0.25870264 -0.027727596 -0.41051576 0.050491106
0.12646127 0.20775099 0.00806537 -0.50766456 0.023736706 0.09089313 0.28548068 -0.48856372
0.24318135 -0.029962149 0.16504951 0.24499707 0.48447222 -0.4704357 -0.052185033 -0.3651564
0.30613202 0.16388778 -0.36151502 -0.060151253 0.02274922 -0.2582306 -0.24565372 0.3105674
-0.23403592 0.08948003 0.39411438 -0.050049376 0.13866682 -0.14182915 0.20644952 -0.28810817
0.58210063 -0.32870656 -0.12616104 0.40688884 0.1388942 0.1650381 -0.16278267 -0.38752228
0.030797727 -0.0087333415 -0.122626334 0.3688799 -0.4282385 0.19287317 0.056853935 0.42579108
0.065445766 0.12988661 0.16019955 0.15894856 0.19280629 0.12406175 0.33073533 -0.19563037
-0.12717733 0.14096464 -0.25878426 0.15222114 -0.3172847 -0.11205007 -0.2993718 -0.30883095
-0.1969797 0.14186905 0.026542252 -0.0068952725 0.09774921 0.27139762 0.49465677 0.1309064
-0.016999096 0.04423573 -0.15223816 0.0044970466 0.323299 0.0220894 -0.32496786 -0.24630055
-0.13534695 0.21094848 -0.3774735 0.18681587 0.16314659 -0.09664846 -0.048612498 -0.2864615
-0.2854806 0.044997346 -0.35520476 0.31600362 0.5406709 0.3269402 -0.12371419 0.1284874
-0.29993206 -0.19856793 0.28050703 0.09527818 0.34088543 -0.22839835 -0.017826933 -0.2589734
-0.03962803 0.29984882 0.20050399 -0.34493133 0.27833498 -0.3618222 0.27339184 -0.16475092
-0.27360496 0.4481034 0.017524185 0.05278041 -0.104517594 0.06354767 0.1686193 0.36470592
-0.05780871 -0.3812769 -0.3306653 -0.106882736 -0.34224296 -0.041174818 0.3305853 -0.4976064
0.52464396 -0.25940186 -0.0060508433 -0.29660124 0.17699364 -0.3629632 0.2503334 0.117623
-0.28243163 0.1891165 -0.36121485 0.070397206 0.27964407 -0.3690014 0.10798131 0.17567016
0.38963515 0.060406234 0.1521552 -0.46838737 -0.11282456 0.19362111 -0.10726658 -0.19352254
-0.12559567 0.22376578 0.49926555 0.0534784 -0.16409536 -0.08965509 -0.33926776 0.13211009
-0.111256965 -0.12755299 -0.5481875 0.27968535 -0.28870305 -0.19551562 -0.026060898 -0.16250755
0.091952026 -0.28458825 0.3470792 -0.09356631 0.3022842 0.18560933 -0.52076536 -0.15053542
-0.01590824 0.5701914 0.16643502 -0.31842652 -0.3888213 0.028728632 0.20226574 0.31097716
0.220251 0.053005002 0.21548314 0.15472232 -0.08924995 0.48808557 0.0277868 0.08846915

gnn.0.linears_prediction.1.bias f4 [64]
00000000: 0355 c2bc e18c 63bf b8e8 4ebf 9fe8 013f
00000010: d119 abbf 40d8 113e 785f a23d 6caf ecbe
00000020: 46b5 21be 83f5 27be 3315 a2be 6736 c53e
00000030: ee17 febe 5202 30be a9e8 9e3f 5cc6 17bf
00000040: 43f7 c83e 0e01 b8bf 3fa5 a3bd 19ee 0b3e
00000050: e638 f9be d89e d13e eb53 a03f beb7 89be
00000060: 8a59 493f 8978 393e 7496 6cbf 0d67 6a3e
00000070: 0665 b93e a494 61be 2627 993e 14f5 10bf
00000080: b4ee c0be 4823 1ebf 13e8 603f 375c 0abe
00000090: 75fb 913f a7dd 203e c709 7c3f 7039 81bd
000000a0: 0ebd 3a3d 9afc 92be 6e10 a4be 82fd 40bf
000000b0: f9fe 8abe 278b 033f b848 763f cc4a 8abe
000000c0: 6b39 653d a9b6 a93d 168b bbbf d238 9c3f
000000d0: fb80 19bf 0244 cd3f 197d 48be 208d babe
000000e0: d135 94be e01e 0e3f 225b 08be bda6 90bf
000000f0: 001d 27bf 1f1e 453f 2867 e83d a139 8b3e
-0.023722177 -0.8888684 -0.8082385 0.50745577 -1.3367254 0.14242649 0.079283655 -0.46227586
-0.15791807 -0.16402249 -0.316568 0.38518068 -0.49627632 -0.17188385 1.2414752 -0.5928705
0.39251146 -1.4375322 -0.079905026 0.13665046 -0.48676223 0.409415 1.252561 -0.26897997
0.7865225 0.18112387 -0.92417073 0.22890873 0.36209887 -0.22029358 0.2991268 -0.5662396
-0.37682116 -0.61772585 0.8785412 -0.1351174 1.1404864 0.15709554 0.9845242 -0.063097835
0.045590453 -0.28708345 -0.32043785 -0.7538682 -0.27147654 0.51384205 0.9620471 -0.2701019
0.05596296 0.08286793 -1.4651821 1.220484 -0.59962434 1.6036379 -0.19578971 -0.36435795
-0.2894731 0.5551586 -0.13316014 -1.1300884 -0.65278625 0.76999086 0.113478005 0.27192405

gnn.1.ginlayers.0.apply_func.mlp.linears.0.weight f4 [32, 334]
00000000: fa6d 183c dea1 f93d 02c4 93bd 695a eabd
00000010: 47c6 e1be 95c4 1cbe 1400 893d 83ee c2be
00000020: 2740 07be 5ca5 b0be 87ef 1abe b929 153e
00000030: 699f b53c 52bf e4be c746 debc 9ddf 063e
00000040: e755 bfbe 90c7 09be aff8 76bd 315a 973e
00000050: d89a b4bd a5cd 3fbe ea8b 8d3e 62d2 af3e
00000060: e98b 673e d550 c7be 5949 0f3f 5e93 86bd
00000070: 7785 b1be 5635 953e 3dca 713e 208e 683e
00000080: 78b0 8cbe cfb2 0abd 4708 903e c1cc e4be
00000090: caff 67be 58e9 1abe 9790 01be ec48 d7be
000000a0: 68b8 443e ff24 ccbd c1d5 43bf 0688 b63d
000000b0: ddb8 4c3e 1632 1d3e f2dc 70bc 262f 1b3d
000000c0: e132 e5be 3e93 54be 316f 18be b102 1ebb
000000d0: f962 293b f222 c5bd d11b 633d 1041 9e3e
000000e0: 86b8 8a3c 46c6 833e c7c9 4c3d 6587 0cbe
000000f0: 89cd 36be eb8a a93d 49f5 a43c f557 b83d
00000100: 45a0 023f cb77 edbd bb5d 82bd 9590 f33d
00000110: cc58 b4be faed c3bd b13b d03d 7b26 8e3e
00000120: 9198 8cbc 022a 3cbe 6a51 2bbe 2abc babd
00000130: f4d7 23bf a2a2 5e3e 3194 adbd d18e a6be
00000140: 3eb9 a83c 8852 fbbd e920 1d3d 9040 6fbe
00000150: 0722 81bd d68e 4cbe 936c 5d3e 5749 143e
00000160: 8f88 5bbe 3d16 fb3e 1217 c6bd c7a8 853d
00000170: bef3 2abf aaa3 27be 304b 81be d134 f0be
00000180: 5041 003e 10f9 363e 19bd 10bd 53dd bd3d
00000190: 0aac 19be 1fb2 2d3d 1a18 35bf 7365 003d
000001a0: 6a0d c6bd 638d d23d 3ff1 6cbd 8315 35bf
000001b0: 1de7 5c3e 031a acbd c949 153d 5416 7ebc
000001c0: cd9d b0bc 8b85 113f 17ee 89be b4bf 0bbd
000001d0: c981 3dbe 68c7 e9be 3e8e bebe 199d 573d
000001e0: 1986 963d 48ba 1bbc c95d ae3e a125 04bf
000001f0: 6f38 56bf 6089 013e 8e61 42bc 4b6b fabd
00000200: e030 813e 67a0 cdbe ee0f 53bd f5d0 b7bd
00000210: faae c2be 5d87 2ebe 4da2 a6bd 88b5 0c3f
00000220: 9e20 34be 07f5 7f3e 2321 e93d 7144 943e
00000230: 17f2 d03c 49d5 63bd 32ae 96bd 0170 ef3d
00000240: aedb bcbd b52f 14bc 9a69 81be ddaf 04bd
00000250: c87c 52be 34b1 47bd 0a43 e33d 6af5 d2be
00000260: 4290 03bf 266c 2bbd edb8 9bbe ca71 c0be
00000270: e1ae 923e f999 2b3f 4ffa b9bd ebb7 56be
00000280: bdb1 3f3d 1f20 34be 68e2 873e b849 593e
00000290: 7409 00bf 5f81 73be ba8e 893e 0359 2abe
000002a0: 5a3b a13d 7540 b8be 7739 6fbe ddcc 2abe
000002b0: 1553 8d3e 3370 f73d e239 9abe cfca febe
000002c0: 4071 6cbd 7744 d0be 2dbb 07bd 3a9d c5be
000002d0: ce94 d2be d03e 60be 387e 39bd 1375 65be
000002e0: 3382 48bd d8a0 5bbb 0c06 9abe 1273 453e
000002f0: 3bbb 97be fe29 843e b6a7 3dbe 9d12 a13d
00000300: 5c28 a13e e250 c0be 60d1 f2bd c652 35bf
00000310: b7e9 8abe 226c dd3e 229b 6b3e a3c9 e13e
00000320: 973f ad3e 6d05 16bd b71f 743e eed7 2abe
00000330: ec6a 8f3d 4870 67be 76f7 bebd c2a7 18be
00000340: a28c 38be f979 063f e97e 00be aae5 a4be
00000350: 2fa3 d0bc 7abe efbe 806e ce3d 95ea 1ebd
00000360: 81fc 34be bab9 bbbe 0fe3 72be c8d1 6b3e
00000370: 84ae 02bf 3c9e 6c3c e434 133f 9980 863d
00000380: c5d8 dabe 582f e2bc 5125 4dbb 0f38 cb3d
00000390: 295b 093f ead9 47be 9a17 04be 736e b9be
000003a0: cace c4be ec7e 4cbe f6a2 083e bddc 1abe
000003b0: ec0a 093e a56c 89be ed82 e7be a3f6 973d
000003c0: c711 8bbd a55a 28be eac6 8e3d d01a 133e
000003d0: 8a47 44be 01d7 fd3e cd14 ea3e af79 15be
000003e0: f38b ef3d 1b73 6abe 5a05 583b 7572 62be
000003f0: 4a99 85bd e949 5cbd 4546 593e 8023 9d3d
0.009303564 0.12189077 -0.0721512 -0.114430256 -0.44096586 -0.15309365 0.06689468 -0.38072595
-0.13208066 -0.3450116 -0.15130435 0.14566697 0.02217074 -0.44677216 -0.027133359 0.13171239
-0.37370226 -0.13455033 -0.060295757 0.29560998 -0.088185966 -0.18730791 0.27645808 0.34340197
0.22611965 -0.38928857 0.55971295 -0.06571077 -0.34672138 0.29142255 0.23612304 0.22710466
-0.27478385 -0.03386193 0.28131315 -0.44687465 -0.2265617 -0.15128076 -0.12652813 -0.42047822
0.1921097 -0.09967994 -0.7649804 0.08912663 0.19992395 0.15351138 -0.014701115 0.03788676
-0.4476538 -0.20759293 -0.14886166 -0.002411049 0.0025846346 -0.09625806 0.05544645 0.30909014
0.01693369 0.25737208 0.049997117 -0.13723524 -0.17851843 0.082784496 0.020136492 0.090011515
0.510258 -0.11595114 -0.06365534 0.11892811 -0.35223997 -0.09566875 0.10167635 0.27763733
-0.017162593 -0.183754 -0.16730276 -0.09117921 -0.64001393 0.21741727 -0.08475531 -0.32530835
0.020596143 -0.12271601 0.038361464 -0.23364472 -0.06305318 -0.19976363 0.21623449 0.14481102
-0.21438812 0.49040404 -0.09672369 0.06526332 -0.6677817 -0.16371027 -0.25252676 -0.46915296
0.12524915 0.17868447 -0.035336588 0.0927073 -0.15007034 0.042406198 -0.707399 0.03134675
-0.09670527 0.102808736 -0.057847258 -0.7073595 0.21572538 -0.08403399 0.03644732 -0.015508253
-0.02155962 0.56844395 -0.2693946 -0.03411837 -0.1850654 -0.45659947 -0.37217897 0.052640054
0.07349796 -0.009504862 0.34055927 -0.5161992 -0.8367986 0.1265006 -0.011864079 -0.12227496
0.252326 -0.4016144 -0.051528864 -0.08975402 -0.38024122 -0.17043824 -0.08136425 0.54964495
-0.17590567 0.24995814 0.113832735 0.28958467 0.025506062 -0.055623326 -0.07357444 0.11691285
-0.09221588 -0.009044577 -0.2527588 -0.03239428 -0.20555413 -0.04875298 0.11096771 -0.4120286
-0.51391995 -0.041851185 -0.30414525 -0.37586814 0.28649047 0.6703182 -0.09080946 -0.20968597
0.046800364 -0.17590378 0.26539922 0.21219528 -0.50014424 -0.2377982 0.26866704 -0.16635518
0.078726485 -0.35986677 -0.23361765 -0.16679712 0.2760245 0.12081947 -0.30122286 -0.49764106
-0.05772519 -0.40677235 -0.03313749 -0.38596517 -0.41129154 -0.21898961 -0.045286387 -0.22407942
-0.048952293 -0.0033512618 -0.30082738 0.19282177 -0.29635033 0.25813287 -0.18521008 0.07864878
0.31476104 -0.3756171 -0.11856341 -0.7082943 -0.27131435 0.4324656 0.23008397 0.4409915
0.33837578 -0.03662627 0.23840223 -0.16683933 0.070028156 -0.22601426 -0.09324543 -0.14907745
-0.18022397 0.52529866 -0.12548412 -0.3220647 -0.025468437 -0.4682501 0.1007967 -0.038797934
-0.17674448 -0.36665136 -0.23719428 0.23029244 -0.5104754 0.014442023 0.5750258 0.06567497
-0.42743507 -0.027610466 -0.003130276 0.09922802 0.53654724 -0.19516721 -0.12899628 -0.3621708
-0.38439018 -0.19970292 0.13343415 -0.15123267 0.13383073 -0.26840702 -0.45217076 0.07420089
-0.067905 -0.16440828 0.069715336 0.14365697 -0.19167915 0.49578097 0.45718995 -0.145972
0.11696615 -0.22895472 0.0032962174 -0.22113974 -0.06523378 -0.053781424 0.21218212 0.07672787

gnn.1.ginlayers.0.apply_func.mlp.linears.0.bias f4 [32]
00000000: 3abf 3d39 3e25 c038 7554 6eb8 e465 cf39
00000010: dfab b338 784b 4738 881e ed38 ce3e 5338
00000020: 5012 2039 7688 bbb8 be31 bbb9 0c1f 3338
00000030: f894 da36 afec 12b9 9aa4 d338 bd7d 92b9
00000040: d8c8 ee38 a098 b238 dc42 9db8 72c7 aab6
00000050: 9448 49b8 7653 1137 1c7a 3b39 007a ff35
00000060: 735a 99b7 6885 adb7 b0e2 9f39 75c4 74b8
00000070: e0fb 0837 771c ce37 deb2 af39 e984 1037
0.00018095682 9.16221e-05 -5.682228e-05 0.0003955803 8.5673986e-05 4.7515583e-05 0.000113067275 5.036481e-05
0.00015265611 -8.942273e-05 -0.0003570448 4.270584e-05 6.5142485e-06 -0.00014011817 0.000100919235 -0.00027940972
0.000113861344 8.51613e-05 -7.498797e-05 -5.0896133e-06 -4.7989728e-05 8.662106e-06 0.00017879199 1.9034487e-06
-1.828114e-05 -2.068533e-05 0.0003049574 -5.8357098e-05 8.164876e-06 2.4570369e-05 0.00033511868 8.614014e-06
