temp/MVSE/dblp/Moco_K4096_<MPRW>3x2hopsmp_spec_WL_0_0_1_bsz128_GElayer2_ned32_sed64-E100.pt (torch, 363331 bytes, 56 tensors)

gnn.0.ginlayers.0.apply_func.mlp.linears.0.weight f4 [32, 334]
-0.10122058 0.09688564 -0.13166952 -0.043880187 0.071373 0.14129713 -0.16175972 -0.11356717
-0.19586954 -0.24033898 -0.04857866 -0.08522892 0.00026811456 0.05358097 0.019722873 -0.018521134
0.07232813 0.04047558 -0.040065404 -0.2280158 0.09835918 -0.08859767 -0.2606503 -0.0022902177
-0.11812888 0.08857171 0.06284551 -0.10996356 -0.06887755 -0.024246212 0.17187852 0.0013295833
-0.01162848 0.102522574 -0.07110768 -0.007669969 -0.0017617558 -0.1862601 -0.12317391 -0.07208552
0.028956035 0.042125285 -0.30332977 -0.16263887 0.13143411 -0.14080346 0.11037116 -0.10925848
-0.01974351 0.003961842 -0.14015172 -0.11520845 0.05302723 -0.09195479 -0.05206712 0.07965469
-0.14634831 0.016002677 -0.080741026 0.08463861 -0.10866191 -0.13621253 0.031849556 -0.06996092
0.013677195 -0.047995407 -0.027990209 0.02653683 -0.14255908 0.037863333 -0.05643189 0.08822412
0.016583322 0.027163723 0.0986758 -0.03834822 -0.10388624 -0.033263497 0.056973025 -0.031628337
0.046655763 -0.26752412 0.0026664848 -0.044939503 -0.058901794 0.12370438 0.17169602 -0.11323829
-0.023849625 -0.018999627 -0.025666887 -0.085520476 -0.09132831 0.07377833 0.061067786 -0.0043235337
0.036932457 -0.06303346 -0.045591522 -0.008257143 0.07195117 -0.026617495 0.028372675 -0.061814588
0.018992322 0.04727865 0.1820626 -0.12527823 -0.04815124 0.048931833 -0.047401395 -0.0037102518
-0.06203059 0.080360495 -0.08492575 0.09065391 -0.0427821 0.00935952 -0.18828782 -1.2525733e-05
-0.12472943 0.015514629 0.114905395 0.023262072 -0.09674608 0.14756608 0.0371335 0.1985726
-0.17608951 0.01904972 0.07564905 -0.16748688 0.07646982 -0.005491874 -0.09027415 -0.045103945
0.012449713 0.14588872 -0.11598423 -0.12821761 0.08071003 0.26159525 0.122631535 0.051604383
0.16120104 0.024110036 0.061429493 0.0659785 0.0061284704 -0.080304794 0.04956656 0.055569146
0.07772799 -0.05534947 0.031154502 -0.061760355 0.11081367 -0.056170862 -0.07406622 -0.13278367
0.08797769 0.011553927 0.08474533 0.04082821 0.0004667623 0.05585528 -0.008550235 0.12394624
-0.064455695 0.061703328 -0.32685095 0.118160166 0.043105796 0.07196373 0.005142098 0.09517808
-0.10722931 -0.15396395 -0.121314205 0.058152657 -0.07365884 -0.36156726 0.030142525 -0.05972228
-0.069975406 0.09272822 -0.047899537 -0.0017364782 0.09149515 0.04415916 0.2978364 -0.043553736
-0.011786269 -0.10287279 -0.025382493 -0.11580487 0.057208505 -0.15624174 -0.045285266 -0.111410156
0.06319167 0.076767944 -0.027405318 0.09823217 -0.04954774 0.15275268 -0.023735035 0.04862378
-0.1647888 -0.070599265 -0.11717849 0.057398412 -0.0640962 0.020017464 0.07511659 0.11782184
-0.019606452 -0.022270206 -0.15040472 -0.09143905 0.07749005 -0.004435922 -0.07912925 -0.045268256
0.0051774797 0.032590475 -0.049391855 0.0306035 -0.12944844 0.11407755 0.09680232 -0.053787667
-0.109537445 -0.034429327 -0.10384678 0.023039378 -0.004235301 -0.04046076 0.0010455602 0.0387294
0.009305032 0.04709266 -0.032113697 -0.04965456 0.007830403 -0.09857192 -0.13748896 -0.11140698
0.08899073 -0.084057786 0.14239632 0.15402539 0.06031892 -0.048820045 -0.033828713 0.1725663
00000000: bc4c cfbd fa6b c63d 60d4 06be b6bb 33bd
00000010: 022c 923d 32b0 103e 57a4 25be e895 e8bd
00000020: 0692 48be 6c1b 76be 6bfa 46bd 808c aebd
00000030: ba91 8c39 b877 5b3d dd91 a13c a2b9 97bc
00000040: c520 943d b9c9 253d 9f1b 24bd f97c 69be
00000050: 8a70 c93d b272 b5bd f573 85be 7a17 16bb
00000060: 8eed f1bd 1665 b53d 26b5 803d 9334 e1bd
00000070: ac0f 8dbd fe9f c6bc ec00 303e 6a45 ae3a
00000080: 6185 3ebc 5bf7 d13d e7a0 91bd 5d54 fbbb
00000090: b7ea e6ba f8ba 3ebe 9a42 fcbd 93a1 93bd
000000a0: 3535 ed3c 908b 2c3d 0a4e 9bbe ce8a 26be
000000b0: aa96 063e c82e 10be 460a e23d e9c2 dfbd
000000c0: 24bd a1bc 57d2 813b ef83 0fbe 68f2 ebbd
000000d0: 1533 593d cb52 bcbd 5544 55bd 0022 a33d
000000e0: 55dc 15be 0c18 833c 8d5b a5bd 0257 ad3d
000000f0: 238a debd 4c7b 0bbe ae74 023d ac47 8fbd
00000100: 5016 603c d596 44bd b94b e5bc c463 d93c
00000110: 02fb 11be 9516 1b3d 2025 67bd d9ae b43d
00000120: bfd9 873c 7586 de3c 8a16 ca3d 0613 1dbd
00000130: 4fc2 d4bd 4e3f 08bd 8c5c 693d b78c 01bd
00000140: 1d1a 3f3d ecf8 88be 31c0 2e3b 7c12 38bd
00000150: 0243 71bd b958 fd3d 15d1 2f3e 7ae9 e7bd
00000160: 4a60 c3bc 1ba5 9bbc 5d43 d2bc 5c25 afbd
00000170: 560a bbbd 1819 973d 3722 7a3d 6eac 8dbb
00000180: 7d46 173d b017 81bd 2dbe 3abd f848 07bc
00000190: 235b 933d ef0c dabc d06d e83c 4b31 7dbd
000001a0: c995 9b3c 42a7 413d 9e6e 3a3e f048 00be
000001b0: 3c3a 45bd bf6c 483d f727 42bd b227 73bb
000001c0: ca13 7ebd 0b94 a43d 8ded adbd c2a8 b93d
000001d0: 493c 2fbd ac58 193c 86ce 40be 9d25 52b7
000001e0: 2572 ffbd 1231 7e3c 8553 eb3d 1a90 be3c
000001f0: cf22 c6bd 901b 173e 4c19 183d 9e56 4b3e
00000200: cf50 34be 290e 9c3c e4ed 9a3d ae81 2bbe
00000210: 369c 9c3d 2ef5 b3bb a7e1 b8bd eabe 38bd
00000220: e2f9 4b3c da63 153e 2489 edbd 7a4b 03be
00000230: 4d4b a53d d0ef 853e 3e26 fb3d 1e5f 533d
00000240: e311 253e 6982 c53c 7e9d 7b3d bc1f 873d
00000250: 56d1 c83b d776 a4bd 4e06 4b3d 799c 633d
00000260: da2f 9f3d 20b6 62bd ba37 ff3c 6df8 7cbd
00000270: 47f2 e23d 6b13 66bd 08b0 97bd 71f8 07be
00000280: a62d b43d af4c 3d3c f68e ad3d 7b3b 273d
00000290: c7b7 f439 82c8 643d 4916 0cbc 87d7 fd3d
000002a0: 5901 84bd a1bc 7c3d 0259 a7be f5fd f13d
000002b0: b48f 303d b861 933d 0b7f a83b baec c23d
000002c0: 0a9b dbbd baa8 1dbe 9573 f8bd 7b31 6e3d
000002d0: 72da 96bd 581f b9be 75ed f63c 599f 74bd
000002e0: 444f 8fbd 4be8 bd3d 4e32 44bd 8a9a e3ba
000002f0: cf61 bb3d 3ce0 343d 037e 983e 6765 32bd
00000300: 321b 41bc f8ae d2bd f2ee cfbc 1b2b edbd
00000310: 7753 6a3d d6fd 1fbe 0b7d 39bd 022b e4bd
00000320: a26a 813d 8338 9d3d 1e81 e0bc f32d c93d
00000330: 92f2 4abd 336b 1c3e fa6f c2bc bb29 473d
00000340: 65be 28be 5996 90bd 47fb efbd 991a 6b3d
00000350: de44 83bd aafb a33c bad6 993d 944c f13d
00000360: b69d a0bc 0270 b6bc b203 1abe 6644 bbbd
00000370: 1ab3 9e3d 365b 91bb 840e a2bd 356b 39bd
00000380: d9a7 a93b 977d 053d 1d4f 4abd 31b4 fa3c
00000390: 228e 04be 7ea1 e93d 4b40 c63d 7550 5cbd
000003a0: 2b55 e0bd c405 0dbd 9fad d4bd 14bd bc3c
000003b0: 48c8 8abb 2fba 25bd 2e0b 893a b8a2 1e3d
000003c0: 2274 183c 3ce4 403d a789 03bd 9462 4bbd
000003d0: 174b 003c 13e0 c9bd e8c9 0cbe 5829 e4bd
000003e0: c640 b63d 7d26 acbd 57d0 113e d5b8 1d3e
000003f0: f910 773d 87f7 47bd fa8f 0abd 38b5 303e

gnn.0.ginlayers.0.apply_func.mlp.linears.0.bias f4 [32]
3.203092e-05 -0.00013637525 -1.31069355e-05 5.314599e-05 3.939362e-05 8.816187e-06 9.425916e-06 0.0002512251
1.32335435e-05 0.00015546168 4.367392e-05 0.00030487037 -0.00012487816 -0.00016335031 -0.00010472076 4.846383e-05
-4.2101332e-05 -2.3393928e-05 -1.7063121e-05 -0.000100819096 1.5185153e-05 5.328762e-06 0.0001478615 0.00013975511
6.2530504e-05 6.1774175e-05 -5.567279e-05 -3.1274973e-05 -6.694791e-05 3.2047166e-05 -1.0638229e-05 -7.398162e-05
00000000: f058 0638 f4ff 0eb9 dce5 5bb7 12e9 5e38
00000010: 943a 2538 3ce9 1337 0024 1e37 ddb6 8339
00000020: a305 5e37 6d03 2339 842e 3738 02d7 9f39
00000030: baf1 02b9 0449 2bb9 889d dbb8 a445 4b38
00000040: f695 30b8 143e c4b7 c622 8fb7 d76e d3b8
00000050: bcc3 7e37 b8cd b236 450b 1b39 3a8b 1239
00000060: cf22 8338 c28c 8138 3482 69b8 3f2d 03b8
00000070: 6366 8cb8 626a 0638 d87a 32b7 9426 9bb8

gnn.0.ginlayers.0.apply_func.mlp.linears.1.weight f4 [32, 32]
0.12441119 -0.15987188 0.16477726 0.10445398 -0.253421 -0.018404324 -0.1271712 0.0064731203
-0.101296216 -0.23480277 0.16261743 -0.2352833 -0.4319494 -0.13751604 0.11956961 0.0046355086
0.160194 -0.24228014 0.21357346 -0.21000783 0.108876474 0.07723229 0.15844429 0.19253343
-0.36931413 -0.022799825 -0.38879323 0.1083411 -0.022344956 -0.030562663 -0.04859382 -0.3309223
-0.24556844 -0.19378199 -0.048911944 0.009433811 -0.39737865 -0.056481138 0.01065204 -0.2577806
0.1253044 0.054025546 -0.19302931 0.27560022 0.2692128 -0.13735045 0.101576455 -0.016558226
-0.021711597 -0.12567122 0.2526406 0.22647476 0.047785673 0.021565625 -0.22498854 -0.47834674
-0.0859076 0.15982166 0.039162252 -0.19180238 0.047976147 -0.2867813 -0.09952347 -0.13929947
0.2188037 -0.1406445 -0.2033192 -0.12939833 -0.16701964 -0.0049275127 0.08988279 -0.104453035
0.0036455588 -0.22637476 -0.01076957 -0.19614215 -0.13878857 -0.05497923 0.17680588 0.043340098
0.07049425 0.10198655 -0.22704262 0.07780181 0.21406609 0.16333869 0.16573156 -0.09819847
0.012731616 0.26584274 -0.099131286 0.14973183 -0.045439918 0.030758161 0.3517163 -0.048612453
0.108118296 0.14239502 0.16053775 -0.065165825 0.14669791 -0.18009815 -0.30117923 0.047456164
0.07954973 0.108484 -0.09910209 0.25706115 0.3189954 0.098216385 0.2845741 0.103288814
0.13548739 -0.031186113 0.1920695 -0.016808037 0.20380205 0.123885274 -0.2721669 -0.006253653
0.08039896 -0.31188428 -0.086247705 -0.22933605 0.2500881 -0.1728281 0.08281809 -0.07304637
-0.07542934 -0.265643 0.07529154 0.0069326526 -0.10892308 0.18910672 0.07098707 -0.07582638
0.039985493 -0.23618683 -0.20006874 -0.23978108 -0.48504516 -0.25587142 0.19578178 0.33002228
0.39311853 0.17566592 -0.040633358 0.059886485 -0.06873962 0.13160452 -0.19870763 -0.12212621
0.037299406 0.13878739 -0.08239192 0.2508373 0.016580764 -0.012443558 0.18719137 -0.28084078
0.013869228 -0.24136251 -0.3084171 0.14605317 0.15025796 -0.114599556 -0.14141692 -0.05218751
0.11131765 -0.04099302 -0.2204606 0.11325824 -0.23912677 -0.14149447 -0.14345455 0.16519494
0.2667406 -0.006843161 0.12859719 0.2383381 0.023830986 0.17410778 0.044496085 -0.034030057
0.007577638 -0.068631835 -0.15212205 -0.18909103 0.19663525 -0.07959096 -0.2495681 0.050019074
-0.22166677 0.0375702 -0.1882284 0.25044698 -0.07411084 -0.23603328 -0.07660956 0.16455469
0.09839233 -0.054762606 0.22504571 -0.12449989 -0.13393486 0.0976336 -0.030467877 -0.22119258
-0.093519054 0.04424878 0.00033323077 0.07858567 -0.11847957 -0.033367958 -0.26480788 -0.32760683
-0.13028741 -0.046595093 -0.16858545 0.23741338 -0.27397302 -0.33781907 -0.25794795 0.11975456
0.061701834 -0.26596147 0.22584386 -0.31010428 -0.0835683 -0.0009586585 -0.04804262 -0.34103957
0.09275921 0.24586415 -0.007851705 0.07010504 -0.02178329 -0.33969298 0.011535882 -0.060200196
-0.15129687 0.330115 -0.1619612 -0.14792068 -0.21078548 0.22290865 0.12918907 -0.18184792
0.15469533 0.098381884 -0.21184248 0.14354981 -0.14955617 0.08713315 -0.028095419 -0.23525818
00000000: 4bcb fe3d 74b5 23be 5fbb 283e f8eb d53d
00000010: 66c0 81be aac4 96bc 2b39 02be 781c d43b
00000020: 6474 cfbd 2370 70be 2f85 263e 1bee 70be
00000030: 7928 ddbe 01d1 0cbe e9e0 f43d 77e5 973b
00000040: e509 243e 4918 78be 00b3 5a3e 4b0c 57be
00000050: a1fa de3d f62b 9e3d 383f 223e 7c27 453e
00000060: be16 bdbe b3c6 babc e80f c7be f0e1 dd3d
00000070: c50c b7bc 8d5e fabc 500a 47bd a66e a9be
00000080: 4b76 7bbe c96e 46be e457 48bd 4590 1a3c
00000090: 3775 cbbe c458 67bd e585 2e3c d2fb 83be
000000a0: cc4f 003e e449 5d3d 7aa9 45be 791b 8d3e
000000b0: 43d6 893e 99a5 0cbe 5107 d03d 1ea5 87bc
000000c0: 85dc b1bc f5af 00be 1c5a 813e 00e9 673e
000000d0: e9ba 433d 65aa b03c 6563 66be dde9 f4be
000000e0: 53f0 afbd 4aa8 233e 9968 203d d867 44be
000000f0: a382 443d 00d5 92be f6d2 cbbd 85a4 0ebe
00000100: 140e 603e 1d05 10be e932 50be ff80 04be
00000110: 3207 2bbe f976 a1bb 7814 b83d 79eb d5bd
00000120: 54ea 6e3b c9ce 67be da72 30bc 7dd9 48be
00000130: 971e 0ebe e731 61bd 9a0c 353e 6385 313d
00000140: 4a5f 903d 53de d03d dc7d 68be 8e56 9f3d
00000150: 2434 5b3e 4242 273e 89b5 293e 481c c9bd
00000160: 4598 503c 8a1c 883e 5805 cbbd 4d53 193e
00000170: 351f 3abd 8af8 fb3c 2914 b43e da1d 47bd
00000180: 206d dd3d 00d0 113e 0264 243e a975 85bd
00000190: fa37 163e a66b 38be 2a34 9abe 6561 423d
000001a0: f8ea a23d dc2c de3d 09f6 cabd 859d 833e
000001b0: 5d53 a33e ac25 c93d b2b3 913e 1689 d33d
000001c0: 35bd 0a3e 057a ffbc dead 443e 02b1 89bc
000001d0: 7cb1 503e 90b7 fd3d 7659 8bbe 72eb ccbb
000001e0: 36a8 a43d 4caf 9fbe a3a2 b0bd 12d7 6abe
000001f0: 8c0b 803e d9f9 30be 889c a93d 5699 95bd
00000200: b37a 9abd 5c02 88be 7332 9a3d 4e2b e33b
00000210: 1013 dfbd 31a5 413e ab61 913d dc4a 9bbd
00000220: d4c7 233d f6da 71be d2de 4cbe 2c89 75be
00000230: d757 f8be 9401 83be 057b 483e aef8 a83e
00000240: d546 c93e c4e1 333e 2a6f 26bd 884b 753d
00000250: 5cc7 8cbd 56c3 063e 037a 4bbe 4e1d fabd
00000260: 43c7 183d 481e 0e3e 18bd a8bd bf6d 803e
00000270: 62d4 873c 11e0 4bbc 18af 3f3e 5dca 8fbe
00000280: c23b 633c bc27 77be d9e8 9dbe f68e 153e
00000290: 39dd 193e 2cb3 eabd 99cf 10be 92c2 55bd
000002a0: 82fa e33d 4ce8 27bd 6cc0 61be f0f3 e73d
000002b0: a6dd 74be ede3 10be c0e5 12be dd28 293e
000002c0: 3992 883e 983c e0bb fbae 033e e70e 743e
000002d0: 3339 c33c 4f49 323e 8741 363d 1a63 0bbd
000002e0: d64d f83b d98e 8cbd e2c5 1bbe 14a1 41be
000002f0: c05a 493e 9600 a3bd c88e 7fbe cde0 4c3d
00000300: 9dfc 62be 36e3 193d f2be 40be 963a 803e
00000310: 6dc7 97bd b5b2 71be 79e5 9cbd 0681 283e
00000320: eb81 c93d c14e 60bd 6272 663e ccf9 febd
00000330: 3826 09be 20f4 c73d c597 f9bc 4f80 62be
00000340: eb86 bfbd 353e 353d 7ab5 ae39 86f1 a03d
00000350: 6ba5 f2bd d7ac 08bd e694 87be 15bc a7be
00000360: 106a 05be 7fda 3ebd aaa1 2cbe 7e1c 733e
00000370: 3146 8cbe 9ff6 acbe c111 84be e141 f53d
00000380: 10bb 7c3d 1a2c 88be 9d43 673e fdc5 9ebe
00000390: db25 abbd 7c4e 7bba 57c8 44bd bd9c aebe
000003a0: 8af8 bd3d d0c3 7b3e 70a4 00bc 3b93 8f3d
000003b0: df72 b2bc 3dec adbe ff00 3d3c 7b94 76bd
000003c0: 91ed 1abe d504 a93e 28d9 25be 8578 17be
000003d0: 26d8 57be 2a42 643e 244a 043e 5736 3abe
000003e0: 7468 1e3e 717c c93d 3ced 58be b9fe 123e
000003f0: 4125 19be dd72 b23d 5d28 e6bc 85e7 70be

gnn.0.ginlayers.0.apply_func.mlp.linears.1.bias f4 [32]
-6.3179075e-05 9.6886586e-05 0.00011697006 -7.04328e-05 -9.180461e-05 -1.8403152e-06 -0.00023383573 0.00010937669
1.3325076e-05 -1.39638405e-05 -2.093151e-05 -7.2798306e-05 0.00016907023 -1.551201e-05 -1.0636374e-05 -4.7568858e-05
-3.5735196e-05 -3.3333134e-05 4.464906e-06 -9.9985504e-05 -6.068076e-06 8.9871995e-05 3.6816877e-05 -1.4367918e-05
0.00020194313 3.8055612e-05 -1.0834938e-06 -0.0001851483 -4.7837788e-05 1.562675e-05 -9.509183e-05 -6.389801e-05
00000000: 027f 84b8 972f cb38 d34d f538 52b5 93b8
00000010: 3a87 c0b8 c000 f7b5 cd31 75b9 2a61 e538
00000020: c48e 5f37 3d46 6ab7 1396 afb7 4bab 98b8
00000030: 7248 3139 ca1f 82b7 e172 32b7 ac84 47b8
00000040: 60e2 15b8 2ecf 0bb8 40d1 9536 4faf d1b8
00000050: 609c cbb6 a979 bc38 d26b 1a38 bd0d 71b7
00000060: b2c0 5339 e79d 1f38 906c 91b5 5e24 42b9
00000070: 6fa5 48b8 3116 8337 0a6c c7b8 fc00 86b8

gnn.0.ginlayers.0.apply_func.mlp.batch_norms.0.weight f4 [32]
0.95922273 1.0858996 0.95314664 0.86231506 0.9616518 0.9928592 0.9684364 1.0764608
0.82606244 1.07406 0.964519 1.1573361 1.1448945 1.0651562 1.1382552 1.0784881
1.0148284 0.8373422 1.0305871 1.0108364 1.0322168 1.0071573 0.9809001 0.97391766
0.9958785 0.98776513 1.0955621 1.0454943 0.96719325 0.9140587 1.0995921 0.9646533
00000000: 9f8f 753f c2fe 8a3f 6b01 743f aec0 5c3f
00000010: d02e 763f 052c 7e3f 73eb 773f 78c9 893f
00000020: d478 533f cc7a 893f b8ea 763f 9723 943f
00000030: e78b 923f 0a57 883f 59b2 913f e60b 8a3f
00000040: e6e5 813f 0f5c 563f 47ea 833f 1663 813f
00000050: ae1f 843f 88ea 803f 451c 7b3f ab52 793f
00000060: e5f1 7e3f 2dde 7c3f 613b 8c3f c2d2 853f
00000070: fa99 773f c0ff 693f 6fbf 8c3f 85f3 763f

gnn.0.ginlayers.0.apply_func.mlp.batch_norms.0.bias f4 [32]
-0.066201195 -0.017850975 0.00013312697 -0.008421391 -0.17984247 -0.027039321 -0.104043804 0.05231382
-0.13281716 0.045850977 -0.093348965 -0.21115822 -0.1362339 -0.15067483 0.19155799 -0.12955537
-0.12131837 0.049883053 0.029804945 -0.11697891 0.13752 0.08164168 -0.091002084 -0.046847302
0.17495605 0.012605661 -0.07849476 -0.15018651 0.13588762 0.2822784 -0.12339064 0.11106357
00000000: 7e94 87bd 353c 92bc 0098 0b39 e0f9 09bc
00000010: a028 38be 9181 ddbc eb14 d5bd 0447 563d
00000020: 3901 08be 3cce 3b3d be2d bfbd dc39 58be
00000030: e680 0bbe 814a 1abe c727 443e 2aaa 04be
00000040: c475 f8bd 2c52 4c3d 8029 f43c a492 efbd
00000050: 0bd2 0c3e c133 a73d 4d5f babd f5e2 3fbd
00000060: ae27 333e f987 4e3c dcc1 a0bd 7eca 19be
00000070: 2026 0b3e cb86 903e 3bb4 fcbd 4c75 e33d

gnn.0.ginlayers.0.apply_func.mlp.batch_norms.0.running_mean f4 [32]
-0.77817595 -0.80663276 0.22464776 -0.109869175 0.32715264 -0.0042657177 -1.4782406 -0.96271133
0.16529419 -0.39732128 -0.3239146 -0.5491221 -1.271807 -1.6841456 -2.2046638 -0.11447035
0.29092848 -0.18970901 -1.2246554 -1.217158 -1.5126247 -0.6038663 -0.2697271 -1.2351042
1.3503326 -0.8844486 -1.08639 -0.31235537 0.2914935 1.1550958 -1.3445976 1.2312679
00000000: 8a36 47bf 7c7f 4ebf 100a 663e 1703 e1bd
00000010: 8d80 a73e 6fc7 8bbb fd36 bdbf 4074 76bf
00000020: e142 293e b26d cbbe 22d8 a5be 4493 0cbf
00000030: 92ca a2bf 1592 d7bf 3619 0dc0 6e6f eabd
00000040: 94f4 943e 1443 42be 82c1 9cbf d5cb 9bbf
00000050: b09d c1bf fb96 1abf ac19 8abe e517 9ebf
00000060: b3d7 ac3f 396b 62bf d40e 8bbf 0bed 9fbe
00000070: a33e 953e 2eda 933f c61b acbf 309a 9d3f

gnn.0.ginlayers.0.apply_func.mlp.batch_norms.0.running_var f4 [32]
1.1181588 2.5929317 1.2602471 1.2696866 1.1707081 1.0819052 2.2777557 2.0176125
1.0976514 1.8877159 1.7840657 2.4205892 3.5776577 2.5113163 3.870859 1.3291056
1.5653502 1.2985446 2.6942177 2.6320665 2.0448103 2.4447207 1.8048586 1.6773492
1.8299241 1.3275032 2.972469 1.7127196 1.2946011 2.2498116 2.2824926 1.9300525
00000000: d41f 8f3f 98f2 2540 c74f a13f 1785 a23f
00000010: c3d9 953f df7b 8a3f c0c6 1140 9020 0140
00000020: d77f 8c3f ada0 f13f 445c e43f efea 1a40
00000030: 58f8 6440 68b9 2040 27bc 7740 2220 aa3f
00000040: 655d c83f b636 a63f 106e 2c40 c773 2840
00000050: 2cde 0240 4e76 1c40 9b05 e73f 61b3 d63f
00000060: f43a ea3f a0eb a93f ef3c 3e40 653a db3f
00000070: 7db5 a53f eafc 0f40 5c14 1240 f60b f73f

gnn.0.ginlayers.0.apply_func.bn.weight f4 [32]
0.9714508 0.83496445 0.35119748 0.8963747 0.21756223 0.33065408 0.51491 0.17272402
0.11260445 0.46721593 0.14771867 0.61709005 0.47230297 0.5074337 0.6600398 0.5732468
0.5906999 0.40491694 0.6220663 0.1863776 0.7561832 0.69861776 0.19161513 0.7424659
0.73788524 0.3688043 0.5446895 0.57814944 0.7038631 0.6781704 0.9603437 0.7506768
00000000: 00b1 783f 3bc0 553f 28d0 b33e d078 653f
00000010: a2c8 5e3e 7e4b a93e 24d1 033f 91de 303e
00000020: 299d e63d ed36 ef3e 9043 173e 9df9 1d3f
00000030: b2d1 f13e 2de7 013f 5ef8 283f 4dc0 123f
00000040: 1c38 173f 4651 cf3e bd3f 1f3f c5d9 3e3e
00000050: 3995 413f 9dd8 323f c236 443e 3f12 3e3f
00000060: 0ce6 3c3f ebd3 bc3e c570 0b3f 9a01 143f
00000070: 5f30 343f 939c 2d3f 16d9 753f 5b2c 403f

gnn.0.ginlayers.0.apply_func.bn.bias f4 [32]
-0.02967121 0.07819859 0.39498988 0.048962206 0.32032764 0.15194276 0.31140503 0.3272823
0.36116767 0.29712805 0.41863132 0.08154499 0.30215788 0.3062951 0.062347032 0.22145529
0.21794485 0.26441717 0.075631805 0.3181222 0.1353054 0.18155408 0.32572407 0.2097657
0.07437715 0.2539376 0.2171057 0.2604585 0.16314422 0.0035644441 0.028020347 -0.10920938
00000000: 0a11 f3bc 9526 a03d 1d3c ca3e 988c 483d
00000010: fc01 a43e e296 1b3e 7b70 9f3e 8c91 a73e
00000020: f8ea b83e 2b21 983e d856 d63e 0f01 a73d
00000030: 70b4 9a3e b6d2 9c3e 9a5f 7f3d 2dc5 623e
00000040: ef2c 5f3e b061 873e d9e4 9a3d eae0 a23e
00000050: 808d 0a3e 50e9 393e 4ec5 a63e d2cc 563e
00000060: 0c53 983d 1c04 823e f550 5e3e d15a 853e
00000070: 470f 273e 7399 693b ed8a e53c 2ba9 dfbd

gnn.0.ginlayers.0.apply_func.bn.running_mean f4 [32]
-0.61940014 -0.53865665 0.10150401 0.5028162 -0.16657388 -0.26378638 -0.8257586 -0.41176045
-0.22210272 -0.017252892 -0.20101078 -0.5735237 -0.8744668 -0.14590785 -0.254594 -0.2323344
-0.07179741 -0.32981825 -0.15783703 -0.1687314 -0.53137803 -0.48534352 -0.9821761 0.03999681
0.07740095 -0.22828905 -0.20041712 -0.7141571 -0.6114256 0.13347772 0.22500336 -0.64881325
00000000: 0291 1ebf 67e5 09bf 56e1 cf3d 90b8 003f
00000010: 5892 2abe 020f 87be ea64 53bf 44d2 d2be
00000020: e56e 63be f055 8dbc c5d5 4dbe 73d2 12bf
00000030: 0edd 5fbf de68 15be 255a 82be 12e9 6dbe
00000040: 850a 93bd f0dd a8be 08a0 21be edc7 2cbe
00000050: 6408 08bf f27e f8be e56f 7bbf b2d3 233d
00000060: 6484 9e3d 9bc4 69be 253a 4dbe 00d3 36bf
00000070: 6386 1cbf 62ae 083e 4867 663e a018 26bf

gnn.0.ginlayers.0.apply_func.bn.running_var f4 [32]
0.6717752 0.6291277 0.36060202 0.43193677 0.5551099 0.30520874 0.42193353 0.45765576
0.35010576 0.53760004 0.40415233 0.30176416 0.4848642 0.51404804 0.51174414 0.45604596
0.259438 0.31846082 0.53102565 0.45292094 0.3497553 0.5671538 0.59533095 0.66146356
0.38335094 0.34604725 0.37481108 0.5376154 0.3709279 0.28353864 1.2376895 0.44823602
00000000: 76f9 2b3f 830e 213f d4a0 b83e d126 dd3e
00000010: af1b 0e3f 5244 9c3e ac07 d83e db51 ea3e
00000020: 1041 b33e 28a0 093f 0eed ce3e d580 9a3e
00000030: 1f40 f83e a798 033f aa01 033f db7e e93e
00000040: 0fd5 843e 4c0d a33e 4cf1 073f 41e5 e73e
00000050: 2013 b33e fe30 113f 9c67 183f ad55 293f
00000060: 9346 c43e 1b2d b13e 3de7 bf3e 2aa1 093f
00000070: 43ea bd3e fa2b 913e 9c6c 9e3f 317f e53e

gnn.0.batch_norms.0.weight f4 [32]
0.92452264 0.79593146 0.644445 0.84007376 0.6512993 0.587121 0.8426383 0.7958548
0.6424655 0.6132278 0.8497263 0.72020763 0.80783606 0.73219466 0.682831 0.6348642
0.78782815 0.76680577 0.68080246 0.74489135 0.71636266 0.7960757 0.710357 0.83409274
0.7793833 0.6765876 0.6508154 0.78790784 0.6757339 0.5702362 0.8514406 0.83065486
00000000: 84ad 6c3f 2ac2 4b3f 59fa 243f 130f 573f
00000010: 8dbb 263f 904d 163f 25b7 573f 24bd 4b3f
00000020: 9e78 243f 7ffc 1c3f aa87 593f 875f 383f
00000030: 58ce 4e3f 1c71 3b3f 03ce 2e3f 7686 223f
00000040: 1baf 493f 624d 443f 1249 2e3f 33b1 3e3f
00000050: 8b63 373f 9ecb 4b3f f5d9 353f 1a87 553f
00000060: aa85 473f d834 2d3f d79b 263f 54b4 493f
00000070: e6fc 2c3f 00fb 113f 03f8 593f cca5 543f

gnn.0.batch_norms.0.bias f4 [32]
-0.068407744 -0.13981187 -0.015287887 -0.14176665 -0.13533966 -0.13574748 0.05919286 0.039971296
-0.12668021 -0.034164272 0.055346653 -0.12670243 0.054716326 -0.012389683 -0.18947546 -0.07872223
-0.12641728 -0.12009412 -0.18481216 0.0105753215 -0.11871392 -0.09585267 0.0592189 0.0037911201
-0.102834135 -0.07752499 -0.12214598 -0.065504804 -0.15663336 -0.32819054 -0.0971552 -0.2764099
00000000: 5c19 8cbd d82a 0fbe 0c7a 7abc 472b 11be
00000010: 7b96 0abe 6301 0bbe 3674 723d f1b8 233d
00000020: 75b8 01be d6ef 0bbd 2cb3 623d 48be 01be
00000030: 3a1e 603d 19fe 4abc db05 42be 1f39 a1bd
00000040: 8873 01be e8f3 f5bd 663f 3dbe 1d44 2d3c
00000050: 4920 f3bd 684e c4bd 848f 723d 7174 783b
00000060: b49a d2bd 6cc5 9ebd ac27 fabd 6227 86bd
00000070: 7f64 20be 9708 a8be 4ef9 c6bd 9985 8dbe

gnn.0.batch_norms.0.running_mean f4 [32]
0.3689949 0.3665082 0.41697156 0.36192036 0.32722843 0.21435194 0.39350092 0.3280091
0.3619989 0.37186098 0.42037368 0.29063308 0.37184796 0.37211385 0.27063507 0.3548259
0.3530615 0.32853076 0.2733411 0.3100699 0.35471553 0.38151154 0.32592776 0.4153052
0.32966354 0.29759085 0.33803955 0.39108133 0.36319306 0.26518425 0.39368016 0.23086552
00000000: e6ec bc3e f6a6 bb3e 4c7d d53e a04d b93e
00000010: 7c8a a73e 137f 5b3e f478 c93e cff0 a73e
00000020: eb57 b93e 9064 be3e 383b d73e dccd 943e
00000030: db62 be3e b585 be3e ae90 8a3e beab b53e
00000040: 7ac4 b43e 2f35 a83e 5df3 8b3e 7bc1 9e3e
00000050: 469d b53e 7b55 c33e 01e0 a63e e2a2 d43e
00000060: a9c9 a83e d45d 983e 8513 ad3e d03b c83e
00000070: 71f4 b93e 3bc6 873e 7290 c93e 0368 6c3e

gnn.0.batch_norms.0.running_var f4 [32]
0.26367998 0.22345923 0.09725352 0.34021604 0.040996388 0.07124578 0.15388748 0.029108638
0.011696334 0.14094599 0.020313771 0.16829644 0.12814203 0.18769658 0.25539237 0.15896869
0.1709803 0.0923155 0.18757567 0.039360695 0.26596996 0.17882773 0.036696523 0.21217439
0.20749947 0.09939358 0.16262832 0.1305396 0.15175018 0.20974378 0.20563237 0.1398279
00000000: 1001 873e 7fd2 643e da2c c73d cc30 ae3e
00000010: d4eb 273d 4fe9 913d ae94 1d3e 3d75 ee3c
00000020: fba1 3f3c 2554 103e 1169 a63c e755 2c3e
00000030: aa37 033e 8833 403e cac2 823e b0c8 223e
00000040: 7615 2f3e e90f bd3d d613 403e ae38 213d
00000050: 372d 883e 9e1e 373e 184f 163d 3e44 593e
00000060: be7a 543e dc8e cb3d 0a88 263e 2cac 053e
00000070: 6664 1b3e 13c7 563e 4b91 523e 0c2f 0f3e

gnn.0.linears_prediction.0.weight f4 [64, 334]
-0.025852736 -0.29357207 -0.15036291 0.20408767 -0.08881596 0.021192487 -0.042351417 -0.13485152
0.08113798 0.028772254 -0.043818705 0.17889342 -0.028330624 -0.20938143 -0.19427574 0.10256062
0.16301824 0.024625638 -0.32288232 0.06836699 -0.012353279 -0.118180186 -0.11353206 0.088079505
-0.08336486 -0.19818051 -0.04342523 0.16754472 -0.08048419 0.11094383 -0.51740235 0.020806018
-0.118473925 0.09796858 0.32020208 0.03278434 0.082925156 -0.10777087 0.18539092 0.11747588
-0.051457003 -0.27065232 -0.11175352 0.14855362 0.16757031 0.2882936 0.10396956 0.12544182
-0.10410292 0.041970827 -0.15355432 -0.19105786 0.21964122 0.20626074 0.16227739 0.33880442
0.3881528 -0.12709855 -0.07557852 0.037564065 0.026195593 -0.07633955 -0.13315684 -0.21151172
-0.2954104 -0.10285951 -0.011100716 -0.10592822 0.1412209 0.11011501 -0.15221202 0.0436619
-0.08969158 0.09708338 -0.18683288 0.12794444 -0.083623424 0.017838806 0.05058508 0.15022464
-0.1878432 -0.0679033 -0.12738962 0.23012559 -0.03730277 0.34714848 -0.19285625 0.034296725
-0.043704197 -0.23024583 0.19082905 -0.075079285 0.01598945 0.16946886 -0.06662661 0.18055317
0.08108516 0.1048386 0.14029664 -0.17602266 -0.06195823 -0.03817406 -0.03248775 0.044391133
0.0066233515 0.059695452 -0.103916354 0.3912448 0.2045982 0.02389148 -0.07104046 0.18578106
-0.30477843 -0.01205886 -0.0032294353 0.16674626 -0.14246574 0.078166865 0.08590583 0.22238514
0.07989886 0.22795202 -0.22226335 -0.20830493 0.272556 0.10144056 -0.059123285 -0.21663977
0.0017335949 -0.13100734 0.05544442 -0.020022148 -0.09987625 0.1373075 -0.018809466 0.03374027
-0.12162101 -0.32966813 -0.14265636 -0.07165994 -0.055911418 -0.040006552 0.007991996 -0.09716877
-0.3609367 -0.012477252 0.030104188 0.063052915 0.11388634 -0.02440904 0.00834335 -0.050696377
-0.047393132 0.1375294 -0.12285547 -0.016240142 0.34413734 0.05121485 -0.0032390994 0.16385214
-0.11911072 -0.106476806 -0.3260817 -0.24342617 -0.109137066 0.02793177 0.02680785 -0.07251621
0.24348243 0.0094190175 0.14592464 -0.09692683 -0.17629531 -0.041904613 0.1528359 0.20949107
0.2563164 0.19432005 0.16090058 -0.14289509 -0.075020924 0.12241528 -0.1545576 -0.12601142
-0.050310716 0.013525354 0.14275041 0.011212968 0.2238655 -0.12159955 0.044684324 0.10672258
-0.10558625 0.0058347983 -0.09148239 -0.101255104 -0.030286973 0.03746113 -0.046097044 -0.27595598
-0.15744272 0.12050667 -0.30445814 0.13282943 0.23218848 -0.03392379 -0.21824855 -0.04616499
-0.021200089 -0.005145121 -0.25916612 -0.17587982 0.04451854 0.27980784 -0.025192091 -0.2052503
-0.02075109 0.29431176 -0.0066910167 0.31073478 0.06399578 0.029574897 -0.22056693 -0.11873537
-0.2965239 -0.023001347 -0.0960882 0.13309452 0.26645607 0.18328008 -0.0976384 0.13552922
-0.12868437 -0.07730166 -0.09449474 -0.040920474 0.16388385 0.0274832 -0.25871125 -0.07150031
0.12349047 -0.20636088 -0.11915702 0.24124053 -0.089920335 -0.054427005 0.13269423 0.013656849
0.06254302 -0.02780934 -0.08372126 -0.2332834 -0.30039778 0.06366038 -0.118253775 0.044932574
00000000: 1ec9 d3bc 144f 96be bcf8 19be 5cfc 503e
00000010: 24e5 b5bd de9b ad3c ae78 2dbd 8416 0abe
00000020: ab2b a63d cab3 eb3c 3e7b 33bd d62f 373e
00000030: a015 e8bc 1668 56be 38f0 46be 4d0b d23d
00000040: 41ee 263e b5bb c93c d550 a5be fe03 8c3d
00000050: 6865 4abc 7408 f2bd 7f83 e8bd 0763 b43d
00000060: 32bb aabd d5ef 4abe a7de 31bd d890 2b3e
00000070: e5d4 a4bd 8536 e33d 7b74 04bf 6271 aa3c
00000080: 75a2 f2bd c0a3 c83d 87f1 a33e df48 063d
00000090: aad4 a93d f9b6 dcbd 1ed7 3d3e 3297 f03d
000000a0: 94c4 52bd f192 8abe 08df e4bd 711e 183e
000000b0: 8d97 2b3e 389b 933e feed d43d d273 003e
000000c0: e933 d5bd 9ae9 2b3d 583d 1dbe aca4 43be
000000d0: a1e9 603e 0436 533e 0b2c 263e c677 ad3e
000000e0: f7bb c63e 1f26 02be e9c8 9abd c7dc 193d
000000f0: 2498 d63c e957 9cbd 445a 08be 8796 58be
00000100: 0840 97be 02a8 d2bd c7df 35bc e5f0 d8bd
00000110: 369c 103e fa83 e13d 78dd 1bbe d2d6 323d
00000120: 38b0 b7bd a7d3 c63d 1e51 3fbe de03 033e
00000130: c242 abbd b022 923c 4d32 4f3d 7dd4 193e
00000140: f859 40be e310 8bbd 6d72 02be 0ba6 6b3e
00000150: caca 18bd 72bd b13e 1c7c 45be b97a 0c3d
00000160: 2c03 33bd 90c5 6bbe b168 433e 2bc3 99bd
00000170: 4ffc 823c 3f89 2d3e 8873 88bd eee2 383e
00000180: fa0f a63d 9fb5 d63d eca9 0f3e 493f 34be
00000190: eac7 7dbd 675c 1cbd e011 05bd 7ad3 353d
000001a0: b308 d93b 3883 743d 19d2 d4bd 3d51 c83e
000001b0: 3182 513e 11b8 c33c a97d 91bd 643d 3e3e
000001c0: eb0b 9cbe 8692 45bc efa4 53bb 88bf 2a3e
000001d0: 8ae2 11be f315 a03d 65ef af3d eeb8 633e
000001e0: 03a2 a33d 416c 693e 0199 63be e34d 55be
000001f0: 768c 8b3e 11c0 cf3d 422b 72bd d1d6 5dbe
00000200: cb39 e33a ca26 06be b019 633d 7d05 a4bc
00000210: eb8b ccbd 569a 0c3e 4f16 9abc 3d33 0a3d
00000220: 7014 f9bd 43ca a8be 8214 12be 72c2 92bd
00000230: 5f03 65bd e9dd 23bd dcf0 023c 6c00 c7bd
00000240: b2cc b8be 636d 4cbc 0f9d f63c e321 813d
00000250: 3e3d e93d 78f5 c7bc 8cb2 083c 01a7 4fbd
00000260: 4d1f 42bd 82d4 0c3e a69b fbbd 0c0a 85bc
00000270: c532 b03e aac6 513d 1247 54bb dbc8 273e
00000280: 52f0 f3bd 8310 dabd 2ef4 a6be b644 79be
00000290: 4183 dfbd 2bd1 e43c 239c db3c 6183 94bd
000002a0: 7553 793e 3952 1a3c 456d 153e 9381 c6bd
000002b0: c286 34be 2ca4 2bbd 0481 1c3e d484 563e
000002c0: e73b 833e d6fb 463e 1fc3 243e 1753 12be
000002d0: 92a4 99bd ddb4 fa3d 5944 1ebe 2309 01be
000002e0: 9c12 4ebd 7299 5d3c 2a2d 123e 99b6 373c
000002f0: ff3c 653e 2f09 f9bd e906 373d 5e91 da3d
00000300: 9b3d d8bd d631 bf3b 1f5b bbbd d65e cfbd
00000310: 631c f8bc d870 193d 41d0 3cbd 1a4a 8dbe
00000320: aa38 21be 33cc f63d f0e1 9bbe 7004 083e
00000330: d1c2 6d3e acf3 0abd 8c7c 5fbe 8017 3dbd
00000340: cfab adbc 6798 a8bb 6cb1 84be d719 34be
00000350: 1359 363d f942 8f3e a55f cebc 222d 52be
00000360: 31fe a9bc 08b0 963e 5140 dbbb a118 9f3e
00000370: 3810 833d 0e47 f23c 4cdc 61be 882b f3bd
00000380: fbd1 97be 526d bcbc e4c9 c4bd ee49 083e
00000390: ee6c 883e c6ad 3b3e a4f6 c7bd 2cc8 0a3e
000003a0: d6c5 03be 5550 9ebd 7586 c1bd 3a9c 27bd
000003b0: 2bd1 273e 7324 e13c cd75 84be c16e 92bd
000003c0: 92e8 fc3d 4450 53be 9808 f4bd c207 773e
000003d0: 2728 b8bd daee 5ebd ffe0 073e fac0 5f3c
000003e0: 8e16 803d 6ad0 e3bc 0d76 abbd d8e1 6ebe
000003f0: bdcd 99be 6060 823d 092f f2bd 380b 383d

gnn.0.linears_prediction.0.bias f4 [64]
0.016564876 -0.40575698 -0.27191147 0.18546478 -0.61902386 0.21889882 -0.13492385 -0.36844394
-0.12828863 0.13891703 -0.43575174 0.22346368 -0.35127392 0.121848226 0.73389816 -0.1763497
-0.06253678 -0.7239017 0.20262617 0.33084467 -0.32282206 0.23654898 0.6297509 0.07602632
0.20105004 0.07109683 -0.4078717 0.019221384 0.1583028 0.028970711 -0.072911225 -0.18449923
-0.2212869 -0.11658489 0.21384402 0.0827637 0.6028844 0.3125085 0.35611215 -0.021582887
0.02730826 -0.25735193 0.15717703 -0.2737785 -0.33269626 0.24448892 0.2561274 0.014521761
0.2383187 0.034940217 -0.70416874 0.44923368 -0.14414704 0.7339196 -0.46038398 -0.34317088
0.056112316 0.39545947 -0.09484255 -0.55688524 -0.11003156 0.27203438 0.14516875 -0.23495868
00000000: 10b3 873c 61bf cfbe fb37 8bbe 7bea 3d3e
00000010: 5978 1ebf 0327 603e 7a29 0abe afa4 bcbe
00000020: 185e 03be 4440 0e3e da1a dfbe aad3 643e
00000030: 2dda b3be 908b f93d c0e0 3b3f 0495 34be
00000040: 4913 80bd 9f51 39bf 3c7d 4f3e 7964 a93e
00000050: ef48 a5be e539 723e 5b37 213f b0b3 9b3d
00000060: 10e0 4d3e 379b 913d 8fd4 d0be 2a76 9d3c
00000070: 211a 223e fc53 ed3c 7b52 95bd 5eed 3cbe
00000080: 0899 62be 0fc4 eebd edf9 5a3e 0480 a93d
00000090: a256 1a3f 1d01 a03e 5554 b63e 98ce b0bc
000000a0: 92b5 df3c a2c3 83be 04f3 203e b22c 8cbe
000000b0: 2a57 aabe 4e5b 7a3e 2123 833e aeec 6d3c
000000c0: d109 743e 791d 0f3d 6744 34bf f501 e63e
000000d0: 489b 13be 28e2 3b3f 73b7 ebbe 18b4 afbe
000000e0: 07d6 653d aa79 ca3e d03c c2bd 0890 0ebf
000000f0: 3a58 e1bd 1748 8b3e 1ea7 143e 0299 70be

gnn.0.linears_prediction.1.weight f4 [64, 32]
-0.2622342 0.120776124 -0.07684398 0.14179166 -0.014736507 0.006071291 0.15736395 0.21025357
-0.095941514 -0.07905964 -0.22379649 0.037629407 -0.007862756 -0.22617415 -0.026127763 -0.115162164
-0.17063212 -0.044913903 -0.067130215 0.21526815 -0.09853961 -0.21053505 0.053066537 0.18222116
-0.46938726 0.0486957 0.11917411 -0.15576026 -0.046218224 0.064392745 0.15115874 0.16288161
-0.12291597 0.035915375 0.20466857 -0.087424554 0.02814044 -0.256825 0.24707708 0.07076227
-0.027065853 0.081846036 -0.15158255 0.037066873 -0.09315104 -0.15838866 -0.038028046 -0.1449132
0.24737799 -0.11588547 -0.079424575 0.15774454 0.0765553 -0.07406869 0.15900373 0.17617449
-0.44175532 0.051792827 0.11614652 0.0627903 -0.048323628 -0.06977111 -0.24183251 0.07267387
0.090448044 0.12608291 0.02127527 -0.24203189 -0.013610352 -0.012458296 0.1240161 -0.23404291
-0.029554509 0.037472308 0.096786 -0.013273198 0.21820876 -0.21746488 -0.1828955 -0.10970234
0.2251422 0.12968948 -0.15961471 0.04823048 0.014847371 0.009840892 0.00892459 0.20918742
-0.23940983 -0.035494924 0.27467495 -0.027945437 -0.11620886 0.033587743 0.12962733 -0.0074777855
0.316103 -0.23857856 -0.104188606 0.16902028 -0.04116994 0.094552875 -0.20711553 -0.27087864
0.034946375 0.049043022 -0.05019268 0.18363002 -0.2655189 0.10374485 0.027990922 0.3860252
0.11759197 0.013746972 0.01787056 0.20634194 -0.040841054 0.08379708 0.15626903 -0.105292596
-0.046893157 0.107036486 -0.09865229 -0.010644999 -0.14634225 -0.187409 -0.11257468 -0.13214627
-0.19945996 0.21497287 0.028610174 -0.015660865 0.090490066 0.07606569 0.34789428 0.016237902
0.06958686 0.05522311 -0.20464842 -0.08542014 0.188795 0.045722723 -0.38637796 -0.11136483
-0.13631447 0.124535546 -0.36632457 -0.009601475 0.050997198 -0.20242752 -0.04215362 -0.13941297
-0.19920003 -0.017784879 -0.16170886 0.21896894 0.40014482 0.13644126 -0.08827438 0.06359226
-0.078235984 -0.033304546 -0.027510146 0.093434185 0.06955805 0.10590015 -0.012712114 -0.25141904
0.0037877755 0.114213295 0.12934242 -0.08516842 0.08747994 -0.17128369 0.11107921 -0.09850154
-0.043886065 0.19501737 -0.010053817 -0.06248592 -0.073732436 -0.07387871 -0.021643626 0.17322965
-0.13036051 -0.09736493 -0.07076955 0.0014608451 -0.012088937 0.0010022235 0.31282455 -0.30633685
0.33442464 -0.060685612 0.011317315 -0.2827924 0.24440159 -0.15747234 0.19219117 0.0366365
-0.12013916 0.034980703 -0.057799723 0.010197734 0.15727432 -0.16726749 0.02785479 0.036542807
0.16352732 -0.016662871 -0.065225534 -0.19534582 -0.072617635 0.22628021 0.073846355 -0.0011571024
0.030356593 -0.001508108 0.25184125 0.13653347 -0.10456352 0.0709939 -0.19804308 0.07815532
-0.055355247 -0.08960255 -0.18550678 0.03672496 -0.24636215 -0.12767893 0.08323856 -0.032662757
0.1062809 -0.14944497 -0.078385495 0.11898412 0.108876005 0.09977341 -0.26168412 -0.12608889
0.035127215 0.23346204 0.12745008 -0.14580563 -0.15585898 -0.015603285 0.16288532 0.24471682
0.043317042 0.09652124 0.10629373 0.14545648 -0.027238557 0.17414528 0.057310954 -0.092981815
00000000: 9043 86be 7959 f73d 6060 9dbd d531 113e
00000010: 6471 71bc aef1 c63b 0424 213e b64c 573e
00000020: fc7c c4bd 05ea a1bd e82a 65be 4b21 1a3d
00000030: cad2 00bc 329a 67be e409 d6bc 24da ebbd
00000040: 30ba 2ebe a4f7 37bd 917b 89bd 416f 5c3e
00000050: 23cf c9bd 8096 57be 4c5c 593d 2f98 3a3e
00000060: 8753 f0be 2475 473d 8e11 f43d 9e7f 1fbe
00000070: 524f 3dbd 58e0 833d 5bc9 1a3e 70ca 263e
00000080: 5ebb fbbd 001c 133d a394 513e a50b b3bd
00000090: c886 e63c 917e 83be c601 7d3e cfeb 903d
000000a0: 35b9 ddbc e59e a73d 7538 1bbe 6fd3 173d
000000b0: f9c5 bebd a330 22be 4cc3 1bbd 2064 14be
000000c0: a850 7d3e 5c55 edbd 5aa9 a2bd c987 213e
000000d0: 06c9 9c3d 53b1 97bd e0d1 223e 1667 343e
000000e0: c12d e2be b724 543d 3ade ed3d 3398 803d
000000f0: ffee 45bd 28e4 8ebd f1a2 77be 0ad6 943d
00000100: d33c b93d e11b 013e 7a49 ae3c 35d7 77be
00000110: f4fd 5ebc e11d 4cbc 27fc fd3d f2a8 6fbe
00000120: 4c1c f2bc 907c 193d bd37 c63d d477 59bc
00000130: 1e72 5f3e 1daf 5ebe f548 3bbe 9fab e0bd
00000140: ad8b 663e 52cd 043e 0a72 23be 538d 453d
00000150: 6342 733c b13b 213c 7238 123c 3a35 563e
00000160: da27 75be 2063 11bd 32a2 8c3e d4ed e4bc
00000170: e9fe edbd 4d93 093d 07bd 043e 3608 f5bb
00000180: 41d8 a13e f04d 74be d660 d5bd a713 2d3e
00000190: d0a1 28bd f0a4 c13d 1816 54be 9bb0 8abe
000001a0: ee23 0f3d 56e1 483d d796 4dbd 8209 3c3e
000001b0: 18f2 87be 2e78 d43d 384d e53c 18a5 c53e
000001c0: 0fd4 f03d fb3a 613c 4865 923c 4d4b 533e
000001d0: f348 27bd ce9d ab3d fd04 203e a5a3 d7bd
000001e0: 0a13 40bd f235 db3d 360a cabd 5d68 2ebc
000001f0: beda 15be 25e8 3fbe 8e8d e6bd 5a51 07be
00000200: 3b3f 4cbe d921 5c3e e25f ea3c 374b 80bc
00000210: db52 b93d 54c8 9b3d 331f b23e 5905 853c
00000220: 8e83 8e3d a131 623d 5b8f 51be c1f0 aebd
00000230: 7a53 413e c047 3b3d 55d3 c5be 3e13 e4bd
00000240: 0596 0bbe 7e0c ff3d e58e bbbe 814f 1dbc
00000250: 70e2 503d 2949 4fbe 46a9 2cbd 46c2 0ebe
00000260: 18fb 4bbe 98b1 91bc 0297 25be 6539 603e
00000270: c8df cc3e 42b7 0b3e 33c9 b4bd a93c 823d
00000280: 303a a0bd 596a 08bd f55c e1bc 6c5a bf3d
00000290: 7374 8e3d 2ee2 d83d 7846 50bc ffb9 80be
000002a0: 543c 783b a9e8 e93d 5772 043e c86c aebd
000002b0: af28 b33d fe64 2fbe 7f7d e33d 2dbb c9bd
000002c0: e0c1 33bd a2b2 473e c4b8 24bc 3cf1 7fbd
000002d0: 0801 97bd b94d 97bd f94d b1bc 1d63 313e
000002e0: 3a7d 05be 4467 c7bd a0ef 90bd d479 bf3a
000002f0: ad10 46bc 0a5d 833a 8a2a a03e 2fd8 9cbe
00000300: b539 ab3e 7a91 78bd 426c 393c 2aca 90be
00000310: 6944 7a3e 6e40 21be c3cd 443e 2810 163d
00000320: 850b f6bd ed47 0f3d 67bf 6cbd 6614 273c
00000330: 850c 213e 2b48 2bbe bb2f e43c e9ad 153d
00000340: b573 273e 9380 88bc f794 85bd bc08 48be
00000350: 8eb8 94bd 00b6 673e c23c 973d eaa9 97ba
00000360: 64ae f83c b5ab c5ba 56f1 803e 6ecf 0b3e
00000370: 6625 d6bd 4065 913d cecb 4abe e50f a03d
00000380: 2fbc 62bd 8b81 b7bd 7df5 3dbe e96c 163d
00000390: 5c46 7cbe 44be 02be fa78 aa3d 62c9 05bd
000003a0: cda9 d93d 1a08 19be 9388 a0bd f2ad f33d
000003b0: 62fa de3d 0056 cc3d 76fb 85be 721d 01be
000003c0: 8ee1 0f3d ac10 6f3e 4682 023e 124e 15be
000003d0: 7f99 1fbe eca4 7fbc 69cb 263e 0c97 7a3e
000003e0: 366d 313d eeac c53d 87b0 d93d 8bf2 143e
000003f0: 6523 dfbc 2453 323e e4be 6a3d 406d bebd

gnn.0.linears_prediction.1.bias f4 [64]
-0.02477474 -0.3608642 -0.3994758 0.33947572 -0.47400928 0.16188131 -0.05260669 -0.22352038
0.00074091833 0.010591549 -0.31659794 0.087729804 -0.37271097 0.049761154 0.64913154 -0.22522481
0.06503511 -0.55452937 0.08622747 0.3769535 -0.19511068 0.16814098 0.46329063 -0.027781153
0.31061527 0.18261984 -0.31820944 0.19746076 0.17355086 0.106498756 0.19624977 -0.43885323
-0.23951094 -0.124238685 0.3299009 -0.09026487 0.5139855 0.044569455 0.31549215 -0.033370502
0.08296298 -0.015993847 -0.078461155 -0.46332845 -0.27101412 0.22545524 0.6739316 -0.13274513
0.13742366 0.053145695 -0.6346084 0.46779293 -0.25520444 0.5232695 -0.3352911 -0.09462175
0.06747217 0.3318168 -0.1145277 -0.6729751 -0.18315329 0.26627833 0.19756314 -0.15210727
00000000: 65f4 cabc 31c3 b8be 1888 ccbe c3cf ad3e
00000010: 58b1 f2be 37c4 253e 1d7a 57bd 87e2 64be
00000020: 303a 423a 2d88 2d3c 2019 a2be afab b33d
00000030: f9d3 bebe 5ad2 4b3d 7c2d 263f 55a1 66be
00000040: 2131 853d a3f5 0dbf 0798 b03d 0d00 c13e
00000050: 18cb 47be 262d 2c3e 6e34 ed3e 4d95 e3bc
00000060: f708 9f3e b200 3b3e 59ec a2be 2733 4a3e
00000070: 51b7 313e 051c da3d b3f5 483e 5fb1 e0be
00000080: 5b42 75be da70 febd c5e8 a83e cadc b8bd
00000090: 8e94 033f 768e 363d 3088 a13e 82af 08bd
000000a0: 7fe8 a93d 8705 83bc 3eb0 a0bd 6339 edbe
000000b0: 5dc2 8abe bddd 663e c886 2c3f 57ee 07be
000000c0: cab8 0c3e 4daf 593d b275 22bf 8e82 ef3e
000000d0: 28aa 82be fdf4 053f 46ab abbe 0cc9 c1bd
000000e0: d92e 8a3d e4e3 a93e 808d eabd 1948 2cbf
000000f0: 898c 3bbe a255 883e fe4d 4a3e 02c2 1bbe

gnn.1.ginlayers.0.apply_func.mlp.linears.0.weight f4 [32, 334]
0.17423001 0.1348783 -0.025990773 0.09044119 -0.094099835 -0.3023943 0.08802977 -0.009163337
-0.09925624 -0.06475412 -0.06296521 0.07203529 0.15172702 -0.22752193 -0.12267258 -0.2305363
-0.15695114 0.12819177 -0.019491054 -0.100422926 -0.19520861 -0.054356992 0.036240775 -0.055219866
0.05294563 -0.047892984 0.1734903 -0.013814684 -0.13245063 0.028002225 0.048355326 0.0157192
0.06289391 0.011494084 0.03310043 -0.04852149 -0.09494437 -0.20337321 -0.08666891 -0.052860163
0.11169578 0.26971737 -0.17797501 -0.15774287 0.015807739 0.12381253 -0.1999785 0.09417312
0.0049090553 0.08991881 0.11856486 0.07848084 0.05897478 -0.13917004 0.025315199 0.061092757
-0.25312126 0.068208806 -0.0618084 -0.260476 -0.08069142 0.04213817 -0.12023555 0.20707634
-0.013979746 -0.03228008 -0.033571675 -0.054798607 -0.23010038 -0.049216166 0.054505512 0.21633565
-0.13707834 -0.013344931 -0.10980561 -0.017846538 -0.3045732 -0.22106709 -0.02596083 -0.039372005
-0.31102857 -0.026716534 0.0085082855 -0.044147957 -0.085198686 0.12512898 0.12577783 -0.021732038
-0.21531491 0.17290933 -0.11499037 -0.11586876 -0.11989626 -0.14489077 -0.113627516 -0.048008256
-0.08188114 0.04070854 0.05818019 0.066239536 0.026823262 -0.18181169 -0.15062185 -0.031093188
0.109161355 -0.047413863 0.12284078 -0.29053858 0.19710149 -0.08977094 -0.11915125 -0.22257869
0.030698985 0.2146091 -0.18419366 0.19464603 -0.11089768 -0.10278504 -0.03402497 -0.040179033
-0.035314355 -0.04135439 0.042590357 -0.15082638 -0.30347046 0.018789671 -0.09616036 -0.114574336
-0.03844707 -0.068048835 -0.06323407 0.0038104807 -0.028746346 -0.13219176 0.08417186 0.10404339
-0.17609157 0.21356232 0.0267748 0.11691984 -0.042776182 0.059477735 0.108930096 -0.009550741
-0.1211762 -0.07889738 -0.14184172 0.036836255 -0.22405913 0.041112512 0.1394811 -0.28562808
-0.30684972 -0.13133915 -0.0541313 -0.03333673 -0.05935253 0.21915457 0.14233881 -0.1723744
0.07271293 -0.09282224 -0.13155578 0.16431731 0.003267212 -0.23030643 -0.11823735 0.031704597
0.15613411 -0.10650466 -0.2112674 0.10515949 -0.015690276 0.112450555 -0.29487184 -0.14274126
0.021597369 -0.34842035 -0.1217658 0.013421124 -0.2811671 -0.08270708 0.010512458 -0.043823835
-0.11967793 -0.081774 0.07947474 -0.12947358 -0.23128721 -0.005476796 0.03826576 0.011828048
-0.11617195 -0.1312767 -0.11679278 -0.0050338903 0.0563769 0.07069851 0.023401432 0.10811713
-0.030735437 -0.027663743 0.16637929 -0.27326453 -0.25030515 0.037977803 0.051634498 -0.11911349
-0.100171246 -0.11498618 0.17821595 -0.26805538 -0.17231485 -0.12691766 -0.060150765 -0.0981569
0.10284552 -0.059987977 -0.0006702955 0.124052145 -0.23492981 -0.07258098 0.20831533 0.08258092
0.0078029307 -0.13213669 -0.0366477 -0.25672278 0.057433225 -0.2033725 0.012180858 -0.09925579
-0.12719011 -0.29082832 0.13254069 -0.030902164 -0.03400954 0.044186056 -0.21423103 -0.044723652
0.003984563 -0.18442176 0.009539194 -0.1150838 -0.14133662 -0.17845227 0.07509663 -0.17015207
-0.050933566 -0.23322491 0.07363127 -0.06972778 0.06003569 -0.10359241 0.14503397 -0.03791588
00000000: 5a69 323e 891d 0a3e 9aea d4bc 3b39 b93d
00000010: 6ab7 c0bd 6dd3 9abe f448 b43d d221 16bc
00000020: db46 cbbd cf9d 84bd e7f3 80bd 3d87 933d
00000030: 545e 1b3e 82fb 68be c33b fbbd b511 6cbe
00000040: cdb7 20be b444 033e b4ab 9fbc 89aa cdbd
00000050: c4e4 47be 70a5 5ebd 3571 143d 3a2e 62bd
00000060: 84dd 583d 6f2b 44bd 71a7 313e fc56 62bc
00000070: 23a1 07be ec64 e53c 3c10 463d 8dc5 803c
00000080: 86ce 803d af51 3c3c 5194 073d 78be 46bd
00000090: 3272 c2bd 1141 50be 787f b1bd e683 58bd
000000a0: c2c0 e43d 6518 8a3e 153f 36be 5987 21be
000000b0: 3b7f 813c 6c91 fd3d 2ac7 4cbe d6dd c03d
000000c0: 24dc a03b 5a27 b83d 22d2 f23d 90ba a03d
000000d0: 8a8f 713d 9782 0ebe d261 cf3c 663c 7a3d
000000e0: 1c99 81be 0fb1 8b3d ce2a 7dbd 1c5d 85be
000000f0: 8b41 a5bd 1399 2c3d 0e3e f6bd d20b 543e
00000100: 4e0b 65bc 1e38 04bd 7482 09bd 8174 60bd
00000110: 6f9f 6bbe e496 49bd 2c41 5f3d 1887 5d3e
00000120: 445e 0cbe b3a4 5abc c3e1 e0bd e732 92bc
00000130: 05f1 9bbe 695f 62be ceab d4bc 8a44 21bd
00000140: 233f 9fbe a2dc dabc 5666 0b3c 7dd4 34bd
00000150: a67c aebd d021 003e e7cb 003e 6307 b2bc
00000160: 837b 5cbe 250f 313e 1280 ebbd 9a4c edbd
00000170: 2c8c f5bd 3f5e 14be 8bb5 e8bd 4ea4 44bd
00000180: 4db1 a7bd ffbd 263d 5a4e 6e3d 98a8 873d
00000190: 75bc db3c d82c 3abe 9d3c 1abe 24b7 febc
000001a0: fd8f df3d 0a35 42bd f293 fb3d 79c1 94be
000001b0: f9d4 493e d4d9 b7bd 9205 f4bd abeb 63be
000001c0: 707c fb3c 7dc2 5b3e 439d 3cbe 4a51 473e
000001d0: 531e e3bd f780 d2bd c45d 0bbd c592 24bd
000001e0: c9a5 10bd 3963 29bd 3a73 2e3d 3b72 1abe
000001f0: 7b60 9bbe ccec 993c b9ef c4bd f3a5 eabd
00000200: ad7a 1dbd 305d 8bbd dd80 81bd 42b9 793b
00000210: 757d ebbc 475d 07be 4c62 ac3d b314 d53d
00000220: 5951 34be 15b0 5a3e d356 db3c ab73 ef3d
00000230: 1436 2fbd ed9e 733d be16 df3d b67a 1cbc
00000240: 3a2b f8bd f394 a1bd f53e 11be 9de1 163d
00000250: c26f 65be 9865 283d 22d4 0e3e d83d 92be
00000260: 681b 9dbe c57d 06be c8b8 5dbd 188c 08bd
00000270: a31b 73bd 0e6a 603e 44c1 113e ea82 30be
00000280: 84ea 943d 9619 bebd 8fb6 06be cc42 283e
00000290: b91e 563b 73d5 6bbe 6c26 f2bd aedc 013d
000002a0: 9fe1 1f3e 1d1f dabd 7b56 58be dc5d d73d
000002b0: e588 80bc 7a4c e63d 71f9 96be c42a 12be
000002c0: f7ec b03c 2764 b2be 5960 f9bd 46e4 5b3c
000002d0: 22f5 8fbe 5462 a9bd 723c 2c3c 9f80 33bd
000002e0: b419 f5bd 2079 a7bd a7c3 a23d b994 04be
000002f0: 8ed6 6cbe b276 b3bb 8fbc 1c3d 6eca 413c
00000300: 8feb edbd 666d 06be 0e31 efbd 55f3 a4bb
00000310: 77eb 663d 61ca 903d 5cb4 bf3c 846c dd3d
00000320: e2c8 fbbc 139f e2bc 555f 2a3e 54e9 8bbe
00000330: ff27 80be 9d8e 1b3d b27e 533d c6f1 f3bd
00000340: 9526 cdbd e07d ebbd 3e7e 363e 8e3e 89be
00000350: 4e73 30be b4f6 01be a660 76bd 7c06 c9bd
00000360: aca0 d23d f4b5 75bd c5b6 2fba 0d0f fe3d
00000370: 7191 70be 56a5 94bd 9d50 553e 2f20 a93d
00000380: baaf ff3b d74e 07be e61b 16bd 2b71 83be
00000390: 1a3f 6b3d e140 50be 3992 473c 9f46 cbbd
000003a0: 203e 02be 73e7 94be bfb8 073e 8926 fdbc
000003b0: 964d 0bbd 70fc 343d 615f 5bbe 2630 37bd
000003c0: f090 823b 0fd9 3cbe 484a 1c3c 0eb1 ebbd
000003d0: 8cba 10be 31bc 36be 43cc 993d 583c 2ebe
000003e0: b79f 50bd 83d2 6ebe fecb 963d 70cd 8ebd
000003f0: fce7 753d 4228 d4bd c983 143e af4d 1bbd

gnn.1.ginlayers.0.apply_func.mlp.linears.0.bias f4 [32]
-6.2384097e-06 7.009188e-05 0.000109951456 4.0648938e-05 -0.00015235526 -3.532751e-05 -0.00016062368 4.484971e-05
-0.00018466717 -0.00011041366 2.7434324e-05 -3.3880333e-05 8.464024e-05 -3.382021e-06 1.14342765e-05 -1.786866e-06
1.31513025e-05 -6.189748e-07 -1.8030818e-05 2.1288048e-05 5.5993907e-05 2.2468248e-05 -3.2389056e-05 3.054818e-05
1.7855664e-05 2.540789e-05 8.1670885e-05 -0.00026911433 1.7162114e-05 1.9935208e-06 -0.00012650153 1.7972434e-06
00000000: 8853 d1b6 4bfe 9238 bd95 e638 777e 2a38
00000010: 8ec1 1fb9 a02c 14b8 176d 28b9 021d 3c38
00000020: 37a3 41b9 e28d e7b8 c322 e637 bb1a 0eb8
00000030: e280 b138 aef6 62b6 d8d5 3f37 40d4 efb5
00000040: 6aa4 5c37 a027 26b5 e340 97b7 bc93 b237
00000050: 00db 6a38 327a bc37 7cd9 07b8 dc20 0038
00000060: bfc8 9537 0723 d537 b946 ab38 ea17 8db9
00000070: 5cf7 8f37 6dc8 0536 7fa5 04b9 d038 f135
