temp/MVSE/dblp/Moco_K4096_<MPRW>3x2hopsmp_spec_WL_0_0_1_bsz128_GElayer2_ned32_sed64-E200.pt (torch, 363331 bytes, 56 tensors)

gnn.0.ginlayers.0.apply_func.mlp.linears.0.weight f4 [32, 334]
0	0xbeb6fb06	-0.3573839
1	0x3e029963	0.12753825
2	0xbe0705e6	-0.13185844
3	0xbe05fd55	-0.1308492
4	0x3d78f30c	0.060778663
5	0x3eb026f8	0.3440473
6	0xbe893a6f	-0.26802394
7	0xbe082b6a	-0.13297811
8	0xbead3fd7	-0.33837768
9	0xbeb5d6fb	-0.3551558
10	0xbde51bf2	-0.11186971
11	0xbe55d345	-0.20881374
12	0x3db11a6c	0.08647618
13	0xbc3dc1f6	-0.011581888
14	0xbdc51dc3	-0.09624817
15	0xbe675846	-0.22592267
16	0x3b5756bf	0.0032858101
17	0x3dd7d3c2	0.105384365
18	0x3c17b0a9	0.009258428
19	0xbe878b98	-0.2647369
20	0xbdae9bde	-0.08525823
21	0xbe50e40a	-0.2039949
22	0xbef711f0	-0.48255873
23	0x3d8cbadd	0.06871579
24	0xbdb9c188	-0.09070116
25	0x3e0ba1eb	0.13635986
26	0x3c855613	0.016276395
27	0xbe718b06	-0.2358819
28	0xbd7ebe15	-0.062192995
29	0x3dbac874	0.09120265
30	0x3c9cac27	0.019125057
31	0x3cb99c86	0.022657644
32	0xbc794677	-0.015214554
33	0x3e8dc5a0	0.27689838
34	0xbdf9701c	-0.12179586
35	0xbd296f9f	-0.041366216
36	0xbdf6dab8	-0.12053436
37	0xbe4cab2e	-0.19987175
38	0xbe178ca8	-0.1479975
39	0xbdc55765	-0.0963581
40	0x3cdb3d5a	0.026762653
41	0x3c2e2518	0.010628961
42	0xbeedb794	-0.46429121
43	0xbe95368b	-0.29143175
44	0x3dfc5e53	0.123226784
45	0xbe6560cc	-0.22400206
46	0x3e872ceb	0.26401457
47	0xbde70474	-0.11280146
48	0x3c2a4d99	0.010394477
49	0x3c34edc2	0.011043014
50	0xbe7436a4	-0.23848969
51	0xbddf9cbb	-0.10918566
52	0x3be6baf1	0.007041328
53	0xbd894221	-0.06702066
54	0xbdf5dcad	-0.12004981
55	0xbd6b5652	-0.05745537
56	0xbeaac0b2	-0.3335014
57	0x3e46baa5	0.19407137
58	0xbe19aedd	-0.15008111
59	0x3d8ce4d3	0.06879582
60	0xbe38d147	-0.18048583
61	0xbe437e5c	-0.19091171
62	0x3da640b3	0.08117809
63	0xbd1049d4	-0.035226658
64	0xbd889b60	-0.066702604
65	0xbe83ca01	-0.25740054
66	0xbe3902c8	-0.18067467
67	0x3d1d8fe8	0.038467318
68	0xbddee040	-0.10882616
69	0x3e1442df	0.14478634
70	0xbdad7713	-0.08469977
71	0xbc5763e7	-0.013146377
72	0x3d1125e9	0.035436545
73	0x3e4a50bb	0.19757359
74	0x3e8c31df	0.273818
75	0x3db7d7c4	0.08976701
76	0xbe3d33ac	-0.18476743
77	0xbdcb362e	-0.09922443
78	0x3a2bf3e5	0.00065594754
79	0x3d805e86	0.06268029
80	0x3e633c6a	0.22191015
81	0xbe8ff480	-0.28116226
82	0x3d8cd882	0.06877233
83	0x3cfd01ad	0.030884588
84	0xba4b545b	-0.00077564054
85	0x3e077820	0.13229418
86	0x3e2c5489	0.16829123
87	0xbd88248e	-0.06647597
88	0x3da98648	0.08277565
89	0xbe2f12b5	-0.1709698
90	0x3c210fe3	0.009830448
91	0xbe04c386	-0.12965211
92	0xbd5b116f	-0.053483423
93	0x3d9d8a84	0.076924354
94	0x3df2a4b3	0.1184782
95	0x3ac05ad7	0.001467551
96	0x3c58151b	0.013188626
97	0xbd72d2a2	-0.059282906
98	0xbdc86fb5	-0.097869314
99	0x3c82c007	0.015960706
100	0x3cc76490	0.024339944
101	0x3dc4ef2d	0.09615932
102	0x3e389dc2	0.1802893
103	0xbe2791c6	-0.16364202
104	0x3d88bd43	0.06676724
105	0x3e592f95	0.21209557
106	0x3e82a891	0.2551923
107	0xbe930d07	-0.28720877
108	0xbddeb482	-0.10874273
109	0x3c3c9aa5	0.0115114795
110	0x3cd49811	0.025951417
111	0xbdee8433	-0.11646309
112	0xbde76568	-0.112986386
113	0x3db5f2e0	0.08884215
114	0xbd4300a5	-0.047608037
115	0x3dda937f	0.10672664
116	0xbe90ff3e	-0.28319734
117	0xbd04dd85	-0.03243782
118	0xbe2b5804	-0.16732794
119	0x3bf65c40	0.0075183213
120	0xbeb689bd	-0.3565196
121	0x3c6a0b2d	0.014284891
122	0x3e701896	0.23446879
123	0x3e2a63fa	0.166397
124	0xbd17b795	-0.03704031
125	0x3d4647ef	0.048408445
126	0xbd75446d	-0.05987971
127	0x3eda1619	0.42594984
128	0xbe4e0881	-0.20120431
129	0x3ccfd2b1	0.02536902
130	0x3e203495	0.15645058
131	0xbe740913	-0.23831587
132	0x3e22432d	0.15845938
133	0x3d628ea2	0.055311806
134	0xbe38cd1f	-0.18046997
135	0x3d97f0d4	0.07418981
136	0xbe47884a	-0.19485584
137	0x3e063428	0.13105834
138	0xbedf6dc2	-0.43638426
139	0xbe45f476	-0.19331536
140	0x3d9129d0	0.07088053
141	0x3e4c7bd9	0.19969119
142	0x3dbf74d2	0.093484536
143	0xbdb395a9	-0.0876878
144	0x3e919c86	0.2843973
145	0x3d104c54	0.035229042
146	0x3e1123c3	0.14173798
147	0x3d930780	0.07179165
148	0x3d9222a4	0.071355134
149	0xbdb0ab81	-0.08626462
150	0xbdec5dba	-0.115413144
151	0x3db0b523	0.08628299
152	0x3dc13468	0.09433824
153	0xbe399448	-0.18122971
154	0x3d929827	0.07157927
155	0xbdf82d9c	-0.12118074
156	0x3e8ddab4	0.2770592
157	0xbeb222e9	-0.3479226
158	0xbd80c119	-0.062868305
159	0xbe1c9dc7	-0.15294562
160	0x3dd3d786	0.10343842
161	0x3d35d66d	0.044393945
162	0x3dfc852c	0.12330088
163	0xbe0a5002	-0.13507083
164	0x3d0977be	0.03356146
165	0x3df653a2	0.120276704
166	0x3de6710d	0.112520315
167	0x3d84353f	0.064554684
168	0xbdccf3fd	-0.100074746
169	0x3d5660e8	0.05233851
170	0xbeef15ea	-0.46696407
171	0x3dce9810	0.10087597
172	0xbd04e149	-0.03244141
173	0x3e425d56	0.18980917
174	0xbde31a41	-0.11088992
175	0x3df70861	0.12062145
176	0xbea5a833	-0.32354888
177	0xbea26fbb	-0.3172587
178	0xbe9b543a	-0.30337697
179	0x3e3acd95	0.18242486
180	0xbdda54f5	-0.106607355
181	0xbef736dc	-0.48284042
182	0x3e282e84	0.16423994
183	0xbd356189	-0.04428247
184	0xbebde6c5	-0.37090126
185	0x3e801ffa	0.25024396
186	0xbe649e82	-0.22326091
187	0xb96b8080	-0.00022459216
188	0x3e62fbe6	0.22166404
189	0x3dff84ee	0.12476526
190	0x3eb14787	0.34624884
191	0x3c4f8298	0.012665413
192	0xbcf03fdb	-0.029327324
193	0xbe775aac	-0.24155682
194	0xbd68afd0	-0.056808293
195	0xbe8d8c90	-0.27646303
196	0x3e54c010	0.20776391
197	0xbda609a2	-0.08107306
198	0x3c120a1d	0.008913544
199	0xbe14319a	-0.14472046
200	0x3db20163	0.08691671
201	0x3d961eeb	0.07330116
202	0x3d326683	0.043554794
203	0x3c35e70e	0.011102451
204	0xbdd80695	-0.105481304
205	0x3e34df1b	0.17663233
206	0xbded6f73	-0.11593523
207	0x3d04e93b	0.03244899
208	0xbe7cf505	-0.24702843
209	0x3df388b4	0.118913084
210	0xbd0aede8	-0.03391829
211	0x3d38577f	0.045005318
212	0xbdb928a4	-0.09040955
213	0x3d7707b6	0.060310088
214	0x3e1c8a5f	0.1528716
215	0x3dd3c35f	0.103399985
216	0xbe851d8a	-0.259991
217	0xbe6cdf3b	-0.2313203
218	0xbea889fc	-0.32917774
219	0xbe219cff	-0.15782546
220	0xbb052998	-0.0020318981
221	0x3d20e684	0.039282337
222	0xbe15bcde	-0.14622828
223	0x3e6ce968	0.23135912
224	0x3df25d97	0.11834257
225	0xbd3240c2	-0.04351879
226	0xbd7ffcff	-0.062497135
227	0xbc0d3554	-0.008618671
228	0xbe5d3da1	-0.21605541
229	0x3e3307f0	0.17483497
230	0x3e1b359a	0.15157166
231	0xbdbf4ac6	-0.09340434
232	0xbd82a7f6	-0.06379692
233	0xbd91ce02	-0.07119371
234	0xbdd6876f	-0.10475051
235	0xbdc7edb4	-0.09762135
236	0x3d64dca8	0.055874497
237	0x3d515d7a	0.051114537
238	0x3dbbb131	0.09164656
239	0x3cc808c6	0.024418246
240	0xbc2bec14	-0.010493297
241	0xbb5ed935	-0.0034003977
242	0xbe19819f	-0.14990853
243	0xbe2ff2da	-0.17182484
244	0x3d98b96d	0.07457242
245	0xbd478f76	-0.0487208
246	0xbe8a32fb	-0.2699202
247	0xbdad6fbf	-0.084685795
248	0x3e2207bd	0.15823264
249	0xbe0ff712	-0.14059094
250	0xbd8bff57	-0.068358116
251	0x3e595658	0.21224344
252	0xbda673a1	-0.08127523
253	0xbd5e97e4	-0.054344073
254	0xbe0a04df	-0.1347842
255	0x3df05119	0.11734218

gnn.0.ginlayers.0.apply_func.mlp.linears.0.bias f4 [32]
0	0xb86a71ba	-5.5895864e-05
1	0x38379c7e	4.3776345e-05
2	0xb8cedfcc	-9.864531e-05
3	0x387b4117	5.9903683e-05
4	0x371b7188	9.2651535e-06
5	0xb93d1852	-0.00018033505
6	0xb7d000ce	-2.4795907e-05
7	0xb7ed25b8	-2.8270166e-05
8	0xb872e5aa	-5.7911187e-05
9	0xb879cb6f	-5.955569e-05
10	0x37f6dcd6	2.942832e-05
11	0xb7af4416	-2.089333e-05
12	0x382b5d26	4.085633e-05
13	0xb7665d46	-1.3730785e-05
14	0xb8479e7b	-4.7592894e-05
15	0xb91606fb	-0.00014307715
16	0xb701f918	-7.746996e-06
17	0x3871760a	5.756881e-05
18	0x37e3dbb4	2.7162816e-05
19	0x388b6baa	6.6480905e-05
20	0xb80453bb	-3.1549233e-05
21	0xb840c605	-4.5960787e-05
22	0xb85e1c55	-5.295531e-05
23	0x38e8bf27	0.00011098227
24	0x37cd2e50	2.445947e-05
25	0xb89bc8d0	-7.42838e-05
26	0xb864460c	-5.4424672e-05
27	0xb897ac3c	-7.232322e-05
28	0x38b5b677	8.664739e-05
29	0xb791a117	-1.736036e-05
30	0xb8b9a2aa	-8.851786e-05
31	0x366fdf5c	3.5743788e-06

gnn.0.ginlayers.0.apply_func.mlp.linears.1.weight f4 [32, 32]
0	0x3e320e51	0.17388274
1	0xbd9b5cb4	-0.07586041
2	0x3e3384d8	0.17531145
3	0x3e546c09	0.20744337
4	0xbe83d29c	-0.2574662
5	0x3c723058	0.014782034
6	0xbda6e98d	-0.08150015
7	0x3d1ac613	0.037786555
8	0xbd1713af	-0.036884006
9	0xbea21f84	-0.3166467
10	0x3e450c7b	0.19243042
11	0xbe9017da	-0.28143197
12	0xbf2d1658	-0.6761222
13	0xbe35baef	-0.17747091
14	0x3e086712	0.13320568
15	0x3db36655	0.08759753
16	0x3e473eeb	0.19457595
17	0xbe68d724	-0.2273832
18	0x3ec95725	0.39324299
19	0xbe1ad9f9	-0.15122212
20	0x3d9c29d7	0.07625168
21	0x3d571bf0	0.052516878
22	0x3e386697	0.18007885
23	0x3e975103	0.29553995
24	0xbf0b5ce7	-0.5443863
25	0x3d2adea7	0.041716244
26	0xbefe0b5a	-0.49618036
27	0x3e8a09ed	0.26960698
28	0xbe10bd55	-0.14134724
29	0xbc95cc13	-0.018285787
30	0xbc5819e8	-0.01318977
31	0xbeb9ac65	-0.3626434
32	0xbe99a1bf	-0.30006215
33	0xbe5693e6	-0.20954856
34	0xbd18ae48	-0.037275583
35	0x3c7120ce	0.014717294
36	0xbf2c7789	-0.67369896
37	0xbd25a9c2	-0.040445097
38	0x3e2936ca	0.16524807
39	0xbed0fa18	-0.40815806
40	0x3e0462f1	0.12928368
41	0x3ddfaf78	0.1092214
42	0xbdd3d17e	-0.10342692
43	0x3eb5cbc4	0.35507023
44	0x3eb01939	0.34394243
45	0xbe8382d1	-0.25685742
46	0x3db319e5	0.08745173
47	0xbdc2bf23	-0.09509113
48	0x3daaf7b1	0.08348025
49	0xbe190fb8	-0.14947402
50	0x3ecdd025	0.40197864
51	0x3e7456f0	0.23861289
52	0x3dd32c47	0.103111796
53	0xbcffe725	-0.031238148
54	0xbea3e237	-0.32008526
55	0xbf25c139	-0.6474796
56	0xbe116102	-0.14197162
57	0x3e83fc6a	0.25778514
58	0xbca8c3f7	-0.020601256
59	0xbe46c00e	-0.194092
60	0xbcdc4489	-0.026888149
61	0xbf04e4c0	-0.51911545
62	0xbe0555df	-0.13021038
63	0xbd834656	-0.064099
64	0x3e35aec5	0.1774245
65	0xbe3a25ae	-0.18178436
66	0xbeb17fb9	-0.34667757
67	0xbe498798	-0.19680631
68	0xbe2e8581	-0.17043115
69	0xbdbff384	-0.09372619
70	0x3d958b09	0.073019095
71	0xbe5e3f1e	-0.21703765
72	0x3e0de29a	0.13855973
73	0xbe427ffc	-0.18994135
74	0x3c960ae0	0.018315732
75	0xbe62e055	-0.22155888
76	0xbed5940b	-0.4171451
77	0xbe3fda7e	-0.18735692
78	0x3e3d8e13	0.18511228
79	0x3da0a224	0.07843426
80	0x3ded4593	0.11585536
81	0x3dc7b8d0	0.09752047
82	0xbe8e3766	-0.2777664
83	0x3e2a81a0	0.1665101
84	0x3e418248	0.18897355
85	0x3e195bc6	0.14976415
86	0x3e7dd2c4	0.24787432
87	0xbe0d2c48	-0.13786423
88	0xbe3247df	-0.17410229
89	0x3e83e9bc	0.25764263
90	0xbe7670a7	-0.24066411
91	0x3e33cac3	0.17557816
92	0x3d06fb00	0.032954216
93	0xbc824b5f	-0.01590508
94	0x3f145b90	0.57952213
95	0xbcf6d8db	-0.030132702
96	0xbc84856f	-0.016176907
97	0x3e8f4cde	0.27988333
98	0x3e73c6c5	0.23806293
99	0xbe140cae	-0.14457962
100	0x3e4c2624	0.19936424
101	0xbeb5a803	-0.35479745
102	0xbee137a5	-0.43987766
103	0xbb4647a2	-0.0030255099
104	0x3e004a73	0.125284
105	0x3ce0e3de	0.027452406
106	0xbd6cff0f	-0.05786043
107	0x3e65af42	0.22430137
108	0x3eab01cc	0.33399808
109	0x3e37d959	0.17954005
110	0x3ec137cf	0.3773789
111	0x3d9d783b	0.07688948
112	0x3e82f5a0	0.25578022
113	0x3d442585	0.047887344
114	0x3dddef7b	0.10836693
115	0xbc1b4c6b	-0.009478669
116	0x3eace233	0.33766326
117	0x3de835f1	0.113384135
118	0xbeeb5403	-0.45962533
119	0x3d94c1a4	0.072634965
120	0x3df1c1d2	0.118045464
121	0xbf14a872	-0.5806953
122	0xbe18a35d	-0.14906068
123	0xbf087225	-0.5329917
124	0x3e856a1d	0.2605752
125	0xbe7d283c	-0.2472238
126	0x3e6f83f9	0.23390187
127	0xbdf950b7	-0.12173598
128	0x3df6666a	0.12031253
129	0xbeab3ee5	-0.33446422
130	0x3d4953d8	0.049152225
131	0xbda4b5a2	-0.08042456
132	0xbdb38a31	-0.08766592
133	0x3e983412	0.29727226
134	0xbd7134ca	-0.058888234
135	0x3aa1056a	0.0012284939
136	0x3c167dd5	0.009185274
137	0xbe80d3ac	-0.25161493
138	0xbe725184	-0.23663908
139	0xbe80fda6	-0.25193518
140	0xbef4aaf4	-0.47786677
141	0xbeeb9853	-0.46014652
142	0x3e0dcff3	0.13848858
143	0x3ea19227	0.31556818
144	0x3efa8262	0.489276
145	0xbbcafbcd	-0.006194568
146	0xbe4ff29b	-0.2030739
147	0x3e0e1899	0.13876571
148	0xbd5bf7b2	-0.053703018
149	0x3de25f04	0.11053279
150	0xbe92c990	-0.28669405
151	0xbe93a263	-0.2883483
152	0xbd4e3ad7	-0.050349083
153	0x3e640630	0.22267985
154	0x3d9c18d0	0.0762192
155	0x3ebfc67c	0.3745612
156	0x3def8782	0.11695768
157	0xbde2da2d	-0.1107677
158	0x3ed2c0c5	0.41162696
159	0xbf1d2b06	-0.61393774
160	0xbccc6b48	-0.0249535
161	0xbe96e3db	-0.29470715
162	0xbed69ecf	-0.41918036
163	0x3e7284f1	0.23683526
164	0x3def2448	0.11676842
165	0xbea8c78c	-0.32964742
166	0xbe5f45a7	-0.21803914
167	0xbeb88bfa	-0.36044294
168	0xbe270a5c	-0.16312546
169	0x3cb18920	0.021671832
170	0xbebd6683	-0.36992273
171	0x3d5c5ed8	0.053801388
172	0xbef76a15	-0.48323122
173	0xbd4bee76	-0.04978796
174	0xbe3c6407	-0.18397532
175	0x3e2ab878	0.16671932
176	0x3e53243a	0.20619288
177	0xbe87237a	-0.26394254
178	0x3e2f3923	0.1711164
179	0x3e232679	0.15932645
180	0x3e0c5d13	0.1370738
181	0x3e81c754	0.25347388
182	0xbccd321e	-0.025048312
183	0x3c09a2b3	0.008400607
184	0xbdaba21f	-0.083805315
185	0x3cb95030	0.022621244
186	0xbe994740	-0.29937172
187	0xbe7802ba	-0.2421979
188	0x3e5007af	0.20315431
189	0xbe5a195f	-0.21298741
190	0xbe2cd805	-0.1687928
191	0x3e60efc2	0.2196646
192	0xbec2e429	-0.38064697
193	0x3df4128f	0.11917602
194	0xbe936f1e	-0.28795713
195	0x3ecc2858	0.3987453
196	0xbc80dcff	-0.01573038
197	0xbe5803ed	-0.21095248
198	0xbe44538a	-0.19172493
199	0x3e306986	0.17227754
200	0x3e094738	0.13406074
201	0x3c9623de	0.01832765
202	0x3e89b724	0.26897538
203	0xbd86ed64	-0.065882474
204	0xbdea8bf3	-0.114524744
205	0x3daaa877	0.08332913
206	0xbda20197	-0.079104595
207	0xbeb070a8	-0.3446095
208	0xbe1a30b4	-0.15057641
209	0x3d765fc2	0.060149916
210	0xbd9267b9	-0.0714869
211	0x3e06c299	0.1316017
212	0xbe94694c	-0.28986585
213	0x3c7f7803	0.015592578
214	0xbeab8258	-0.33497882
215	0xbf04b354	-0.51836133
216	0xbe98c56d	-0.29838124
217	0xbdd41746	-0.103560016
218	0xbe62c968	-0.22147143
219	0x3ea2074a	0.31646186
220	0xbe91782c	-0.28411996
221	0xbed61404	-0.41812146
222	0xbe8b9ba5	-0.27267185
223	0x3df7b318	0.12094706
224	0x3dd2a4f6	0.1028537
225	0xbebfc367	-0.37453768
226	0x3eba19f5	0.3634793
227	0xbed879d4	-0.42280447
228	0xbd8f58e9	-0.0699938
229	0xbbe02790	-0.0068406537
230	0x3d8bc4a7	0.06824618
231	0xbecd4067	-0.40088198
232	0x3e7a0a70	0.24418044
233	0x3e8c2721	0.27373603
234	0x3e473aaa	0.19455972
235	0x3c632ebd	0.013866124
236	0x3e10a33e	0.14124772
237	0xbe98ea7e	-0.29866403
238	0x3e6a2cf2	0.22868708
239	0xbe3402db	-0.17579214
240	0xbe098e87	-0.13433276
241	0x3eff2c17	0.49838325
242	0xbeba1b55	-0.36348978
243	0xbe0545f8	-0.13014972
244	0xbe269eb5	-0.1627148
245	0x3ebc49e1	0.36775115
246	0x3e5ab568	0.21358263
247	0xbe669a65	-0.22519834
248	0x3da6f877	0.0815286
249	0x3da6bba4	0.08141258
250	0xbee132e1	-0.4398413
251	0x3db648f1	0.08900631
252	0xbe406764	-0.1878944
253	0xbd9abf09	-0.07555968
254	0xbe07f4e2	-0.13277009
255	0xbea8268f	-0.32841918

gnn.0.ginlayers.0.apply_func.mlp.linears.1.bias f4 [32]
0	0xb95d06ba	-0.00021078708
1	0x391ddf9f	0.00015055992
2	0x37d31a15	2.5165305e-05
3	0x38546350	5.063723e-05
4	0xb8845c4a	-6.311441e-05
5	0xb79e9d93	-1.8908444e-05
6	0xba90aaf3	-0.0011037275
7	0x3881cfdc	6.189916e-05
8	0x387b6cb6	5.994431e-05
9	0x39013b2a	0.00012324439
10	0xb7683abf	-1.38419555e-05
11	0xb7b7d110	-2.1912652e-05
12	0xb92f80c9	-0.00016737277
13	0xb890a6d8	-6.897532e-05
14	0xb6701ba8	-3.5778885e-06
15	0x37d5b429	2.5475472e-05
16	0x38e1ca40	0.00010766508
17	0x396531b4	0.00021857658
18	0x37c92e36	2.3982586e-05
19	0x3860b9fc	5.3578973e-05
20	0xb93bd966	-0.00017914697
21	0x37c821cc	2.3857596e-05
22	0xb8179ba8	-3.614617e-05
23	0xb8ec6f7b	-0.00011274122
24	0xb8ecf0fc	-0.00011298244
25	0xb88bbae4	-6.6628476e-05
26	0x389465f3	7.0761795e-05
27	0x38dfbe00	0.00010668859
28	0x3948c5f9	0.00019147237
29	0x36be45ff	5.67059e-06
30	0xb9451fee	-0.00018799279
31	0xb9246421	-0.0001567756

gnn.0.ginlayers.0.apply_func.mlp.batch_norms.0.weight f4 [32]
0	0x3f74c4a8	0.95612574
1	0x3f865df7	1.0497426
2	0x3f777bb4	0.9667313
3	0x3f54b6a2	0.83091176
4	0x3f7a0a13	0.9767162
5	0x3f6a7f6b	0.91600674
6	0x3f6ff2dd	0.93729955
7	0x3f8802e5	1.0625883
8	0x3f6b5f8d	0.91942674
9	0x3f88b6d2	1.0680792
10	0x3f7b6473	0.9820015
11	0x3f93bde7	1.1542329
12	0x3f990b8e	1.1956651
13	0x3f8f6127	1.1201524
14	0x3f9d6c2b	1.2298635
15	0x3f90c517	1.1310147
16	0x3f84a3cc	1.0362487
17	0x3f63d829	0.8900171
18	0x3f8cf877	1.1013325
19	0x3f7d02d9	0.9883247
20	0x3f892164	1.0713315
21	0x3f7976ac	0.97446704
22	0x3f7a1790	0.97692204
23	0x3f8e9168	1.1138124
24	0x3f766e08	0.96261644
25	0x3f841ca1	1.0321237
26	0x3f9636ff	1.1735533
27	0x3f8aed18	1.0853605
28	0x3f65bb1a	0.8973862
29	0x3f683ae0	0.90714836
30	0x3f993389	1.1968852
31	0x3f69e0b8	0.9135852

gnn.0.ginlayers.0.apply_func.mlp.batch_norms.0.bias f4 [32]
0	0xbd692dfa	-0.056928612
1	0xbd986a25	-0.074421205
2	0x3b78e2ab	0.0037976902
3	0xbd6c5dc2	-0.057706602
4	0xbe8f3bf1	-0.2797542
5	0xbdb3e8f3	-0.08784666
6	0xbe020c8d	-0.127001
7	0xbbd35beb	-0.0064501665
8	0xbe1c1cbb	-0.15245335
9	0x3d9c0385	0.07617859
10	0xbdbc88c4	-0.092057735
11	0xbe6511bf	-0.22370051
12	0xbec20410	-0.37893724
13	0xbe864f3b	-0.26232323
14	0x3e31caee	0.17362568
15	0xbea29e56	-0.31761426
16	0xbe15db98	-0.1463455
17	0x3e11c9eb	0.14237182
18	0xbd9f8f29	-0.077909775
19	0xbe4fdc48	-0.20298874
20	0x3d8c0eec	0.068387836
21	0x3ea48e78	0.32139945
22	0xbe785166	-0.24249801
23	0xbd6d6fad	-0.05796783
24	0x3ec67be0	0.38766384
25	0x3a78a810	0.00094854925
26	0xbd98a482	-0.074532524
27	0xbe6588c0	-0.22415447
28	0x3dc7c523	0.09754398
29	0x3ea74159	0.32667044
30	0xbe5f4555	-0.21803792
31	0x3e97950f	0.2960591

gnn.0.ginlayers.0.apply_func.mlp.batch_norms.0.running_mean f4 [32]
0	0xbfa78352	-1.3086951
1	0xbf876902	-1.0578921
2	0xbd59b1e0	-0.05314815
3	0xbee392ca	-0.4444793
4	0xbef4cbd7	-0.47811767
5	0x3e1a252f	0.15053247
6	0xc00ef8f2	-2.2339444
7	0xbfa9127e	-1.3208768
8	0x3d4992cc	0.049212262
9	0x3bb0bc09	0.0053935093
10	0xbf267610	-0.650239
11	0xbf901fe6	-1.1259735
12	0xc0149368	-2.321497
13	0xc0318022	-2.7734456
14	0xc05cb716	-3.4486747
15	0xbf8fa7f3	-1.1223129
16	0xbeeea869	-0.46612862
17	0xbf5fb36b	-0.87383145
18	0xbfd287a0	-1.644764
19	0xbfb2a380	-1.3956146
20	0xc02f6cfa	-2.7410264
21	0xbfc29faa	-1.5204976
22	0xbf0898a9	-0.5335794
23	0xbff53468	-1.9156618
24	0x4026aa9b	2.604163
25	0xbf99063a	-1.1955025
26	0xbfd5f0c4	-1.6714101
27	0xbf1b9782	-0.6077806
28	0x3f27ffa9	0.6562448
29	0x3fc5ab7d	1.5442959
30	0xbfd33722	-1.65012
31	0x3fb5b634	1.4196229

gnn.0.ginlayers.0.apply_func.mlp.batch_norms.0.running_var f4 [32]
0	0x405d64ba	3.4592729
1	0x40a26874	5.0752506
2	0x4045b666	3.0892577
3	0x403d58bf	2.9585416
4	0x403d0a68	2.9537601
5	0x402121c9	2.517687
6	0x408fc2a5	4.4925103
7	0x408e9d75	4.456721
8	0x40472531	3.111645
9	0x405c3894	3.4409533
10	0x4090706d	4.513724
11	0x40c24bf5	6.071772
12	0x4104e0e8	8.304909
13	0x40c7a072	6.2383356
14	0x4110f52c	9.059856
15	0x404d0d4d	3.2039368
16	0x404a5aae	3.1617846
17	0x40873a02	4.225831
18	0x40b9c1bf	5.8049006
19	0x40a289f7	5.0793414
20	0x40d6b7d7	6.7099414
21	0x40ea1167	7.3146243
22	0x406ba19b	3.6817386
23	0x407af4a6	3.9211822
24	0x40d148d4	6.54014
25	0x405f5296	3.4894156
26	0x40fcc4f7	7.8990436
27	0x409547c2	4.6650095
28	0x40458532	3.0862546
29	0x4092485c	4.571333
30	0x408759da	4.229718
31	0x4086961a	4.205823

gnn.0.ginlayers.0.apply_func.bn.weight f4 [32]
0	0x3f5ed409	0.8704229
1	0x3f53fb57	0.8280539
2	0x3e1f7755	0.15572865
3	0x3f2ee9eb	0.6832568
4	0x3e14af13	0.1451991
5	0x3edbc00d	0.4291996
6	0x3f086b76	0.5328897
7	0x3da3e05b	0.08001777
8	0x3d93a08d	0.07208357
9	0x3efc5983	0.49287042
10	0x3d651050	0.05592376
11	0x3f1f420d	0.6221016
12	0x3ecdcdfa	0.4019621
13	0x3ece37c2	0.40276915
14	0x3f10778b	0.5643241
15	0x3f26bf56	0.65135705
16	0x3f3c4f17	0.7355818
17	0x3e439c07	0.19102488
18	0x3ed50746	0.41607112
19	0x3d98272b	0.07429346
20	0x3f182bed	0.59442025
21	0x3f109cd0	0.56489277
22	0x3dc6064b	0.09669169
23	0x3f393f0b	0.7236182
24	0x3f0276f3	0.5096275
25	0x3edbde58	0.42943072
26	0x3f0ed7d5	0.55798084
27	0x3f1ccfa8	0.6125436
28	0x3f214c95	0.6300748
29	0x3f057f5f	0.5214748
30	0x3f7c048e	0.9844445
31	0x3f50afdf	0.8151836

gnn.0.ginlayers.0.apply_func.bn.bias f4 [32]
0	0xbe30c4f1	-0.17262627
1	0x3dcf373b	0.10117956
2	0x3efdef3a	0.49596578
3	0x3e1cf263	0.15326838
4	0x3edbb79f	0.4291353
5	0x3e15fbae	0.1464679
6	0x3ebc8fae	0.3682837
7	0x3ea6c591	0.32572606
8	0x3eb7644c	0.35818708
9	0x3eab48c9	0.33453968
10	0x3ed9ac9b	0.425145
11	0x3e279052	0.16363648
12	0x3ede4212	0.43409783
13	0x3ed5bbc2	0.4174481
14	0x3e3a261e	0.18178603
15	0x3e3e4c11	0.18583705
16	0x3daf9d7b	0.08574959
17	0x3eed2573	0.46317634
18	0x3e9952e7	0.29946062
19	0x3eb9f073	0.3631626
20	0x3e9b54bd	0.30338088
21	0x3ea098cc	0.31366575
22	0x3eac24db	0.33621868
23	0x3e89f1ea	0.26942378
24	0x3e9c6358	0.30544543
25	0x3e984137	0.29737255
26	0x3e8e9540	0.27848244
27	0x3e858033	0.2607437
28	0x3e7fc0c3	0.24975877
29	0x3df074ad	0.11741004
30	0x3d57a67e	0.052649014
31	0xbdd19784	-0.102339774

gnn.0.ginlayers.0.apply_func.bn.running_mean f4 [32]
0	0xbf0b373d	-0.5438116
1	0xbf3d30ed	-0.7390278
2	0xbdee8b2c	-0.11647639
3	0x3e90bc43	0.28268632
4	0xbec3ffad	-0.38281003
5	0xbf43b25b	-0.76444024
6	0xbf90452b	-1.1271108
7	0xbe8a65ac	-0.27030694
8	0xbee81077	-0.45325062
9	0xbea8aba4	-0.3294345
10	0xbebe194c	-0.37128675
11	0xbf953f5f	-1.1659964
12	0xbf9e490c	-1.2366042
13	0xbf06017a	-0.52346003
14	0xbea7e166	-0.32789153
15	0xbed1beda	-0.4096592
16	0xbe0d050b	-0.13771455
17	0xbf4b33d3	-0.7937595
18	0xbdf8e5da	-0.12153216
19	0xbefba47b	-0.49148926
20	0xbf86c716	-1.0529506
21	0xbf22df2f	-0.636218
22	0xbfaabfde	-1.3339803
23	0xbd7f4ffb	-0.062332135
24	0xbe4fd9e4	-0.20297962
25	0xbf3a48b0	-0.7276716
26	0xbeeba9b6	-0.46027917
27	0xbf9b497b	-1.21318
28	0xbf8d48f8	-1.1037893
29	0xbe4becf9	-0.19914617
30	0x3ead8b75	0.3389546
31	0xbf3b1d97	-0.73092026

gnn.0.ginlayers.0.apply_func.bn.running_var f4 [32]
0	0x3f928b9d	1.1448857
1	0x3f6a0e00	0.9142761
2	0x3f12a116	0.5727705
3	0x3f36529a	0.7121979
4	0x3f683935	0.9071229
5	0x3ef0d525	0.47037616
6	0x3f377789	0.7166677
7	0x3f3e08dc	0.7423227
8	0x3f4de296	0.8042387
9	0x3f4851d6	0.7824987
10	0x3f326a43	0.6969339
11	0x3f413088	0.7546468
12	0x3f5baa07	0.85806316
13	0x3f64bbd0	0.8934908
14	0x3f2517e6	0.6448959
15	0x3f517f59	0.8183494
16	0x3f2d4fd0	0.6769991
17	0x3f02bed1	0.5107241
18	0x3f2ef255	0.6833852
19	0x3f576353	0.8413593
20	0x3f256a9c	0.646158
21	0x3f44ad36	0.768268
22	0x3f657a8a	0.89640105
23	0x3f61b236	0.88162553
24	0x3f6a9311	0.91630656
25	0x3f4fd845	0.81189376
26	0x3f39e4d2	0.7261478
27	0x3f77a5ef	0.9673757
28	0x3f19fe3b	0.6015355
29	0x3f0d39d9	0.55166394
30	0x3ff44f17	1.9086636
31	0x3f670d6d	0.9025486

gnn.0.batch_norms.0.weight f4 [32]
0	0x3f5c0088	0.8593831
1	0x3f4d2779	0.80138355
2	0x3f16c0c8	0.5888791
3	0x3f557d5e	0.8339442
4	0x3f21c74c	0.6319473
5	0x3f23d362	0.6399442
6	0x3f622064	0.88330674
7	0x3f3dd4bc	0.7415273
8	0x3f3f2f3a	0.74681437
9	0x3f19db0b	0.6009986
10	0x3f62170c	0.88316417
11	0x3f3bc469	0.73346573
12	0x3f42d598	0.7610717
13	0x3f41120a	0.7541815
14	0x3f36270f	0.7115335
15	0x3f11c424	0.5693991
16	0x3f51b3cf	0.8191499
17	0x3f449668	0.76792
18	0x3f24e9ae	0.64419067
19	0x3f31f71a	0.6951767
20	0x3f2c8630	0.67392254
21	0x3f4357ae	0.76305664
22	0x3f394793	0.7237484
23	0x3f41d74a	0.7571913
24	0x3f3f23a8	0.7466378
25	0x3f32fe3b	0.69919175
26	0x3f2a729b	0.66581124
27	0x3f3bb630	0.7332487
28	0x3f317476	0.6931833
29	0x3f06a432	0.5259429
30	0x3f629c8a	0.8852011
31	0x3f55ef1f	0.83567995

gnn.0.batch_norms.0.bias f4 [32]
0	0xbe62c115	-0.22143967
1	0xbe04d524	-0.12971932
2	0x3dacb6cf	0.084333055
3	0xbdf95376	-0.12174122
4	0xbd9a1d9e	-0.0752518
5	0xbdec134a	-0.115271166
6	0x3ddac25a	0.10681601
7	0x3e9f30a4	0.31091797
8	0xbc6675a6	-0.0140661355
9	0xbd004929	-0.03131977
10	0x3dcbc229	0.099491425
11	0xbd954c72	-0.072899714
12	0x3d6f2d5e	0.058392875
13	0x3d48a0f6	0.04898163
14	0xbe07ffb0	-0.13281131
15	0xbe43ff3a	-0.1914033
16	0xbe5108ed	-0.20413561
17	0xbc2a8946	-0.010408705
18	0xbdd6a3e0	-0.104804754
19	0x3e23be18	0.15990484
20	0xbd98feeb	-0.07470497
21	0xbd547b40	-0.051875353
22	0x3dbc59d7	0.09196823
23	0xbd340e2b	-0.043958824
24	0xbb84124d	-0.004030502
25	0xbd90bd6b	-0.070673786
26	0xbdb26ce3	-0.08712175
27	0xbde766a1	-0.11298872
28	0xbda26b19	-0.079305835
29	0xbea92e0f	-0.33042952
30	0xbc6f7017	-0.014614127
31	0xbea5d253	-0.32387027

gnn.0.batch_norms.0.running_mean f4 [32]
0	0x3e82a86a	0.25519115
1	0x3ec03975	0.37543836
2	0x3efe6a46	0.49690455
3	0x3ebb56a8	0.3658955
4	0x3edb187e	0.42792124
5	0x3e81e5aa	0.25370532
6	0x3edb9845	0.4288961
7	0x3ea6e1a4	0.32594025
8	0x3eb6defd	0.35717002
9	0x3ecd0ceb	0.40048918
10	0x3ed88479	0.4228857
11	0x3eac0a83	0.3360177
12	0x3ef0f774	0.47063792
13	0x3ee3f76b	0.44524702
14	0x3e9cb2b0	0.30605078
15	0x3eb9b9a6	0.3627445
16	0x3eab3a03	0.33442697
17	0x3eecbbf4	0.46237147
18	0x3eb51f10	0.3537526
19	0x3eba0c55	0.36337534
20	0x3ed3cf81	0.4136925
21	0x3ed5694e	0.41681904
22	0x3eac173e	0.33611482
23	0x3ee1dce8	0.4411385
24	0x3ec951a4	0.393201
25	0x3eb6b211	0.3568273
26	0x3ec349ee	0.3814234
27	0x3ece4fa4	0.40295136
28	0x3eccd8ec	0.40009248
29	0x3e84d826	0.25946158
30	0x3ed810e2	0.4220038
31	0x3e854262	0.2602721

gnn.0.batch_norms.0.running_var f4 [32]
0	0x3e2df34e	0.16987345
1	0x3e7c2dc2	0.2462683
2	0x3cc179e8	0.0236177
3	0x3e4bdcde	0.19908473
4	0x3cb4b948	0.022061005
5	0x3db87da1	0.09008337
6	0x3e433e15	0.19066651
7	0x3bc9befb	0.0061568
8	0x3bc595e0	0.0060298294
9	0x3e230d91	0.15923144
10	0x3ba15fcd	0.0049247504
11	0x3e4951a5	0.19660051
12	0x3de0f465	0.109841146
13	0x3e05f87f	0.13083075
14	0x3e3d0792	0.18459919
15	0x3e2cd2a1	0.16877224
16	0x3e35ff19	0.17773093
17	0x3d17f83e	0.037101977
18	0x3de94f1b	0.11392041
19	0x3bb0d7e6	0.005396831
20	0x3e3d0fac	0.1846301
21	0x3e2e3b7d	0.1701488
22	0x3c1ea1dc	0.009682145
23	0x3e76d90c	0.24106234
24	0x3e14b675	0.14522727
25	0x3defc858	0.117081344
26	0x3e3d8bec	0.18510407
27	0x3e1c2ad8	0.15250719
28	0x3e2266d2	0.15859535
29	0x3e0a1d86	0.13487825
30	0x3e55ae3b	0.20867245
31	0x3e15aa41	0.14615728

gnn.0.linears_prediction.0.weight f4 [64, 334]
0	0x3d2bcb0f	0.0419417
1	0xbed0f5d1	-0.40812543
2	0xbdc6e426	-0.097114846
3	0x3ebb1655	0.36540475
4	0xbe35d216	-0.17755923
5	0x3c8adde0	0.016951501
6	0xbcb13068	-0.021629527
7	0xbde1bfc3	-0.11022904
8	0x3e063728	0.13106978
9	0x3e8034ae	0.2504019
10	0xbe8fcc3c	-0.28085506
11	0x3eb6f257	0.35731766
12	0x3cefd89f	0.029278098
13	0xbd067efb	-0.03283594
14	0xbed6e565	-0.4197189
15	0x3e88559e	0.2662782
16	0x3e7ecec4	0.24883562
17	0x3e0fc8be	0.14041421
18	0xbf0b2bdb	-0.54363793
19	0xbe046195	-0.1292785
20	0xbd68dd08	-0.056851417
21	0xbe455f2a	-0.19274583
22	0xbdb702d6	-0.08936088
23	0x3e1b3803	0.15158086
24	0xbeedc1cf	-0.46436927
25	0x3e104b99	0.14091338
26	0xbce781f9	-0.028260218
27	0xbb3b0e4f	-0.0028542464
28	0xbdce7d01	-0.10082436
29	0xbd98a358	-0.0745303
30	0xbed47bcf	-0.41500708
31	0xbdf59d82	-0.11992933
32	0xbd1051da	-0.03523431
33	0x3dd20496	0.10254781
34	0x3f0c10e4	0.54713273
35	0xbcfc1f68	-0.030776694
36	0x3ea59c37	0.32345745
37	0xbe1a0b20	-0.15043306
38	0x3e9af01e	0.3026132
39	0x3ec09db4	0.37620318
40	0x3d4ec7e2	0.05048359
41	0xbe8ac365	-0.271022
42	0xbd0fa375	-0.035067994
43	0xbc3e8c40	-0.011630118
44	0x3eb7f785	0.3593103
45	0x3ed1ad70	0.40952635
46	0x3d71d547	0.059041288
47	0x3e115316	0.14191851
48	0xbc2665e1	-0.010156126
49	0x3df058f7	0.11735719
50	0xbb5454f3	-0.0032399266
51	0xbe8c6f40	-0.27428627
52	0x3ed56789	0.41680554
53	0x3e07e617	0.13271366
54	0x3d26e466	0.04074516
55	0x3eb816e5	0.35954967
56	0x3f12b0e4	0.57301164
57	0xbe7e6289	-0.24842276
58	0xbd48db5b	-0.04903732
59	0xbc529c3f	-0.012854635
60	0x3deac857	0.11463993
61	0xbe8b01c3	-0.27149782
62	0xbdcb8ec2	-0.09939338
63	0xbe949ab8	-0.2902429
64	0xbef6b658	-0.48185992
65	0xbd9957ed	-0.07487474
66	0xbe18d9fc	-0.14926904
67	0xbe98dab2	-0.2985435
68	0x3e589a09	0.2115251
69	0x3e996c76	0.29965562
70	0xbed77658	-0.42082477
71	0x3d883479	0.06650633
72	0x3c26b3e0	0.0101747215
73	0xbe3147e4	-0.1731258
74	0xbe6aabd7	-0.22917114
75	0x3dcb4728	0.09925681
76	0xbdcf7d46	-0.10131316
77	0x3c040c57	0.008059583
78	0x3c8b51ca	0.017006774
79	0x3d5f0793	0.054450583
80	0xbe506177	-0.2034968
81	0x3c0f6bd0	0.008753732
82	0xbdf4dd2b	-0.11956247
83	0x3eb03dda	0.3442219
84	0xbdae2ca4	-0.08504608
85	0x3edf4aa4	0.43611634
86	0xbe9146fc	-0.2837447
87	0xbc7c32db	-0.015392984
88	0xbdba47b7	-0.0909571
89	0xbe92d980	-0.28681564
90	0x3e549fd5	0.20764096
91	0xbe104564	-0.1408897
92	0xbdc2eab9	-0.09517426
93	0x3ea9da4c	0.3317436
94	0x3dff6d81	0.12472058
95	0x3e5c46d7	0.21511398
96	0x3e8bbbb4	0.27291644
97	0x3d312c24	0.043254986
98	0x3e61da8e	0.22056028
99	0xbea874a9	-0.32901505
100	0xbe5756fe	-0.21029279
101	0xbd8c0fb4	-0.06838933
102	0xbe494c1e	-0.19657943
103	0x3ed40344	0.4140874
104	0x3d3787b7	0.044807162
105	0x3e0f6739	0.1400422
106	0xbd6bdead	-0.057585407
107	0x3f0c0c91	0.54706675
108	0x3e759430	0.2398231
109	0x3d073f26	0.033019207
110	0x3db32283	0.08746817
111	0x3ea24322	0.31691843
112	0xbe8a16fc	-0.2697066
113	0x3dc54b77	0.096335344
114	0xbe40753a	-0.18794718
115	0x3e49765d	0.19674058
116	0xbd3bc716	-0.04584416
117	0x3dfe78ac	0.1242536
118	0x3c2a0e5b	0.010379399
119	0x3defd5c7	0.11710697
120	0x3e67fc28	0.22654784
121	0x3e9f2462	0.31082445
122	0xbeab6854	-0.33478034
123	0xbdc4aacd	-0.0960289
124	0x3eaaafee	0.3333735
125	0x3d503ac5	0.050837297
126	0x3c588eb0	0.013217613
127	0xbea39b29	-0.31954315
128	0x3c81659b	0.01579552
129	0xbe4dd4eb	-0.20100753
130	0xbe02708b	-0.12738244
131	0x3dd305da	0.103038505
132	0xbe1e6f12	-0.15472057
133	0x3d8ab55c	0.06772873
134	0xbd56206e	-0.05227702
135	0xbe08bd69	-0.13353504
136	0x3d88f957	0.06688183
137	0xbed159e5	-0.40888897
138	0xbd41c0df	-0.047303077
139	0xbe83fa27	-0.2577679
140	0xbd2a88cc	-0.041634366
141	0x3e42d9dd	0.19028421
142	0x3dfe68f2	0.124223605
143	0xbd645f14	-0.055754736
144	0xbee70a15	-0.4512488
145	0xbdf9203f	-0.121643536
146	0x3e8a4135	0.27002874
147	0x3e9d81e9	0.30763176
148	0x3d8a259a	0.06745453
149	0x3d0c4a5c	0.034250602
150	0x3e5bf50a	0.21480194
151	0x3ca1ea95	0.019765178
152	0x3d1b08b3	0.037850093
153	0x3e744411	0.2385409
154	0xbe29de6b	-0.16588752
155	0x3d220daa	0.039563812
156	0x3ece5ed9	0.40306738
157	0xbe4d9cae	-0.200793
158	0x3cce89be	0.025212165
159	0xbcddb5e4	-0.027064271
160	0x3ce96018	0.028488204
161	0xbe285922	-0.16440251
162	0xbebffdb5	-0.3749825
163	0xbeb5f85c	-0.35541046
164	0xbe17b1b2	-0.14813879
165	0x3d59640f	0.05307394
166	0x3d877b7b	0.06615349
167	0xbe5243df	-0.20533703
168	0x3eb3b2a1	0.3509722
169	0xbc3d5493	-0.011555809
170	0x3ddd605b	0.10809394
171	0x3c8bedcb	0.017081162
172	0xbd4908e5	-0.049080748
173	0xbea8a6b2	-0.32939678
174	0xbd8d8608	-0.0691033
175	0x3dca6c35	0.0988392
176	0x3ec30fbd	0.38097945
177	0x3e21fb46	0.1581851
178	0x3e462b4a	0.19352451
179	0xbe0dd3b5	-0.13850291
180	0xbe0a72ae	-0.1352031
181	0x3d888edf	0.066678755
182	0x3d6a3d06	0.057187103
183	0x3ba46707	0.0050171646
184	0xbe20ae35	-0.15691455
185	0xbda48d68	-0.080347836
186	0x3c1b62ab	0.0094839735
187	0x3d98fd22	0.07470156
188	0x3e4ee1a8	0.20203269
189	0xbe074325	-0.13209207
190	0x3e31f08f	0.17376922
191	0x3eaf1e07	0.34202597
192	0xbe37c127	-0.17944776
193	0x3cc0b43a	0.023523439
194	0xbe4ec3ff	-0.20191954
195	0xb9e95ca4	-0.00044510246
196	0xbe3aec25	-0.18254144
197	0xbdfbb0ef	-0.12289607
198	0x3ab9fa44	0.0014188965
199	0xbe999593	-0.2999693
200	0xbe6f3980	-0.23361778
201	0x3e673d51	0.22581984
202	0xbeb1a7a8	-0.34698224
203	0x3e3c1225	0.18366297
204	0x3e32387c	0.1740436
205	0x3e55f821	0.20895435
206	0xbe169277	-0.1470431
207	0xbd746a7b	-0.05967186
208	0xbbfda33a	-0.0077404054
209	0xbe09663f	-0.1341791
210	0xbed4ecc3	-0.41586885
211	0xbe172cf0	-0.14763236
212	0x3ddbfc60	0.10741496
213	0x3e87edc9	0.26548603
214	0xbe297b27	-0.16550885
215	0xbe3c1422	-0.18367055
216	0x3c4ffc5a	0.012694443
217	0x3eb79914	0.35858977
218	0xbe759844	-0.23983866
219	0x3e688c2c	0.22709721
220	0x3c46346c	0.012097459
221	0x3c559163	0.013035151
222	0xbeb16edc	-0.34654891
223	0xbe43250b	-0.190571
224	0xbedd27b1	-0.43194345
225	0xbd81623c	-0.06317565
226	0xbdee8200	-0.11645889
227	0x3e15b9e9	0.146217
228	0x3e925cb0	0.2858634
229	0x3d076868	0.033058554
230	0xbe39b1ef	-0.18134283
231	0x3e2ae50f	0.16688941
232	0xbeb3e14f	-0.35132834
233	0x3d905c68	0.07048875
234	0x3d8fa58e	0.07013999
235	0xbd8a0f6b	-0.06741222
236	0x3e37b233	0.17939071
237	0x3b6dc387	0.0036279873
238	0xbea76dbc	-0.32700908
239	0xbe5da8ae	-0.21646377
240	0x3e20b90c	0.1569559
241	0xbdcac254	-0.099003464
242	0xbe806f7a	-0.2508505
243	0x3eb4a659	0.35283163
244	0xbea695dd	-0.32536212
245	0xbc845d89	-0.016157882
246	0x3d8407cb	0.06446799
247	0xbc9d9810	-0.019237548
248	0xbe3e6d75	-0.18596442
249	0xbd96a185	-0.07355026
250	0xbdeac24c	-0.114628404
251	0xbec90d39	-0.392679
252	0xbf0f27a2	-0.5591985
253	0x3ea0d87a	0.3141516
254	0xbdc5e684	-0.09663108
255	0xbbd97a4b	-0.006636893

gnn.0.linears_prediction.0.bias f4 [64]
0	0x3c9c8f17	0.0191112
1	0xbf08d03c	-0.5344274
2	0xbebebd3e	-0.37253755
3	0x3e99b1fa	0.30018598
4	0xbf6bd0c2	-0.92115414
5	0x3ed08692	0.4072767
6	0xbe040f61	-0.12896492
7	0xbecb940d	-0.3976139
8	0xbe89329c	-0.26796424
9	0x3e843275	0.25819746
10	0xbf058d13	-0.5216839
11	0x3ea0a4b1	0.3137565
12	0xbeef28dd	-0.46710864
13	0x3e0c9efa	0.1373252
14	0x3f87cf9e	1.0610235
15	0xbeabc307	-0.33547232
16	0x3e98c31e	0.29836363
17	0xbf89aa30	-1.0755062
18	0x3e8d26a0	0.2756853
19	0x3eecaa29	0.46223572
20	0xbef084ee	-0.46976417
21	0x3ed34a8b	0.4126781
22	0x3f82f39b	1.0230592
23	0x3e023965	0.12717207
24	0x3e6ecc67	0.23320161
25	0x3e2d49e9	0.16922726
26	0xbf3c088b	-0.73450536
27	0x3dc90415	0.09815232
28	0x3eb08e17	0.34483406
29	0xbdbdca47	-0.09267097
30	0xbdcb85d4	-0.09937635
31	0xbe0b41fc	-0.1359939
32	0xbe910181	-0.2832146
33	0xbe4ed837	-0.20199667
34	0x3ec51e4d	0.3849968
35	0xbb531bfa	-0.003221272
36	0x3f3c503a	0.73559916
37	0x3df2c62a	0.11854203
38	0x3f32ace4	0.6979506
39	0xbdcb7929	-0.09935219
40	0xbcae0485	-0.02124239
41	0xbebf30b5	-0.37341848
42	0x3e3377fa	0.17526236
43	0xbef7547d	-0.48306647
44	0xbef5c6dd	-0.48003283
45	0x3ed07fc5	0.4072248
46	0x3ef3fb7d	0.47652808
47	0x3d8701af	0.06592118
48	0x3e05d5b1	0.13069798
49	0x3eb0ab32	0.34505612
50	0xbf94f31d	-1.1636692
51	0x3f6fb6bf	0.93638223
52	0xbe9abea4	-0.30223572
53	0x3f956515	1.1671473
54	0xbf217f8c	-0.63085246
55	0xbeec66a1	-0.4617205
56	0x3de3e630	0.11127889
57	0x3edb98d6	0.42890042
58	0xbe80eb81	-0.25179675
59	0xbf605b73	-0.8763954
60	0xbdfeb1e8	-0.12436277
61	0x3ef8d4b9	0.48599795
62	0x3d66e658	0.056372017
63	0xbe9a822d	-0.3017744

gnn.0.linears_prediction.1.weight f4 [64, 32]
0	0xbe98e0cb	-0.29859003
1	0x3e6d2877	0.23159967
2	0xbdd64c21	-0.10463739
3	0xbccf53b7	-0.025308473
4	0xbd9dcaeb	-0.07704719
5	0xbdaf065c	-0.08546135
6	0x3e1b5693	0.15169744
7	0x3e712044	0.23547465
8	0xbdcc726e	-0.09982763
9	0xbe0c9090	-0.13727021
10	0xbd9e5866	-0.077317044
11	0x3dc1deb2	0.09466304
12	0xbd729f1a	-0.059233762
13	0xbe8bc4e0	-0.2729864
14	0x3de4f72d	0.111799575
15	0xbe80caff	-0.25154874
16	0xbd7d8dc4	-0.061902776
17	0xbe78a899	-0.24283065
18	0x3de1ecc4	0.110314876
19	0x3e905cbb	0.28195748
20	0xbda83633	-0.08213463
21	0xbeb0d20d	-0.34535256
22	0x3e261bfe	0.16221616
23	0x3e839b8d	0.25704613
24	0xbf0c5782	-0.54821026
25	0x3d4d2c32	0.050090976
26	0x3ea4464c	0.32084882
27	0xbeb2fac7	-0.34956953
28	0xbe2667c5	-0.16250522
29	0xbde0a6cf	-0.10969316
30	0x3e8679f6	0.26264924
31	0x3e34ecc5	0.17668445
32	0xbd156e95	-0.036482412
33	0x3db07896	0.0861675
34	0x3e26136c	0.16218346
35	0xbd590054	-0.05297883
36	0x3db7ad0c	0.08968553
37	0xbe9de89c	-0.3084153
38	0x3ea1a1de	0.31568807
39	0x3d941683	0.07230856
40	0xbb562041	-0.0032673033
41	0x3e9bee49	0.30455235
42	0xbe6052bd	-0.21906562
43	0x3d1d4185	0.038392562
44	0xbd8b2f7c	-0.06796166
45	0xbe9b5903	-0.30341348
46	0x3d4c5158	0.049882263
47	0xbe1f7fa6	-0.15576038
48	0x3e6bb500	0.23018265
49	0xbe0bfd67	-0.13670884
50	0xbccaf3bb	-0.024774423
51	0x3e8e22b3	0.27760848
52	0x3e394828	0.18093932
53	0xbe01364f	-0.12618373
54	0xbbf23715	-0.00739182
55	0x3d419c4c	0.047268197
56	0xbec7cf49	-0.39025334
57	0x3d9ee0b1	0.077577
58	0x3e84c38f	0.2593045
59	0xbc908ce4	-0.017645307
60	0xbe2ea8f6	-0.17056641
61	0xbdbf36ce	-0.09336625
62	0xbecdf10e	-0.40222973
63	0x3db8bee6	0.09020786
64	0x3dbdcae5	0.09267215
65	0x3e58ef71	0.2118509
66	0xbc954d1d	-0.018225247
67	0xbec9c75e	-0.39409918
68	0x3cc25d56	0.023726147
69	0xbd34b7cc	-0.044120595
70	0x3e577727	0.21041547
71	0xbed63cb8	-0.418432
72	0x3d17f31d	0.037097085
73	0x3d7cb53b	0.061696272
74	0x3e2cf0ba	0.16888705
75	0x3e294676	0.16530785
76	0x3e89e153	0.2692972
77	0xbea2cc9e	-0.31796736
78	0xbe182b1e	-0.14860198
79	0xbe2a1506	-0.16609582
80	0x3e4022e5	0.18763311
81	0x3d7308fc	0.05933474
82	0xbe8c17e9	-0.27361992
83	0x3d5214f6	0.05128952
84	0xbd3eed78	-0.046613187
85	0xbdbf601a	-0.09344502
86	0xbd6540f5	-0.05597015
87	0x3e70b3b2	0.23506048
88	0xbebb7f26	-0.36620444
89	0x3d28371e	0.04106819
90	0x3e8a0894	0.2695967
91	0xbd1d72c2	-0.03843952
92	0xbd84ca4c	-0.064838976
93	0xbd991c98	-0.07476157
94	0x3e34f59f	0.17671822
95	0xbdab1703	-0.083539985
96	0x3eddb046	0.43298548
97	0xbecb811a	-0.39746934
98	0xbd66d4d0	-0.056355298
99	0x3e82ce23	0.25547895
100	0x3e2ea789	0.17056097
101	0x3e86b6eb	0.2631143
102	0xbe8681d0	-0.26270914
103	0xbe8107b2	-0.25201184
104	0xbd36de52	-0.044645615
105	0xbc0a634e	-0.008446528
106	0xbda6cd09	-0.08144576
107	0x3ec7c6d9	0.39018896
108	0xbec1bb62	-0.37838274
109	0x3e0368be	0.12832925
110	0x3d60d81e	0.054893605
111	0x3ecac893	0.3960615
112	0x3e05808c	0.13037318
113	0xbda93025	-0.08261136
114	0x3dbe6da1	0.09298254
115	0x3e8a59bf	0.27021596
116	0x3b4b11e2	0.0030986
117	0x3db56dc1	0.088588245
118	0x3e7131a2	0.2355409
119	0xbe3096bf	-0.17245005
120	0xbdbfafc9	-0.093597
121	0xbcd4129a	-0.025887776
122	0xbe1e915d	-0.15485139
123	0x3cd0ec68	0.025503352
124	0xbe6d20d3	-0.23157053
125	0xbe49948e	-0.19685575
126	0xbe7a4272	-0.2443941
127	0xbe862124	-0.2619716
128	0xbe5340b9	-0.20630158
129	0x3e1b64d0	0.15175176
130	0x3db9111c	0.090364665
131	0xbd9b8bee	-0.07595049
132	0x3e390c93	0.18071203
133	0x3e9172d6	0.28407925
134	0x3ece3803	0.4027711
135	0x3e2a58bf	0.16635416
136	0x3d2ca046	0.042145036
137	0x3d7703ad	0.06030624
138	0x3c0d0ca0	0.008608967
139	0xbd1aa05c	-0.037750587
140	0x3e3af663	0.18258052
141	0x3cfa1110	0.030525714
142	0xbe90fb42	-0.28316694
143	0xbdcdc7a8	-0.10047847
144	0xbe5af4c5	-0.21382435
145	0x3d9e7feb	0.07739242
146	0xbed9bc6e	-0.42526573
147	0x3e121339	0.14265145
148	0x3e4a0f54	0.1973241
149	0xbd918f4f	-0.07107412
150	0xbd80a269	-0.06280977
151	0xbd56fee3	-0.052489173
152	0xbe25365b	-0.16134016
153	0xbbe6bda7	-0.0070416513
154	0xbe7f3da8	-0.24925864
155	0x3e4c3929	0.1994368
156	0x3ef77721	0.48333076
157	0x3e708cb4	0.23491174
158	0xbe161988	-0.14658177
159	0x3e3a23d7	0.18177734
160	0xbde817fe	-0.11332701
161	0xbddacacc	-0.10683212
162	0x3e27ac8a	0.16374412
163	0x3d9892d2	0.07449879
164	0x3e0c760f	0.13716911
165	0xbe2ba2f3	-0.16761379
166	0x3b4b97ea	0.003106589
167	0xbebc8597	-0.3682067
168	0xbde71e29	-0.112850495
169	0x3e4a8395	0.19776757
170	0x3dbc417f	0.0919218
171	0xbde4c775	-0.11170856
172	0x3e882ec3	0.26598176
173	0xbe8d2ea2	-0.2757464
174	0x3e401248	0.18756974
175	0xbbfe5558	-0.0077616386
176	0xbe299566	-0.16560897
177	0x3ed5eaca	0.41780692
178	0x3cb1a5f1	0.021685572
179	0xbd954a3b	-0.07289549
180	0x3b389ffc	0.002817153
181	0x3d61ee57	0.05515894
182	0xbd686e80	-0.056746006
183	0x3e35829f	0.17725609
184	0xbe482d18	-0.19548452
185	0xbe73db61	-0.23814155
186	0xbe438730	-0.19094539
187	0x3d820ff7	0.06350701
188	0xbde2f815	-0.11082474
189	0x3d8f6ab3	0.07002773
190	0x3ebd79c2	0.37006956
191	0xbeafeb4e	-0.3435921
192	0x3ee438f0	0.4457469
193	0xbe301d30	-0.17198634
194	0x3c1fdf3c	0.009757813
195	0xbe7d9f7e	-0.24767873
196	0x3e9428d5	0.28937402
197	0xbed2605f	-0.4108915
198	0x3ea4f09b	0.32214817
199	0x3e002aef	0.12516378
200	0xbe7c72a9	-0.24653114
201	0x3e44f7b5	0.19235118
202	0xbe966eb8	-0.29381347
203	0xbd61ccb9	-0.05512688
204	0x3e6562d5	0.22400983
205	0xbe609004	-0.21929938
206	0x3d6524cf	0.055943307
207	0x3dd834f3	0.10556974
208	0x3ea241fe	0.31690973
209	0x3da78647	0.08179908
210	0xbb9e78e1	-0.004836187
211	0xbe9db778	-0.30804038
212	0xbe0cf689	-0.1376592
213	0x3e62178b	0.22079293
214	0x3d45d74b	0.048301022
215	0xbdb23550	-0.08701575
216	0xbd126806	-0.035743736
217	0x3dd664db	0.104684554
218	0x3eb2d1f3	0.34925804
219	0x3df60389	0.12012393
220	0xbdfee4a9	-0.12445957
221	0x3da1d274	0.07901469
222	0xbe8540df	-0.26026055
223	0x3d0fd9f6	0.035119973
224	0xbe0548e1	-0.13016082
225	0xbdd1bb48	-0.10240799
226	0xbee490a9	-0.44641617
227	0x3e192053	0.14953737
228	0xbe92f258	-0.2870052
229	0xbdc60db0	-0.096705794
230	0xbd43c89f	-0.04779875
231	0xbdfda68d	-0.12385283
232	0x3e748782	0.23879817
233	0xbe5aa95e	-0.21353671
234	0x3df97aae	0.121816024
235	0x3b7b0a5e	0.003830574
236	0x3e1bfd9f	0.15233468
237	0x3e855e9d	0.26048747
238	0xbed77e74	-0.42088664
239	0xbe4d25fa	-0.20034018
240	0x3d344902	0.04401494
241	0x3ee70683	0.45122156
242	0x3e52aab1	0.20572926
243	0xbe66da27	-0.22544156
244	0xbe8c7d2a	-0.27439243
245	0x3cc2bf94	0.023772992
246	0x3e81da37	0.25361797
247	0x3e8ec521	0.27884772
248	0x3e319c15	0.17344697
249	0x3b9ba033	0.004749322
250	0x3e2a6c32	0.16642836
251	0x3e0f4b89	0.13993658
252	0x3bb81e3f	0.00561884
253	0x3e9bcc27	0.30429193
254	0x3ccb9a18	0.024853751
255	0x3d4a6cd0	0.049420178

gnn.0.linears_prediction.1.bias f4 [64]
0	0xbd8123eb	-0.06305679
1	0xbf23dc27	-0.640078
2	0xbf138a36	-0.5763277
3	0x3ec1130b	0.3770984
4	0xbf501b78	-0.81291914
5	0x3e8706cb	0.2637237
6	0x3d6a2885	0.05716755
7	0xbec491a0	-0.38392353
8	0xbdcf0c87	-0.10109811
9	0x3ba6424a	0.0050738202
10	0xbebeac5f	-0.37240884
11	0x3ea47378	0.32119346
12	0xbefd5db7	-0.4948556
13	0xbc9280f5	-0.017883757
14	0x3f780184	0.9687731
15	0xbf01541b	-0.5051896
16	0x3e79ec0a	0.24406448
17	0xbf8072e6	-1.0035064
18	0x3d7b9d41	0.061429266
19	0x3e895649	0.26823643
20	0xbeb3530d	-0.350243
21	0x3ed96cae	0.4246573
22	0x3f6f5df6	0.9350275
23	0xbdf6dcb4	-0.120538145
24	0x3f166c8d	0.58759385
25	0x3ded325b	0.1158187
26	0xbf2894ca	-0.65852034
27	0x3e16b488	0.14717305
28	0x3e82718d	0.25477257
29	0xbd204a88	-0.03913358
30	0x3e812461	0.25223067
31	0xbf15ffde	-0.5859355
32	0xbea8f17a	-0.32996732
33	0xbea751ea	-0.32679683
34	0x3f130ae7	0.5743851
35	0xbe5125da	-0.20424595
36	0x3f648496	0.8926481
37	0x3c2cf592	0.010556595
38	0x3f178129	0.5918146
39	0xbccf3653	-0.025294458
40	0x3e26329a	0.1623024
41	0xbdf4ec73	-0.119591616
42	0xbdab0d78	-0.08352178
43	0xbf0a417b	-0.54006165
44	0xbec2ec89	-0.38071087
45	0x3ed00adb	0.40633282
46	0x3f4f834a	0.81059706
47	0xbdf2ae9f	-0.118497126
48	0xbb46a574	-0.003031102
49	0x3dfa59c4	0.12224153
50	0xbf8c2503	-1.0948795
51	0x3f793a7d	0.9735487
52	0xbed5d76e	-0.41765922
53	0x3f850fda	1.0395463
54	0xbeadcb11	-0.3394399
55	0xbe61d497	-0.22053753
56	0xbd9bd8b5	-0.07609693
57	0x3ee9ff7b	0.4570273
58	0xbd719292	-0.05897767
59	0xbf6bcca7	-0.9210915
60	0xbec13be8	-0.37741017
61	0x3f14467b	0.57920045
62	0x3e508ed1	0.2036698
63	0x3cdc09ff	0.026860235

gnn.1.ginlayers.0.apply_func.mlp.linears.0.weight f4 [32, 334]
0	0x3d38ae49	0.045088086
1	0x3e37b812	0.17941311
2	0x3d08c462	0.03339041
3	0xbbc95bb6	-0.006144966
4	0xbeac35b3	-0.3363472
5	0xbe4940ee	-0.19653675
6	0x3d8c59e4	0.06853083
7	0xbde8780d	-0.11351023
8	0xbe25b329	-0.16181625
9	0xbda2f4c2	-0.0795684
10	0xbe79a6a5	-0.24379976
11	0x3e0711d1	0.1319039
12	0x3e24623e	0.16053101
13	0xbec442ce	-0.38332218
14	0xbe167d7c	-0.14696306
15	0xbe0803c4	-0.13282686
16	0xbedf6306	-0.43630236
17	0xbd24d009	-0.04023746
18	0xbd9d700c	-0.07687387
19	0x3e56184f	0.2090771
20	0xbdd8fef1	-0.10595501
21	0xbe7f38fa	-0.24924079
22	0x3e636181	0.22205164
23	0x3df1deb7	0.118100576
24	0x3e8a232e	0.26979965
25	0xbe7022dc	-0.23450798
26	0x3f121e64	0.5707762
27	0x3d71c381	0.059024338
28	0xbeaec55a	-0.34134942
29	0x3e910fb5	0.28332296
30	0x3e63ff89	0.22265448
31	0x3d94b778	0.072615564
32	0xbe15edbc	-0.1464147
33	0xbcafa8b6	-0.021442752
34	0x3d8f3dd2	0.06994213
35	0xbec6274e	-0.38701862
36	0xbe555e56	-0.20836768
37	0xbe98206a	-0.2971223
38	0xbde42454	-0.111397415
39	0xbe24879d	-0.16067357
40	0x3dfd4147	0.12365966
41	0xbcd56ba2	-0.0260523
42	0xbf1656ba	-0.58726084
43	0xbc8d5a99	-0.017255114
44	0x3de95784	0.113936454
45	0x3e2ffe34	0.17186815
46	0xbe1db5f9	-0.15401448
47	0xbc88fdcc	-0.016722582
48	0xbe85e943	-0.26154527
49	0xbdbd7b9e	-0.09252094
50	0xbdac318c	-0.08407888
51	0x3c2a2d9e	0.010386853
52	0xbdb37850	-0.08763182
53	0x3d7351ab	0.059404057
54	0x3de95495	0.11393086
55	0x3e1ed4a5	0.15510805
56	0xbdee2668	-0.11628419
57	0x3d9fa026	0.07794218
58	0xbd95ad7c	-0.0730848
59	0xbe61a568	-0.22035754
60	0xbd954cc1	-0.0729003
61	0xbb322dc7	-0.002718793
62	0xbdbb9f04	-0.09161189
63	0x3e5de672	0.21669939
64	0x3ed19a74	0.4093815
65	0x3d8d1523	0.06888797
66	0xbe62bbce	-0.22141954
67	0xbda94360	-0.08264804
68	0xbe819215	-0.25306764
69	0xbe6dab9b	-0.23209994
70	0x3d5c2026	0.053741597
71	0x3e3bdbbd	0.18345542
72	0xbd901ede	-0.070371374
73	0xbdc4e709	-0.09614379
74	0xbe0c86fd	-0.13723369
75	0xbce94477	-0.02847503
76	0xbedce0ef	-0.4314036
77	0x3d6972cc	0.056994244
78	0xbd9a6f0e	-0.07540713
79	0xbeaeffea	-0.34179622
80	0xbe2d11f2	-0.16901377
81	0xbdd53ecb	-0.104123674
82	0xbe08cd23	-0.13359503
83	0xbe8d4a10	-0.27595568
84	0xbd5e0551	-0.05420429
85	0xbe021005	-0.12701423
86	0x3dbbd080	0.091706276
87	0x3d2c763a	0.042104937
88	0xbdea2ba1	-0.11434103
89	0x3ea1f7cc	0.31634367
90	0xbe2e872c	-0.17043751
91	0xbd8c67ba	-0.06855722
92	0xbeb90c42	-0.36142164
93	0xbdd8ee92	-0.10592379
94	0xbe6de2cb	-0.23231046
95	0xbea624a5	-0.32449833
96	0xbd73369a	-0.059378244
97	0x3db4e4d0	0.08832705
98	0x3e1e962d	0.15486975
99	0x3d106290	0.035250247
100	0xbe22867e	-0.15871617
101	0xbd59a632	-0.05313701
102	0xbf04402c	-0.5166042
103	0xbe1cb960	-0.1530509
104	0x3d16ba70	0.036798894
105	0x3d9f0a41	0.07765628
106	0x3e1b5b12	0.1517146
107	0xbef7e7f3	-0.4841915
108	0x3ea5bf92	0.3237272
109	0xbdfafbcd	-0.122550584
110	0xbc8c9d83	-0.017164951
111	0xbe4001c5	-0.18750675
112	0x3da41445	0.080116786
113	0x3e8e1199	0.277478
114	0xbe1f2ba5	-0.15543993
115	0xbd4ca45e	-0.04996144
116	0xbe0f5f8c	-0.14001292
117	0xbeaf56ff	-0.3424606
118	0xbea13041	-0.31482127
119	0xbbe50449	-0.006989036
120	0x3d217818	0.03942117
121	0xbdc548a6	-0.09632997
122	0x3ea7e2ab	0.3279012
123	0xbec5dabf	-0.38643453
124	0xbf0dd0a9	-0.55396515
125	0x3cf69782	0.030101541
126	0xbe5dc482	-0.21656993
127	0xbe391edf	-0.18078183
128	0x3c042e8c	0.008067738
129	0xbe8e4314	-0.27785552
130	0xbc2aad7e	-0.01041734
131	0x3c8470d6	0.016167086
132	0xbe16c849	-0.1472484
133	0xbe88f023	-0.2674571
134	0xbdc08d06	-0.09401898
135	0x3eccb5d4	0.39982474
136	0xbe944cd1	-0.28964856
137	0x3e950fbe	0.29113573
138	0xbd096d11	-0.03355128
139	0x3cf1fcfb	0.029539576
140	0x3ca38d64	0.019964881
141	0xbd1dea40	-0.038553476
142	0x3cbae075	0.022812108
143	0xbd07b71e	-0.03313362
144	0xbca17f16	-0.01971392
145	0xbe151ba7	-0.1456133
146	0xbe2c694d	-0.16837044
147	0xbe3b8e2c	-0.18315953
148	0xbe672be3	-0.22575335
149	0x3d0aa90a	0.033852614
150	0x3db25038	0.08706707
151	0xbec6b607	-0.3881075
152	0xbee49d98	-0.44651484
153	0x3caf865d	0.021426374
154	0xbddf1fb7	-0.10894721
155	0xbde860c0	-0.113465786
156	0x3e0d3aa8	0.13791907
157	0x3eee5584	0.46549618
158	0x3d9a17c5	0.07524065
159	0xbe8a63bd	-0.2702922
160	0xbc06626f	-0.008202179
161	0xbdef1990	-0.116747975
162	0x3db367ba	0.08760019
163	0x3eb3e33e	0.3513431
164	0xbe96fa3a	-0.29487783
165	0xbea732f3	-0.3265606
166	0x3dcd6fdc	0.10031101
167	0xbcfc7514	-0.030817546
168	0x3e1bbee7	0.15209542
169	0xbe77321c	-0.24140209
170	0xbdd3e22f	-0.103458755
171	0xbc5f169b	-0.013616229
172	0x3d9aa8dd	0.07551739
173	0x3e092021	0.13391162
174	0xbe9a1835	-0.30096593
175	0xbe99ecc1	-0.3006344
176	0xbab323ea	-0.001366732
177	0xbede9225	-0.43470874
178	0x3b54d494	0.003247534
179	0xbe899171	-0.26868775
180	0xbee6ed82	-0.4510308
181	0xbe0e3ac2	-0.13889602
182	0xbc55e8ae	-0.013055963
183	0xbe1bcfc8	-0.15215981
184	0xbe0c7993	-0.13718252
185	0xbdf12a0a	-0.117755964
186	0xbe5f166b	-0.21785896
187	0x3df94af0	0.12172496
188	0xbea65b78	-0.3249166
189	0x3e93966d	0.28825703
190	0xbdcf2ab3	-0.10115566
191	0xbbe757cf	-0.007060028
192	0xbcbaae44	-0.022788174
193	0xbebdc5be	-0.37064928
194	0xbe555491	-0.20833041
195	0xbed0376d	-0.40667287
196	0xbe38f896	-0.18063578
197	0x3efa0d4a	0.48838264
198	0x3e1942e8	0.14966929
199	0x3e999fe6	0.30004805
200	0x3e0420fe	0.1290321
201	0x3e0405fd	0.1289291
202	0x3e7f53c3	0.24934296
203	0xbec0b694	-0.37639296
204	0xbdbe6cbb	-0.092980824
205	0xbd06e524	-0.03293337
206	0xbe001262	-0.12507012
207	0xbe5c2c0e	-0.2150118
208	0xbe404e12	-0.18779781
209	0x3ed98c03	0.42489633
210	0x3e1aecb8	0.15129364
211	0xbe7a69bd	-0.24454398
212	0x3cf58b61	0.029973688
213	0xbe930ec2	-0.28722197
214	0x3ccb7ff5	0.024841288
215	0x3c549b4b	0.012976478
216	0x3b8e07c3	0.0043344214
217	0xbe25931b	-0.16169398
218	0xbe1f1ac0	-0.15537548
219	0x3e88df71	0.26732972
220	0xbefc6e35	-0.4930283
221	0xbc17bf65	-0.009261941
222	0x3eac4d91	0.33652928
223	0x3e58313b	0.2111253
224	0xbe5d007e	-0.21582219
225	0xbe39b776	-0.18136391
226	0xbc8e60fc	-0.01738023
227	0xbe3ddfa2	-0.1854234
228	0x3ea92b00	0.3304062
229	0xbe8021ff	-0.25025937
230	0x3c3c0561	0.011475892
231	0xbe9cc552	-0.30619293
232	0xbe08499a	-0.13309327
233	0xbe8a3069	-0.2699006
234	0x3e478c63	0.19487147
235	0xbdf4d117	-0.11953943
236	0xbd2b60ca	-0.041840352
237	0xbe28b57d	-0.16475482
238	0xbed881c9	-0.42286518
239	0x3e00e791	0.12588336
240	0xbdb1c04e	-0.08679257
241	0xbe200183	-0.15625577
242	0xbd16d9b7	-0.036828723
243	0xbd5828c7	-0.052773263
244	0xbde23f5f	-0.11047243
245	0x3e7a6d38	0.24455726
246	0x3ebd90c9	0.37024525
247	0xbe616225	-0.22010095
248	0x3c9d2074	0.019180514
249	0xbe91283d	-0.28351012
250	0xbdeb2f45	-0.11483625
251	0xbe40902f	-0.18805002
252	0xbd8ca8a0	-0.068681
253	0xbda800a9	-0.08203251
254	0x3e1b0ca5	0.15141542
255	0xbd01e5f7	-0.031713452

gnn.1.ginlayers.0.apply_func.mlp.linears.0.bias f4 [32]
0	0xb81d1b0c	-3.7456906e-05
1	0x38ef64c3	0.000114151764
2	0xb95576c2	-0.00020357504
3	0xb92d142f	-0.00016506085
4	0x3984728e	0.00025262352
5	0x398df82c	0.00027078518
6	0x38df351b	0.0001064336
7	0x3852f112	5.0292416e-05
8	0x3901aba7	0.00012366344
9	0x382adbbc	4.0735802e-05
10	0xb647d820	-2.9779112e-06
11	0xb74ec0e4	-1.2323468e-05
12	0x36b533e0	5.4002594e-06
13	0x36fd3d4c	7.5471235e-06
14	0xb8eb838a	-0.00011230174
15	0xb7b08106	-2.1040916e-05
16	0xb786efe0	-1.6085745e-05
17	0xb8008e42	-3.0650066e-05
18	0xb7b057ea	-2.1021773e-05
19	0x37626c2a	1.3495834e-05
20	0x367d4440	3.7739665e-06
21	0xb815e61c	-3.5738674e-05
22	0x38c018f2	9.15992e-05
23	0x393fee9e	0.00018304071
24	0x38c59aea	9.422547e-05
25	0x39400d68	0.00018315541
26	0xb8b98112	-8.845529e-05
27	0xb93024bc	-0.00016798353
28	0x37fe6700	3.0327123e-05
29	0xb6b83a4c	-5.490414e-06
30	0xb988e928	-0.00026113656
31	0xb7530ec1	-1.2580015e-05
